results/test/Car_agent/Car_agent-7714.onnx (onnx, 86542 bytes, 7 tensors)

network_body._body_endoder.seq_layers.0.weight f4 [128, 23]
000000 4d 1a 70 be e4 7b 04 bc 62 b8 00 3e d2 86 2f be
       -0.23447533 -0.008086178 0.12570336 -0.17141274
000010 03 88 87 be 43 73 3b 3e 5e ff 17 3e 91 c2 3c 3e
       -0.26470956 0.18305688 0.14843509 0.18433596
000020 d3 68 9d be f2 80 03 3b fa 5d 15 3d ed 7f 8d be
       -0.30744037 0.002006587 0.036466576 -0.27636662
000030 a9 84 81 3d f0 34 9e 3d 43 5f 51 3e 59 fd c9 bc
       0.06324131 0.07724941 0.20446496 -0.024656938
000040 02 6a 0b be cd e5 ad bd 7d 8b 37 be e9 eb 6d bc
       -0.13614658 -0.08491097 -0.17924304 -0.014521577
000050 b0 49 c7 3d 0a f1 22 be 08 09 52 be 76 82 74 3d
       0.09730852 -0.15912262 -0.20511258 0.05969473
000060 2a b5 12 be f7 6f 16 3e 78 32 d5 be 01 ba a9 3c
       -0.14326921 0.14691149 -0.41640067 0.020718576
000070 0c 84 f8 bc 34 b6 21 be 43 00 21 3f 0c d6 71 be
       -0.030336402 -0.15792161 0.62891024 -0.23616809
000080 e8 d3 f6 3d cb e9 ff 3a 4e d1 95 3e 0e 31 58 3d
       0.12052137 0.0019524632 0.2926125 0.052781157
000090 40 59 73 3e ce bd 31 3e a7 d1 5b 3e 53 54 0d 3e
       0.23764515 0.17357561 0.21466695 0.13801698
0000a0 ed 2b f0 3c bd 5c e9 bd e7 2a 34 be 15 19 96 3d
       0.02931782 -0.113946415 -0.17594491 0.07329003
0000b0 f4 63 6d 3e 96 0c 57 3e b0 15 67 3e 2e 33 2e 3e
       0.2318266 0.21000895 0.22566867 0.17011711
0000c0 c4 c6 73 3e 62 a3 9e bc 7f 14 00 be 8a 6b a9 bd
       0.23806292 -0.019365016 -0.12507819 -0.082724646
0000d0 fd 7e 6b bd ab 9d 0c be a6 1e aa bd 63 06 d4 3d
       -0.057494152 -0.1373202 -0.08306627 0.10352781
0000e0 98 80 b6 be a4 e8 8c be aa 13 15 be d2 0f 7e be
       -0.35644984 -0.2752124 -0.14558282 -0.24810722
0000f0 54 7d 78 3e 35 fb 20 3d 8d 14 8c be 86 0c f7 be
       0.24266559 0.03930207 -0.2735943 -0.48251742
000100 db 64 31 3e 2c 00 5c 3e bb 28 f5 3c 05 19 cd 3c
       0.1732363 0.2148444 0.029926648 0.025036344
000110 de 9b ed be 43 10 c8 bd 76 4d 62 3e e3 6c 5e be
       -0.4640798 -0.09768727 0.22099862 -0.21721224
000120 13 08 15 be a9 e4 13 be 60 0f 46 3d 01 1b 4c be
       -0.14553861 -0.14442696 0.048354506 -0.19932176
000130 b1 27 09 bf 46 e9 09 3f c6 00 b3 3c 02 ce 4c be
       -0.5357619 0.5387157 0.021850955 -0.2000046
000140 41 fb 06 be ea 3a 22 3e 31 87 4b 3e 89 32 7d bd
       -0.13181783 0.15842786 0.1987579 -0.061815772
000150 40 84 d8 3d 14 92 0d bd e7 b5 1a 3e 70 9b d3 3c
       0.105721 -0.03456314 0.15108453 0.025830954
000160 38 41 ad 3b f2 68 3b 3e 9b c7 22 be f1 68 b7 bc
       0.0052873157 0.18301752 -0.15896456 -0.022388907
000170 dd a4 27 be 83 59 89 bb 3e 46 40 be bf b2 07 3e
       -0.16371484 -0.004191579 -0.18776795 0.1325178
000180 b6 4c 31 3d df 8b 06 be a0 db 21 3e 9e f4 b1 be
       0.043286048 -0.13139294 0.15806437 -0.3475694
000190 2b 24 09 be 1a 02 5c 3e ae cf d9 3d 0e d3 4f be
       -0.13392703 0.21485177 0.10635315 -0.20295355
0001a0 00 0d 23 be 6b df 33 3e 7b cb 24 bc df 12 8d 3d
       -0.15922928 0.17565696 -0.010058279 0.06888365
0001b0 43 15 36 3e 56 6d c3 bd b9 ff a6 be 86 d4 9d 3e
       0.17781548 -0.095423386 -0.32616976 0.30826205
0001c0 f9 86 2c 3e 57 30 97 be 93 bf 09 be 37 55 eb 3d
       0.16848363 -0.29529068 -0.13451986 0.11490863
0001d0 0e af 6c bd db e8 fa bd fb 77 b2 bc 8f 26 97 3d
       -0.057784133 -0.12251445 -0.021785727 0.07380401
0001e0 56 df 88 bd 2e bf 9f 3e 1d f5 07 3d b4 ce cb 3d
       -0.06683223 0.31200546 0.033192743 0.09951535
0001f0 b4 b5 5c 3e 5a 66 ba be ae 64 bd be 96 6b f7 bc
       0.21553689 -0.36406213 -0.36990875 -0.030202668
000200 97 43 b7 bc 47 3e 27 bd 76 88 42 3d 3e d6 12 be
       -0.022371097 -0.040830877 0.04749342 -0.1433954
000210 ab dc 61 be f9 2a 31 be 7d 0a 9c 3d 3a 78 71 bd
       -0.22056834 -0.17301549 0.07619188 -0.058952548
000220 d0 00 28 3e 63 65 02 3d 49 14 b5 bd 27 ee ed 3c
       0.1640656 0.03183497 -0.0884176 0.029044224
000230 9b dc 95 bd 4a a3 29 be 13 1b 25 be 70 d8 a0 be
       -0.07317468 -0.16566196 -0.16123609 -0.3141513
000240 f5 22 eb 3d 4e ab 96 be 16 26 73 bd 69 55 fc bd
       0.11481277 -0.2942757 -0.059362493 -0.12320978
000250 17 28 d7 bd 83 fb d5 3c 6e 24 31 3c 0b 7f a5 3d
       -0.105056934 0.026120907 0.010811908 0.08080872
000260 44 51 91 bd c2 5d 0c 3e 74 d6 3c be ea 89 df bd
       -0.07095578 0.13707641 -0.18441182 -0.10914977
000270 97 d9 4a 3d cf de b8 3d 07 07 59 be b1 47 81 3e
       0.049523916 0.09026872 -0.21194087 0.2525001
000280 4d 49 c5 be 2f c7 b9 bc a1 84 9e be 67 b2 81 3d
       -0.38532487 -0.022677986 -0.30960563 0.06332856
000290 bb 8a 02 be a9 26 82 3e 60 25 0f 3e 59 b8 15 3e
       -0.12748234 0.2542012 0.13979101 0.14621104
0002a0 7d 48 24 3d e0 76 72 3c 84 29 f2 3d c6 a0 60 3e
       0.040108193 0.01479885 0.11824325 0.2193633
0002b0 50 1a 7d be 93 4b 4d be 3e dd 94 bc 49 48 a2 be
       -0.24717069 -0.2004836 -0.018171903 -0.31695774
0002c0 08 b6 0a be 7d 74 b1 bd b4 01 b7 be 89 87 22 bd
       -0.13546002 -0.086647965 -0.35743487 -0.039680038
0002d0 73 23 de bd 9d ed b9 3e 37 7a 5d 3c 1b dc b6 be
       -0.10846605 0.36314097 0.013517908 -0.35714802
0002e0 a6 49 b1 bd b5 a0 a5 3e da 6f 57 bd 90 d3 0c be
       -0.086566254 0.32349172 -0.052596904 -0.1375258
0002f0 89 7b a5 be 90 72 81 3e b7 c4 ae 3e ae 17 b1 3e
       -0.32320812 0.25282717 0.34134457 0.3458838
000300 28 76 9e bd c1 38 1d 3e a1 ed 86 be 64 8c 14 39
       -0.0773738 0.15353681 -0.2635317 0.0001416668
000310 b2 51 bb be 6a 50 08 3e 0d b3 76 bd 5e 07 21 be
       -0.36585766 0.13311926 -0.06022935 -0.15725467
000320 8b d5 5b 3e af 9f 5a bd df d8 c5 bd 33 96 99 3e
       0.21468179 -0.053374942 -0.096605055 0.29997405
000330 78 17 13 3b 3c 6a 3f 3e 22 ad f7 3d e9 8f 4d be
       0.0022444408 0.18692869 0.12093569 -0.20074429
000340 1b 43 a8 be df 3f 28 3e e7 ff 50 be 82 96 cf be
       -0.32863697 0.16430615 -0.20410119 -0.40544516
000350 1f bb 33 3e ff c4 b1 3e af 4a 8e 3e 37 eb 05 3e
       0.1755185 0.3472061 0.27791354 0.13078009
000360 aa bf 41 3e 8f 89 a9 3d f6 02 08 bd 37 63 13 be
       0.1892077 0.0827819 -0.03320595 -0.14393316
000370 af 74 3f 3e 50 7c d9 be 96 6a 31 3e b3 e2 19 3d
       0.18696855 -0.42477655 0.17325816 0.037569713
000380 75 d4 0e be 3c d6 6f be 7a f7 19 bd 1b b9 dc bd
       -0.13948233 -0.23421568 -0.037589528 -0.107774936
000390 39 3e b1 be fc 27 21 3d 2d ee 1e be 73 78 31 3e
       -0.34617785 0.039344773 -0.15520544 0.17331104
0003a0 65 44 5e 3e 3d ab c9 bc 44 a5 d7 3e ae 8a b7 3e
       0.21705778 -0.024617786 0.42118275 0.35847992
0003b0 8b 35 84 3e 2f ba 4c 3e 56 a5 fd 3d 17 14 38 3d
       0.258221 0.19992898 0.12385051 0.044941034
0003c0 85 ae b5 3d cf 10 40 3d 63 1c 63 be 5b 0e 28 3e
       0.088711776 0.04689103 -0.22178797 0.16411726
0003d0 52 7b 55 3e 40 1d f7 3e e0 86 34 3e 35 2f c7 3d
       0.20847824 0.48264503 0.17629576 0.09725801
0003e0 2e 79 27 3e e2 ed 46 be 11 7f de be 55 dd a0 3d
       0.1635482 -0.19426683 -0.4345632 0.07854716
0003f0 eb 05 a1 3d 46 bc 88 3e 4e 33 b7 3d 2a b2 9e bd
       0.07862457 0.2670614 0.089453325 -0.07748826

network_body._body_endoder.seq_layers.0.bias f4 [128]
000000 00 00 00 00 00 00 00 00 00 00 00 00 00 00 00 00
       0.0 0.0 0.0 0.0
000010 00 00 00 00 00 00 00 00 00 00 00 00 00 00 00 00
       0.0 0.0 0.0 0.0
000020 00 00 00 00 00 00 00 00 00 00 00 00 00 00 00 00
       0.0 0.0 0.0 0.0
000030 00 00 00 00 00 00 00 00 00 00 00 00 00 00 00 00
       0.0 0.0 0.0 0.0
000040 00 00 00 00 00 00 00 00 00 00 00 00 00 00 00 00
       0.0 0.0 0.0 0.0
000050 00 00 00 00 00 00 00 00 00 00 00 00 00 00 00 00
       0.0 0.0 0.0 0.0
000060 00 00 00 00 00 00 00 00 00 00 00 00 00 00 00 00
       0.0 0.0 0.0 0.0
000070 00 00 00 00 00 00 00 00 00 00 00 00 00 00 00 00
       0.0 0.0 0.0 0.0
000080 00 00 00 00 00 00 00 00 00 00 00 00 00 00 00 00
       0.0 0.0 0.0 0.0
000090 00 00 00 00 00 00 00 00 00 00 00 00 00 00 00 00
       0.0 0.0 0.0 0.0
0000a0 00 00 00 00 00 00 00 00 00 00 00 00 00 00 00 00
       0.0 0.0 0.0 0.0
0000b0 00 00 00 00 00 00 00 00 00 00 00 00 00 00 00 00
       0.0 0.0 0.0 0.0
0000c0 00 00 00 00 00 00 00 00 00 00 00 00 00 00 00 00
       0.0 0.0 0.0 0.0
0000d0 00 00 00 00 00 00 00 00 00 00 00 00 00 00 00 00
       0.0 0.0 0.0 0.0
0000e0 00 00 00 00 00 00 00 00 00 00 00 00 00 00 00 00
       0.0 0.0 0.0 0.0
0000f0 00 00 00 00 00 00 00 00 00 00 00 00 00 00 00 00
       0.0 0.0 0.0 0.0
000100 00 00 00 00 00 00 00 00 00 00 00 00 00 00 00 00
       0.0 0.0 0.0 0.0
000110 00 00 00 00 00 00 00 00 00 00 00 00 00 00 00 00
       0.0 0.0 0.0 0.0
000120 00 00 00 00 00 00 00 00 00 00 00 00 00 00 00 00
       0.0 0.0 0.0 0.0
000130 00 00 00 00 00 00 00 00 00 00 00 00 00 00 00 00
       0.0 0.0 0.0 0.0
000140 00 00 00 00 00 00 00 00 00 00 00 00 00 00 00 00
       0.0 0.0 0.0 0.0
000150 00 00 00 00 00 00 00 00 00 00 00 00 00 00 00 00
       0.0 0.0 0.0 0.0
000160 00 00 00 00 00 00 00 00 00 00 00 00 00 00 00 00
       0.0 0.0 0.0 0.0
000170 00 00 00 00 00 00 00 00 00 00 00 00 00 00 00 00
       0.0 0.0 0.0 0.0
000180 00 00 00 00 00 00 00 00 00 00 00 00 00 00 00 00
       0.0 0.0 0.0 0.0
000190 00 00 00 00 00 00 00 00 00 00 00 00 00 00 00 00
       0.0 0.0 0.0 0.0
0001a0 00 00 00 00 00 00 00 00 00 00 00 00 00 00 00 00
       0.0 0.0 0.0 0.0
0001b0 00 00 00 00 00 00 00 00 00 00 00 00 00 00 00 00
       0.0 0.0 0.0 0.0
0001c0 00 00 00 00 00 00 00 00 00 00 00 00 00 00 00 00
       0.0 0.0 0.0 0.0
0001d0 00 00 00 00 00 00 00 00 00 00 00 00 00 00 00 00
       0.0 0.0 0.0 0.0
0001e0 00 00 00 00 00 00 00 00 00 00 00 00 00 00 00 00
       0.0 0.0 0.0 0.0
0001f0 00 00 00 00 00 00 00 00 00 00 00 00 00 00 00 00
       0.0 0.0 0.0 0.0

network_body._body_endoder.seq_layers.2.weight f4 [128, 128]
000000 02 d2 8e 3d 21 36 ec bd 5e 15 1d bd 04 9d 92 bd
       0.069736496 -0.11533762 -0.038350455 -0.071588546
000010 68 cb a7 3d e1 3e 2d 3e 11 7c 53 bc 6d 9d 7a 3d
       0.081930935 0.16918518 -0.012907998 0.06118529
000020 7e 38 96 bd c3 c1 0d 3b d7 21 fe bc 4b 72 fb 3c
       -0.07334994 0.0021630384 -0.031021995 0.030694148
000030 cb 46 a4 bd 13 db 81 3d d6 f5 92 3a 0d 89 39 3d
       -0.08021315 0.06340613 0.0011212181 0.045296717
000040 1d cc 88 bd 8d 2b db 3d 9d 9e 38 3d 7f 98 ca bd
       -0.066795565 0.10701666 0.04507314 -0.098923676
000050 c9 72 b9 3d 6d 04 b6 3c 01 1a 97 bd 5d d7 79 bd
       0.09055097 0.022218907 -0.07378007 -0.060996402
000060 0e ff a1 3d 6f 5d 25 bc 5d ae 04 bb 4c e2 b2 bd
       0.07909976 -0.010093077 -0.002024553 -0.08734569
000070 d6 d1 fa bc c4 9e 53 3d f2 74 11 be a9 7b f0 3c
       -0.030617636 0.051665083 -0.14204767 0.02935584
000080 42 b8 88 bd 42 9a 55 be 05 56 a4 3d b7 8c e0 bc
       -0.066757694 -0.20859626 0.080242194 -0.027410848
000090 ef a7 f8 3c b3 36 eb 3d 86 b5 72 3c 51 2b f4 bd
       0.030353514 0.114850424 0.014813786 -0.119223244
0000a0 6c 13 a5 3c d5 df a5 bc 3a 45 d3 bd b6 fa 1b 3e
       0.020150863 -0.020248333 -0.10315938 0.15232357
0000b0 54 16 5b 3d b3 4c d0 bc 01 49 03 3c 95 63 21 bc
       0.05348809 -0.025427198 0.008013011 -0.009850402
0000c0 01 7e 08 be 1b b7 8a bd c8 9d 95 bb 15 bc 7b bd
       -0.13329317 -0.06773206 -0.004565928 -0.061458666
0000d0 ba 50 ae 3d df 50 e7 3c 6e 71 df 3d 90 d7 bc 3c
       0.08511491 0.028236805 0.10910307 0.023052007
0000e0 76 f0 17 bd 5c a5 4f 3b 5d 05 4e 3d 81 02 81 3c
       -0.037094556 0.0031684255 0.050298084 0.015748264
0000f0 34 ba f7 bd 8f 3b f6 3d b8 53 72 3c 70 cf 06 bd
       -0.12096062 0.12023079 0.014790468 -0.03291267
000100 20 0d 16 3e 88 eb 03 bc b1 19 30 bd e3 79 e0 bb
       0.14653444 -0.0080517605 -0.04299325 -0.0068504675
000110 20 a5 56 3d 94 ac 38 bd 8b ab dd 3d e5 6f 92 3d
       0.05240357 -0.04508646 0.10823735 0.071502484
000120 31 13 db 3c 0e 73 b8 3d e4 7f 15 3d 02 b7 32 3d
       0.02674255 0.0900632 0.03649892 0.04363156
000130 e8 da 99 3d f0 8d 9f 3c 4e 9d b4 3d 06 0e 5b bc
       0.07512456 0.01947686 0.08819066 -0.013370043
000140 39 5e 75 3d d3 11 93 bd d2 ed 49 bd c6 93 35 be
       0.05990431 -0.07181134 -0.04929907 -0.17732152
000150 cc b8 c3 3c 17 d4 38 be 84 c7 3d bd ea 26 23 3d
       0.023891829 -0.18049656 -0.04633285 0.039832033
000160 d9 b0 15 bd 80 0d f1 3c ec 44 26 bd 7b 2c c8 bc
       -0.03654561 0.029425383 -0.040593073 -0.024435272
000170 44 b1 e7 3c 23 4e 75 bd c8 0b 6f bc 46 92 13 bd
       0.028282769 -0.05988897 -0.014590211 -0.03602817
000180 53 b3 17 be 78 42 01 3d 5b f7 63 3d 6e df cd 3c
       -0.148145 0.03155753 0.05565582 0.025130954
000190 0f cb 24 3e 5c de 11 bd 1a 93 c2 3c 2f c1 b9 3c
       0.16093086 -0.03561245 0.023751784 0.022675125
0001a0 19 bf bd 3d 76 66 7f bd fb 64 e4 bc 9c ca 02 3e
       0.092649646 -0.062353574 -0.027880182 0.12772602
0001b0 34 fb a0 bd ed ce 25 3d fa f5 0e bb c4 a0 de 3b
       -0.07860413 0.040480543 -0.0021814094 0.006794067
0001c0 9b 99 9e bd df d7 a3 3d f6 54 ac 3c 66 2c 62 3c
       -0.07744142 0.080001585 0.021036606 0.013804531
0001d0 d1 da 8f 3c 2c b2 6f 3d c0 c4 05 be be 44 29 bc
       0.017560394 0.058519527 -0.13063335 -0.010331331
0001e0 08 ce ec bd 09 6d 4f 3b 37 68 d7 bd dd 8d 83 be
       -0.11562735 0.0031650683 -0.10517924 -0.2569417
0001f0 c7 29 5b bd 7b 64 f9 3d ba 09 ec bd e0 1e 98 bc
       -0.05350664 0.12177368 -0.11525293 -0.01856941
000200 e7 09 e7 bd bf 7c fb bd b6 39 56 bd da 92 a1 3d
       -0.112811856 -0.12279653 -0.05230113 0.07889338
000210 75 cd ac 3d f6 e2 23 b9 0c a3 1e bd 9d 9f ac bd
       0.08437625 -0.00015629441 -0.038729712 -0.08428881
000220 fa 40 b4 3d fa 5b 8a 3d e9 91 c5 3d 22 f8 8f 3d
       0.08801456 0.067558244 0.09646971 0.070297495
000230 7e c7 1e 3e 25 27 b5 3d 72 31 ef 3a 2b 65 7d 3e
       0.15505788 0.08845357 0.0018248989 0.24745624
000240 c8 c6 df bd 53 bd 6c 3c ef eb 23 bd 2a 99 90 3d
       -0.109265864 0.014449435 -0.040019926 0.07060464
000250 89 c2 81 3d 47 e3 bd bd a2 1c 09 3d 42 f8 bf 3c
       0.06335933 -0.09271865 0.033474572 0.023433808
000260 6a 7f 20 3e 74 95 61 bd 2c 30 e1 3d 2c 9b 3e 3d
       0.15673605 -0.05507417 0.10995516 0.046534702
000270 f5 73 e2 3d 1d bb 60 bd c1 81 0a bd 40 f9 b7 3d
       0.11057273 -0.054865945 -0.03381515 0.089830875
000280 b6 bd 79 3c d7 a1 af 3d 63 4f 3e 3d 4e 7c d4 3d
       0.0152429845 0.085757904 0.046462428 0.10375272
000290 5b 69 2c bc 5f 78 01 bd a3 f5 b2 bd ce 26 23 bd
       -0.010523166 -0.031608935 -0.08738258 -0.03983193
0002a0 ab f6 21 bd a3 36 d3 bd 5a 89 3b 3c e7 43 ef bd
       -0.03954188 -0.103131555 0.011446321 -0.11682873
0002b0 e4 3e 3d 3d 03 9b 1f bd 24 88 2a 3e 5d d8 f3 3b
       0.046202555 -0.03896619 0.16653496 0.007441564
0002c0 96 9d 2a 3e ab 8f 01 3e d8 fa 9c 3d 1f 2b 01 be
       0.16661677 0.12652461 0.07665032 -0.12614106
0002d0 40 ac 0c be ab 79 4b bd c6 28 1a bd 7b b7 bd 3c
       -0.13737583 -0.04967658 -0.03763654 0.02315878
0002e0 ec 42 0b bd 31 b9 04 3e c0 53 be bd d0 f8 f1 3c
       -0.03399937 0.1296127 -0.09293318 0.029537588
0002f0 1c 23 cf 3c 8d e0 66 be 3a 51 67 3d 2b 57 a4 3c
       0.025285296 -0.22546597 0.056473948 0.020061096
000300 da e1 8b bd 43 c6 06 be 44 0d a3 bb 48 7c e8 3d
       -0.06830187 -0.13161568 -0.0049759466 0.1135183
000310 fc 14 d6 3c 05 7e 39 bd 9f 8c 81 bd d1 79 4e bd
       0.026133053 -0.045286197 -0.063256495 -0.050409142
000320 f0 65 7d bd de 3a a6 bd 35 95 10 be d1 b9 78 3d
       -0.061864793 -0.08116697 -0.14119418 0.060724083
000330 18 fb 77 3e fa 77 72 3b 4e e1 46 3d 5d 63 84 bc
       0.24216878 0.003699778 0.04855471 -0.016160661
000340 8b a6 50 3c ad cf 1a 3e 06 20 06 3d d1 33 8d 3d
       0.012735019 0.15118285 0.032745384 0.06894649
000350 b4 85 30 3e 8f e7 12 3d 12 3b 07 be 27 dd a9 3d
       0.17238504 0.035865363 -0.13206127 0.082941346
000360 85 8a 86 bc 7e 03 f9 3c b4 b6 ce bc 89 f4 b5 bd
       -0.016423473 0.030397173 -0.025233604 -0.08884532
000370 7f f6 88 bd eb e4 5e bc 3e 59 1d 3e a5 59 26 bd
       -0.066876404 -0.013604383 0.15366074 -0.040612835
000380 30 2e 3a 3e dc a7 d6 bb da f1 f7 bc 71 b0 33 be
       0.18181682 -0.006550772 -0.030266691 -0.17547776
000390 1b 79 97 bc fc 23 c7 bc 40 7f 5f bd 48 cf 60 bc
       -0.018490365 -0.02430915 -0.054564714 -0.013721295
0003a0 65 47 5d 3d 80 2c ea 3d 9f 8b cc bc de 15 a6 bc
       0.054023165 0.11434269 -0.02496892 -0.020274099
0003b0 75 86 17 bb 07 4f d2 bd 16 ff 1f 3e 4b fe 1c bd
       -0.0023120914 -0.102689795 0.15624651 -0.03832845
0003c0 dd 87 ff 3d 64 8c e1 bd 27 14 2f be ba 35 ea bc
       0.12477086 -0.110131055 -0.17097531 -0.028590072
0003d0 42 e6 e3 bd 4e 6e 07 bd 75 6f 60 3e c7 dd c6 3c
       -0.111279026 -0.03306418 0.21917517 0.024275674
0003e0 b5 7e 03 3e b7 c8 14 bc 89 e1 89 3d 5b f6 ce 3b
       0.12841304 -0.009081057 0.067324705 0.006315989
0003f0 ad 68 30 bd 5c c8 f0 bd 46 11 23 3d 9b 15 01 3d
       -0.043068577 -0.117569655 0.039811395 0.031514745

action_model._continuous_distribution.log_sigma f4 [1, 2]
000000 00 00 00 00 00 00 00 00
       0.0 0.0

action_model._continuous_distribution.mu.weight f4 [2, 128]
000000 73 49 0e bb d6 57 b7 bc 30 ab 9e 3c d5 98 86 3c
       -0.002171126 -0.02238075 0.019368738 0.016430298
000010 b3 46 24 3c 3b ad 70 bc af 0c 83 bc 4f 75 23 3c
       0.010026622 -0.014689739 -0.015997259 0.009976699
000020 23 b6 dc 3b 13 cb 8c 3c 60 8b 4b bc 8f 8b 04 bc
       0.0067355796 0.017186677 -0.012423366 -0.008089914
000030 3b 0a 0e 3c e2 fa 94 bc 83 d6 0b 3c 93 b0 7f bc
       0.008669431 -0.018186036 0.00853503 -0.015606063
000040 d8 f8 fd bb 8c 40 94 3c 10 4f 0f 3d 20 6a b3 3b
       -0.0077506118 0.018097185 0.03498751 0.0054752976
000050 8a bc 7b bb 6a 4e fe bb 42 69 1a 3c 15 82 f7 bc
       -0.0038411939 -0.0077608125 0.0094245095 -0.030213395
000060 6e 60 17 3a 0e 99 44 bc 07 c4 e6 ba 45 f9 5f bb
       0.0005774562 -0.011999382 -0.0017606028 -0.0034175676
000070 ae 8d 28 ba 82 d1 aa bc 22 2d ad 3c 74 ee ba bb
       -0.00064298033 -0.020851854 0.021139685 -0.0057046954
000080 77 17 af 3c 58 bb 6b 3c 6f cd c3 3b d3 c2 cf bc
       0.021373494 0.014387928 0.0059754173 -0.025361454
000090 35 d1 d7 bb 07 d5 de ba 6f 79 a7 bc a7 22 1d bc
       -0.0065862187 -0.0017000743 -0.020443646 -0.009590781
0000a0 7b 70 96 bc 7d af 3f 3c 23 a9 3b 3c 4a 95 07 bc
       -0.018364182 0.0116995545 0.0114539 -0.008275339
0000b0 b3 18 33 bb db 1d e8 bb de 73 16 bd aa 06 a5 3b
       -0.0027327954 -0.007083637 -0.036731593 0.005036195
0000c0 11 22 3d bc 95 a5 4f 3c c6 68 47 3a af 7e 37 3c
       -0.011543767 0.012673755 0.000760686 0.011199637
0000d0 f0 f8 2d bc f5 fc e9 ba cb 64 86 3b 51 e9 aa bc
       -0.010618433 -0.0017851876 0.004101371 -0.020863207
0000e0 77 fe af 3c 0f b2 0c 3c bb 33 fa ba 7c 80 00 3c
       0.021483643 0.008587374 -0.0019088903 0.007843133
0000f0 64 4e 1b bd 83 93 9b bc c8 7e e4 3c 03 a7 1f 3d
       -0.037916556 -0.018991238 0.027892485 0.038977634
000100 9f 8b 44 3c e3 bc ad 3c 25 2d 44 3b 38 98 ca 3c
       0.011996179 0.021208232 0.0029934135 0.024730787
000110 bf 4e 1b 3c ae 13 03 bd df 76 77 3b 9b 3f 79 bc
       0.009479224 -0.03200119 0.0037760062 -0.015212919
000120 10 1c dd 3b 1c 69 92 bb 62 97 4a bd 10 fd 17 3c
       0.00674773 -0.0044680964 -0.049460776 0.009276643
000130 97 63 b9 3c 96 36 30 39 ef 84 60 3a a7 d8 52 bc
       0.022630496 0.00016805003 0.00085647305 -0.012869037
000140 12 78 71 3a 57 61 cf bb 0b 1d 4f bb 8d 60 55 bc
       0.0009211312 -0.0063287425 -0.0031603004 -0.013023508
000150 a8 84 e9 3a 86 75 a5 3c b4 35 c6 3c c2 da 55 3b
       0.0017816024 0.020197641 0.02419553 0.003263161
000160 a5 f2 ce b9 08 d8 7e bc 86 5f 0a bd 77 04 f7 3c
       -0.00039472166 -0.015554436 -0.033782504 0.030153496
000170 85 b2 f1 bb cb a7 1c 3d 42 11 58 bc 54 63 2d 3c
       -0.0073760175 0.038245957 -0.013187708 0.010582764
000180 5f f1 09 bd 62 4b e2 3b 33 49 29 bc b2 b6 45 ba
       -0.033677455 0.006905959 -0.010332393 -0.00075421773
000190 f8 b0 42 bd 17 57 0b 3d ba a1 1f bb 88 27 cd 3c
       -0.04753205 0.034018602 -0.002435787 0.025043264
0001a0 f3 9e 1c bd cc 0f 47 3b b0 7c 6e 3c 49 ca 34 3a
       -0.038237523 0.0030374406 0.014556095 0.0006896598
0001b0 b2 5e e2 bb 60 75 35 bb 18 0c e4 3c f5 b7 7e bc
       -0.006908261 -0.002768837 0.027837798 -0.015546788
0001c0 83 7e e9 bc 10 ea 8f bc 4f 9b a0 39 2a d9 f6 3c
       -0.028502708 -0.017567664 0.00030633292 0.030132849
0001d0 12 ce e4 3b 8f fe e0 bb 8b ec bb bc 0c 01 bc 3b
       0.0069825733 -0.0068662832 -0.02293994 0.0057374295
0001e0 bb a4 96 bb f9 7c 1c bc 03 b3 58 bb bd 17 82 3b
       -0.004597274 -0.00955128 -0.0033065684 0.003970115
0001f0 fa 53 f2 3c 6f 76 17 bd 77 9f 9e bc e2 42 32 3c
       0.029581059 -0.03697818 -0.019363148 0.010880204
000200 06 d5 9c 3b b8 c5 fa 3b 7f 82 b5 3c a9 9f 14 bc
       0.0047861366 0.0076529644 0.022156952 -0.009071269
000210 c1 b6 93 3b 0b 76 5b 3c 96 84 0e 3d eb a8 82 bc
       0.00450787 0.013394843 0.034794413 -0.015949687
000220 6d 10 13 3c 7b 37 8e 3c 9b 0e b5 bb f3 66 e7 3b
       0.008976084 0.01736044 -0.0055254227 0.007061833
000230 3c ef b2 3c 67 8b 02 3b 2b 37 72 3c e7 96 05 3c
       0.021842591 0.0019919516 0.014783661 0.008153654
000240 ce f2 b4 3c 28 3b 64 bb 75 cd 7f bc e3 73 01 3d
       0.022088435 -0.00348253 -0.01561295 0.03160466
000250 7b 3a dd 3a 55 ab fe 3b fd 7f f6 3b 03 18 5a 3c
       0.001687839 0.007771889 0.0075225816 0.013311389
000260 b3 71 d1 bb c5 13 e5 b9 db a2 f0 3c b0 a0 d4 bc
       -0.006391728 -0.00043693013 0.02937453 -0.025955528
000270 df cc 0d bc a3 70 97 3c 73 0b 24 3c 74 42 a1 3c
       -0.008654802 0.018486327 0.010012495 0.019685008
000280 0b 47 37 3d 96 e9 9e bb 5f 9a ca 3b 7b 44 bd bb
       0.044745486 -0.004849623 0.0061829532 -0.005775986
000290 fc a9 88 3c ec 13 a2 3c c2 57 fd 3b d3 8a 36 b8
       0.016682617 0.01978489 0.007731409 -4.352147e-05
0002a0 af b6 10 bc cb ed 10 3c c0 8c c0 bb 25 51 17 bb
       -0.008832618 0.008845757 -0.0058761537 -0.0023089137
0002b0 fe 01 81 38 7f 17 13 3c 50 65 4f 3b be 78 83 3c
       6.1515704e-05 0.00897777 0.003164608 0.016048785
0002c0 a5 01 ec bc ed 92 bc bb 93 08 93 3c 57 29 68 bc
       -0.028809378 -0.0057548196 0.017948424 -0.014170012
0002d0 03 2c 54 bb c8 50 1a 3b 13 8a 91 bb c3 bb 9f bc
       -0.0032374866 0.0023546685 -0.0044415086 -0.019498711
0002e0 47 f6 21 bc a3 66 3f bc 63 a3 02 3d aa c8 2b 3c
       -0.009885377 -0.011682185 0.0318941 0.010484854
0002f0 3f 74 03 bd a3 d5 4d 3c 5e 97 43 3c 70 ef dc 3b
       -0.032093283 0.012563142 0.011937944 0.0067424104
000300 a5 00 90 3c 8b f3 26 3d d8 72 5b 3c 5a c0 4f bc
       0.017578432 0.040759604 0.01339408 -0.0126801375
000310 af 67 01 bd 5b b2 4c bc 47 8a 6c bc 85 db 98 bc
       -0.03159302 -0.012493695 -0.014437265 -0.018659363
000320 ab 37 c1 bc 6a 90 02 bd 36 67 8f bb 05 24 51 3c
       -0.023586115 -0.031876005 -0.0043763174 0.012764935
000330 b1 b3 1c bc fb 53 0c 3c 16 29 c7 3c d5 aa 98 3c
       -0.009564326 0.008564944 0.024311583 0.018636147
000340 55 50 1b 3d 45 02 97 3b 24 d1 15 3d ee 03 97 3b
       0.037918407 0.004608425 0.036576405 0.0046086228
000350 ca 5a e1 bc 10 23 a0 bc f8 3b ac bc 87 2c 28 bc
       -0.027509112 -0.01954797 -0.02102469 -0.010264522
000360 4d 40 f8 3c 71 20 17 3c 33 75 da 3b a5 4d 50 3b
       0.030304099 0.009224043 0.0066668033 0.003178456
000370 3b 57 09 bc fd 00 81 bc 25 7f a7 bc 42 da f5 3b
       -0.008382614 -0.015747542 -0.02044637 0.007502825
000380 07 cb 80 3c 64 b0 9a 3b 52 af c4 bb 83 63 28 bb
       0.015721811 0.0047207344 -0.006002345 -0.002569408
000390 ec 94 8d 3c d5 96 eb 3b 67 fc ce bc ef 69 84 bb
       0.017282926 0.0071896114 -0.02526684 -0.0040409486
0003a0 6f f1 bb 3c db 8c 68 ba 13 68 64 bc 19 fb 10 3c
       0.022942273 -0.0008871087 -0.013940829 0.008848929
0003b0 5e 0a a2 bb 57 75 60 3b 83 f7 d3 bc 2b 31 4d 3d
       -0.0049450835 0.0034249627 -0.025874859 0.05009572
0003c0 3f 68 08 bb 0f 11 c3 bb c7 dc d9 3b 65 ea ba bb
       -0.0020814089 -0.0059529613 0.006648633 -0.0057042115
0003d0 0e 46 b5 3b a8 34 6f bc 5f 8b 38 39 d3 fa 12 bd
       0.005532033 -0.014599957 0.00017599527 -0.035883736
0003e0 36 8a cc bc e7 69 ba 3c 88 b7 0a bd 4f 4e da bc
       -0.024968248 0.022755576 -0.033866435 -0.026648669
0003f0 5a a8 c9 bc f3 2a b3 bc 2f 3c 96 bb f5 15 d8 bc
       -0.02461641 -0.021871066 -0.004584811 -0.026377657

action_model._continuous_distribution.mu.bias f4 [2]
000000 00 00 00 00 00 00 00 00
       0.0 0.0

action_model._discrete_distribution.branches.0.weight f4 [1, 128]
000000 d3 80 ee 3b ce d5 94 b8 fc 13 46 3c 22 90 55 bc
       0.0072785406 -7.097014e-05 0.012089726 -0.013034852
000010 48 4e 29 3c c3 08 30 bb 9f cd 8f bc 2a c2 70 3c
       0.010333605 -0.002686069 -0.017554102 0.01469473
000020 ae 0d 19 bc b7 66 aa 3b 97 17 61 bc e3 fc 62 bb
       -0.00934164 0.005200233 -0.013738534 -0.0034635596
000030 15 13 ed 3b 92 48 91 bb 09 09 24 bb 38 0e 1d bb
       0.007234941 -0.0044337 -0.00250298 -0.0023964774
000040 1f 73 e5 bb a7 98 1b bc 5d 5a 63 bb 39 04 43 ba
       -0.007002249 -0.009496844 -0.0034691312 -0.0007439289
000050 dd d8 93 3b 2b 76 80 bc 3d d7 69 bb 3e 8e c2 bc
       0.004511936 -0.015681347 -0.003568127 -0.023749467
000060 db 2f 31 bb 3d 8e c7 3b 0d a9 cb bb db 08 e3 ba
       -0.002703658 0.006089954 -0.006215221 -0.0017321365
000070 85 5a 5c bb f1 b0 24 bb d5 56 18 3b ff 3c 86 3b
       -0.003362329 -0.002512988 0.0023245115 0.004096627
000080 a5 99 88 bc 55 a5 82 ba a7 e5 2a 3c 6a db 75 3c
       -0.016674826 -0.0009967486 0.01043073 0.015005926
000090 92 39 70 3b 15 be e0 bb 87 bf 4f bb ee eb 2b bc
       0.0036655408 -0.006858597 -0.0031699853 -0.010493262
0000a0 7f 1a b8 bb ef e7 85 3b 83 7e 64 3b f4 20 92 bb
       -0.005618393 0.0040864865 0.0034865446 -0.0044594947
0000b0 d5 bd 59 3b a5 4d 97 3c 0e ea b8 38 e2 ab b2 3b
       0.003322472 0.018469641 8.8174e-05 0.005452619
0000c0 25 cf 86 bc 90 2f cd 3b fa 4f 07 bc 43 c1 d6 ba
       -0.016456196 0.0062617734 -0.008258814 -0.0016384501
0000d0 02 5d d3 3b 87 48 23 bc 1a 0a ff 3b 2b 39 40 bb
       0.0064502964 -0.009966022 0.0077831866 -0.002933095
0000e0 9f 4f fa bb 76 4b 43 3c 62 33 f9 bb f9 49 15 3a
       -0.007638886 0.011919847 -0.0076050023 0.0005694922
0000f0 5f 4f 17 bc bd b4 07 bc e5 0d 73 3a f9 f1 3f bb
       -0.009235232 -0.008282837 0.0009271785 -0.0029288514
000100 bd 1a cd bb c2 c1 35 bc 87 e7 90 bc b0 68 86 3b
       -0.006259291 -0.011093559 -0.017688526 0.004101835
000110 6f 09 8d b9 58 02 2e bc 6b 94 09 3c a3 49 b2 3b
       -0.00026900644 -0.010620676 0.008397202 0.005440907
000120 c3 02 d8 3b 4c cb 19 bc 1f e5 6a bb 75 75 5a 3c
       0.006592126 -0.009386849 -0.0035842133 0.013333668
000130 ab e8 03 bc df 3d 5b bc 63 b8 9d ba fc a5 b8 3b
       -0.008051078 -0.01338145 -0.0012033101 0.0056350213
000140 67 06 4e 3c 9a cf d6 bb d9 05 2f 3b 28 17 89 bc
       0.012574769 -0.0065555098 0.0026706366 -0.016734675
000150 aa d0 f1 bb 63 41 eb 38 78 17 6f 3c 70 b7 b5 bb
       -0.007379611 0.000112178524 0.014592998 -0.005545549
000160 5f 6f 45 39 a3 75 a9 bc 57 1f ec bb 68 ff 1b ba
       0.00018828873 -0.020685976 -0.0072058844 -0.0005950839
000170 a7 43 70 3b 7c cd 2b bb 1c 88 0a 3b 7d 9d ec bb
       0.0036661418 -0.0026215008 0.0021138256 -0.0072209225
000180 35 6a 56 bb d5 68 2b bc d4 a3 25 bc 46 71 89 3c
       -0.0032717113 -0.010462006 -0.01010986 0.016777646
000190 8a b7 ed bb 42 e0 87 bc 1f 8e 2e bb 4c 4d b9 bc
       -0.0072545456 -0.016586427 -0.0026635004 -0.022619866
0001a0 02 17 b0 bb 79 98 1e bb bb c6 9e ba 93 3a 91 bb
       -0.0053738365 -0.0024199768 -0.001211367 -0.0044320314
0001b0 d8 b0 99 3b 7d f5 29 3b d5 41 dc bb 3b e6 80 3b
       0.004690271 0.0025933676 -0.006721715 0.0039336956
0001c0 22 fb 7a 3b d8 1e 51 bc 3b fe 67 3c 8b f2 22 3b
       0.003829666 -0.012763701 0.014159734 0.0024863805
0001d0 4e b2 c2 b9 a5 0e b7 3a cf 1e 78 3c 67 6d f9 3b
       -0.0003713541 0.0013966156 0.015144064 0.0076119187
0001e0 c0 cf 6d 3a e7 0d 0d bb ab b4 f2 3b b6 7c 1b 3c
       0.00090717897 -0.002152318 0.007406791 0.009490183
0001f0 59 30 a0 bb 57 27 a4 3b 57 35 60 3b 7d 46 be 3b
       -0.004888576 0.0050095725 0.003421148 0.0058067427
