results/test/Car_agent/Car_agent-7714.pt (torch, 168075 bytes, 13 tensors)

network_body._body_endoder.seq_layers.0.weight f4 [128, 23]
0	0xbe701a4d	-0.23447533
1	0xbc047be4	-0.008086178
2	0x3e00b862	0.12570336
3	0xbe2f86d2	-0.17141274
4	0xbe878803	-0.26470956
5	0x3e3b7343	0.18305688
6	0x3e17ff5e	0.14843509
7	0x3e3cc291	0.18433596
8	0xbe9d68d3	-0.30744037
9	0x3b0380f2	0.002006587
10	0x3d155dfa	0.036466576
11	0xbe8d7fed	-0.27636662
12	0x3d8184a9	0.06324131
13	0x3d9e34f0	0.07724941
14	0x3e515f43	0.20446496
15	0xbcc9fd59	-0.024656938
16	0xbe0b6a02	-0.13614658
17	0xbdade5cd	-0.08491097
18	0xbe378b7d	-0.17924304
19	0xbc6debe9	-0.014521577
20	0x3dc749b0	0.09730852
21	0xbe22f10a	-0.15912262
22	0xbe520908	-0.20511258
23	0x3d748276	0.05969473
24	0xbe12b52a	-0.14326921
25	0x3e166ff7	0.14691149
26	0xbed53278	-0.41640067
27	0x3ca9ba01	0.020718576
28	0xbcf8840c	-0.030336402
29	0xbe21b634	-0.15792161
30	0x3f210043	0.62891024
31	0xbe71d60c	-0.23616809
32	0x3df6d3e8	0.12052137
33	0x3affe9cb	0.0019524632
34	0x3e95d14e	0.2926125
35	0x3d58310e	0.052781157
36	0x3e735940	0.23764515
37	0x3e31bdce	0.17357561
38	0x3e5bd1a7	0.21466695
39	0x3e0d5453	0.13801698
40	0x3cf02bed	0.02931782
41	0xbde95cbd	-0.113946415
42	0xbe342ae7	-0.17594491
43	0x3d961915	0.07329003
44	0x3e6d63f4	0.2318266
45	0x3e570c96	0.21000895
46	0x3e6715b0	0.22566867
47	0x3e2e332e	0.17011711
48	0x3e73c6c4	0.23806292
49	0xbc9ea362	-0.019365016
50	0xbe00147f	-0.12507819
51	0xbda96b8a	-0.082724646
52	0xbd6b7efd	-0.057494152
53	0xbe0c9dab	-0.1373202
54	0xbdaa1ea6	-0.08306627
55	0x3dd40663	0.10352781
56	0xbeb68098	-0.35644984
57	0xbe8ce8a4	-0.2752124
58	0xbe1513aa	-0.14558282
59	0xbe7e0fd2	-0.24810722
60	0x3e787d54	0.24266559
61	0x3d20fb35	0.03930207
62	0xbe8c148d	-0.2735943
63	0xbef70c86	-0.48251742
64	0x3e3164db	0.1732363
65	0x3e5c002c	0.2148444
66	0x3cf528bb	0.029926648
67	0x3ccd1905	0.025036344
68	0xbeed9bde	-0.4640798
69	0xbdc81043	-0.09768727
70	0x3e624d76	0.22099862
71	0xbe5e6ce3	-0.21721224
72	0xbe150813	-0.14553861
73	0xbe13e4a9	-0.14442696
74	0x3d460f60	0.048354506
75	0xbe4c1b01	-0.19932176
76	0xbf0927b1	-0.5357619
77	0x3f09e946	0.5387157
78	0x3cb300c6	0.021850955
79	0xbe4cce02	-0.2000046
80	0xbe06fb41	-0.13181783
81	0x3e223aea	0.15842786
82	0x3e4b8731	0.1987579
83	0xbd7d3289	-0.061815772
84	0x3dd88440	0.105721
85	0xbd0d9214	-0.03456314
86	0x3e1ab5e7	0.15108453
87	0x3cd39b70	0.025830954
88	0x3bad4138	0.0052873157
89	0x3e3b68f2	0.18301752
90	0xbe22c79b	-0.15896456
91	0xbcb768f1	-0.022388907
92	0xbe27a4dd	-0.16371484
93	0xbb895983	-0.004191579
94	0xbe40463e	-0.18776795
95	0x3e07b2bf	0.1325178
96	0x3d314cb6	0.043286048
97	0xbe068bdf	-0.13139294
98	0x3e21dba0	0.15806437
99	0xbeb1f49e	-0.3475694
100	0xbe09242b	-0.13392703
101	0x3e5c021a	0.21485177
102	0x3dd9cfae	0.10635315
103	0xbe4fd30e	-0.20295355
104	0xbe230d00	-0.15922928
105	0x3e33df6b	0.17565696
106	0xbc24cb7b	-0.010058279
107	0x3d8d12df	0.06888365
108	0x3e361543	0.17781548
109	0xbdc36d56	-0.095423386
110	0xbea6ffb9	-0.32616976
111	0x3e9dd486	0.30826205
112	0x3e2c86f9	0.16848363
113	0xbe973057	-0.29529068
114	0xbe09bf93	-0.13451986
115	0x3deb5537	0.11490863
116	0xbd6caf0e	-0.057784133
117	0xbdfae8db	-0.12251445
118	0xbcb277fb	-0.021785727
119	0x3d97268f	0.07380401
120	0xbd88df56	-0.06683223
121	0x3e9fbf2e	0.31200546
122	0x3d07f51d	0.033192743
123	0x3dcbceb4	0.09951535
124	0x3e5cb5b4	0.21553689
125	0xbeba665a	-0.36406213
126	0xbebd64ae	-0.36990875
127	0xbcf76b96	-0.030202668
128	0xbcb74397	-0.022371097
129	0xbd273e47	-0.040830877
130	0x3d428876	0.04749342
131	0xbe12d63e	-0.1433954
132	0xbe61dcab	-0.22056834
133	0xbe312af9	-0.17301549
134	0x3d9c0a7d	0.07619188
135	0xbd71783a	-0.058952548
136	0x3e2800d0	0.1640656
137	0x3d026563	0.03183497
138	0xbdb51449	-0.0884176
139	0x3cedee27	0.029044224
140	0xbd95dc9b	-0.07317468
141	0xbe29a34a	-0.16566196
142	0xbe251b13	-0.16123609
143	0xbea0d870	-0.3141513
144	0x3deb22f5	0.11481277
145	0xbe96ab4e	-0.2942757
146	0xbd732616	-0.059362493
147	0xbdfc5569	-0.12320978
148	0xbdd72817	-0.105056934
149	0x3cd5fb83	0.026120907
150	0x3c31246e	0.010811908
151	0x3da57f0b	0.08080872
152	0xbd915144	-0.07095578
153	0x3e0c5dc2	0.13707641
154	0xbe3cd674	-0.18441182
155	0xbddf89ea	-0.10914977
156	0x3d4ad997	0.049523916
157	0x3db8decf	0.09026872
158	0xbe590707	-0.21194087
159	0x3e8147b1	0.2525001
160	0xbec5494d	-0.38532487
161	0xbcb9c72f	-0.022677986
162	0xbe9e84a1	-0.30960563
163	0x3d81b267	0.06332856
164	0xbe028abb	-0.12748234
165	0x3e8226a9	0.2542012
166	0x3e0f2560	0.13979101
167	0x3e15b859	0.14621104
168	0x3d24487d	0.040108193
169	0x3c7276e0	0.01479885
170	0x3df22984	0.11824325
171	0x3e60a0c6	0.2193633
172	0xbe7d1a50	-0.24717069
173	0xbe4d4b93	-0.2004836
174	0xbc94dd3e	-0.018171903
175	0xbea24849	-0.31695774
176	0xbe0ab608	-0.13546002
177	0xbdb1747d	-0.086647965
178	0xbeb701b4	-0.35743487
179	0xbd228789	-0.039680038
180	0xbdde2373	-0.10846605
181	0x3eb9ed9d	0.36314097
182	0x3c5d7a37	0.013517908
183	0xbeb6dc1b	-0.35714802
184	0xbdb149a6	-0.086566254
185	0x3ea5a0b5	0.32349172
186	0xbd576fda	-0.052596904
187	0xbe0cd390	-0.1375258
188	0xbea57b89	-0.32320812
189	0x3e817290	0.25282717
190	0x3eaec4b7	0.34134457
191	0x3eb117ae	0.3458838
192	0xbd9e7628	-0.0773738
193	0x3e1d38c1	0.15353681
194	0xbe86eda1	-0.2635317
195	0x39148c64	0.0001416668
196	0xbebb51b2	-0.36585766
197	0x3e08506a	0.13311926
198	0xbd76b30d	-0.06022935
199	0xbe21075e	-0.15725467
200	0x3e5bd58b	0.21468179
201	0xbd5a9faf	-0.053374942
202	0xbdc5d8df	-0.096605055
203	0x3e999633	0.29997405
204	0x3b131778	0.0022444408
205	0x3e3f6a3c	0.18692869
206	0x3df7ad22	0.12093569
207	0xbe4d8fe9	-0.20074429
208	0xbea8431b	-0.32863697
209	0x3e283fdf	0.16430615
210	0xbe50ffe7	-0.20410119
211	0xbecf9682	-0.40544516
212	0x3e33bb1f	0.1755185
213	0x3eb1c4ff	0.3472061
214	0x3e8e4aaf	0.27791354
215	0x3e05eb37	0.13078009
216	0x3e41bfaa	0.1892077
217	0x3da9898f	0.0827819
218	0xbd0802f6	-0.03320595
219	0xbe136337	-0.14393316
220	0x3e3f74af	0.18696855
221	0xbed97c50	-0.42477655
222	0x3e316a96	0.17325816
223	0x3d19e2b3	0.037569713
224	0xbe0ed475	-0.13948233
225	0xbe6fd63c	-0.23421568
226	0xbd19f77a	-0.037589528
227	0xbddcb91b	-0.107774936
228	0xbeb13e39	-0.34617785
229	0x3d2127fc	0.039344773
230	0xbe1eee2d	-0.15520544
231	0x3e317873	0.17331104
232	0x3e5e4465	0.21705778
233	0xbcc9ab3d	-0.024617786
234	0x3ed7a544	0.42118275
235	0x3eb78aae	0.35847992
236	0x3e84358b	0.258221
237	0x3e4cba2f	0.19992898
238	0x3dfda556	0.12385051
239	0x3d381417	0.044941034
240	0x3db5ae85	0.088711776
241	0x3d4010cf	0.04689103
242	0xbe631c63	-0.22178797
243	0x3e280e5b	0.16411726
244	0x3e557b52	0.20847824
245	0x3ef71d40	0.48264503
246	0x3e3486e0	0.17629576
247	0x3dc72f35	0.09725801
248	0x3e27792e	0.1635482
249	0xbe46ede2	-0.19426683
250	0xbede7f11	-0.4345632
251	0x3da0dd55	0.07854716
252	0x3da105eb	0.07862457
253	0x3e88bc46	0.2670614
254	0x3db7334e	0.089453325
255	0xbd9eb22a	-0.07748826

network_body._body_endoder.seq_layers.0.bias f4 [128]
0	0x00000000	0.0
1	0x00000000	0.0
2	0x00000000	0.0
3	0x00000000	0.0
4	0x00000000	0.0
5	0x00000000	0.0
6	0x00000000	0.0
7	0x00000000	0.0
8	0x00000000	0.0
9	0x00000000	0.0
10	0x00000000	0.0
11	0x00000000	0.0
12	0x00000000	0.0
13	0x00000000	0.0
14	0x00000000	0.0
15	0x00000000	0.0
16	0x00000000	0.0
17	0x00000000	0.0
18	0x00000000	0.0
19	0x00000000	0.0
20	0x00000000	0.0
21	0x00000000	0.0
22	0x00000000	0.0
23	0x00000000	0.0
24	0x00000000	0.0
25	0x00000000	0.0
26	0x00000000	0.0
27	0x00000000	0.0
28	0x00000000	0.0
29	0x00000000	0.0
30	0x00000000	0.0
31	0x00000000	0.0
32	0x00000000	0.0
33	0x00000000	0.0
34	0x00000000	0.0
35	0x00000000	0.0
36	0x00000000	0.0
37	0x00000000	0.0
38	0x00000000	0.0
39	0x00000000	0.0
40	0x00000000	0.0
41	0x00000000	0.0
42	0x00000000	0.0
43	0x00000000	0.0
44	0x00000000	0.0
45	0x00000000	0.0
46	0x00000000	0.0
47	0x00000000	0.0
48	0x00000000	0.0
49	0x00000000	0.0
50	0x00000000	0.0
51	0x00000000	0.0
52	0x00000000	0.0
53	0x00000000	0.0
54	0x00000000	0.0
55	0x00000000	0.0
56	0x00000000	0.0
57	0x00000000	0.0
58	0x00000000	0.0
59	0x00000000	0.0
60	0x00000000	0.0
61	0x00000000	0.0
62	0x00000000	0.0
63	0x00000000	0.0
64	0x00000000	0.0
65	0x00000000	0.0
66	0x00000000	0.0
67	0x00000000	0.0
68	0x00000000	0.0
69	0x00000000	0.0
70	0x00000000	0.0
71	0x00000000	0.0
72	0x00000000	0.0
73	0x00000000	0.0
74	0x00000000	0.0
75	0x00000000	0.0
76	0x00000000	0.0
77	0x00000000	0.0
78	0x00000000	0.0
79	0x00000000	0.0
80	0x00000000	0.0
81	0x00000000	0.0
82	0x00000000	0.0
83	0x00000000	0.0
84	0x00000000	0.0
85	0x00000000	0.0
86	0x00000000	0.0
87	0x00000000	0.0
88	0x00000000	0.0
89	0x00000000	0.0
90	0x00000000	0.0
91	0x00000000	0.0
92	0x00000000	0.0
93	0x00000000	0.0
94	0x00000000	0.0
95	0x00000000	0.0
96	0x00000000	0.0
97	0x00000000	0.0
98	0x00000000	0.0
99	0x00000000	0.0
100	0x00000000	0.0
101	0x00000000	0.0
102	0x00000000	0.0
103	0x00000000	0.0
104	0x00000000	0.0
105	0x00000000	0.0
106	0x00000000	0.0
107	0x00000000	0.0
108	0x00000000	0.0
109	0x00000000	0.0
110	0x00000000	0.0
111	0x00000000	0.0
112	0x00000000	0.0
113	0x00000000	0.0
114	0x00000000	0.0
115	0x00000000	0.0
116	0x00000000	0.0
117	0x00000000	0.0
118	0x00000000	0.0
119	0x00000000	0.0
120	0x00000000	0.0
121	0x00000000	0.0
122	0x00000000	0.0
123	0x00000000	0.0
124	0x00000000	0.0
125	0x00000000	0.0
126	0x00000000	0.0
127	0x00000000	0.0

network_body._body_endoder.seq_layers.2.weight f4 [128, 128]
0	0x3d8ed202	0.069736496
1	0xbdec3621	-0.11533762
2	0xbd1d155e	-0.038350455
3	0xbd929d04	-0.071588546
4	0x3da7cb68	0.081930935
5	0x3e2d3ee1	0.16918518
6	0xbc537c11	-0.012907998
7	0x3d7a9d6d	0.06118529
8	0xbd96387e	-0.07334994
9	0x3b0dc1c3	0.0021630384
10	0xbcfe21d7	-0.031021995
11	0x3cfb724b	0.030694148
12	0xbda446cb	-0.08021315
13	0x3d81db13	0.06340613
14	0x3a92f5d6	0.0011212181
15	0x3d39890d	0.045296717
16	0xbd88cc1d	-0.066795565
17	0x3ddb2b8d	0.10701666
18	0x3d389e9d	0.04507314
19	0xbdca987f	-0.098923676
20	0x3db972c9	0.09055097
21	0x3cb6046d	0.022218907
22	0xbd971a01	-0.07378007
23	0xbd79d75d	-0.060996402
24	0x3da1ff0e	0.07909976
25	0xbc255d6f	-0.010093077
26	0xbb04ae5d	-0.002024553
27	0xbdb2e24c	-0.08734569
28	0xbcfad1d6	-0.030617636
29	0x3d539ec4	0.051665083
30	0xbe1174f2	-0.14204767
31	0x3cf07ba9	0.02935584
32	0xbd88b842	-0.066757694
33	0xbe559a42	-0.20859626
34	0x3da45605	0.080242194
35	0xbce08cb7	-0.027410848
36	0x3cf8a7ef	0.030353514
37	0x3deb36b3	0.114850424
38	0x3c72b586	0.014813786
39	0xbdf42b51	-0.119223244
40	0x3ca5136c	0.020150863
41	0xbca5dfd5	-0.020248333
42	0xbdd3453a	-0.10315938
43	0x3e1bfab6	0.15232357
44	0x3d5b1654	0.05348809
45	0xbcd04cb3	-0.025427198
46	0x3c034901	0.008013011
47	0xbc216395	-0.009850402
48	0xbe087e01	-0.13329317
49	0xbd8ab71b	-0.06773206
50	0xbb959dc8	-0.004565928
51	0xbd7bbc15	-0.061458666
52	0x3dae50ba	0.08511491
53	0x3ce750df	0.028236805
54	0x3ddf716e	0.10910307
55	0x3cbcd790	0.023052007
56	0xbd17f076	-0.037094556
57	0x3b4fa55c	0.0031684255
58	0x3d4e055d	0.050298084
59	0x3c810281	0.015748264
60	0xbdf7ba34	-0.12096062
61	0x3df63b8f	0.12023079
62	0x3c7253b8	0.014790468
63	0xbd06cf70	-0.03291267
64	0x3e160d20	0.14653444
65	0xbc03eb88	-0.0080517605
66	0xbd3019b1	-0.04299325
67	0xbbe079e3	-0.0068504675
68	0x3d56a520	0.05240357
69	0xbd38ac94	-0.04508646
70	0x3dddab8b	0.10823735
71	0x3d926fe5	0.071502484
72	0x3cdb1331	0.02674255
73	0x3db8730e	0.0900632
74	0x3d157fe4	0.03649892
75	0x3d32b702	0.04363156
76	0x3d99dae8	0.07512456
77	0x3c9f8df0	0.01947686
78	0x3db49d4e	0.08819066
79	0xbc5b0e06	-0.013370043
80	0x3d755e39	0.05990431
81	0xbd9311d3	-0.07181134
82	0xbd49edd2	-0.04929907
83	0xbe3593c6	-0.17732152
84	0x3cc3b8cc	0.023891829
85	0xbe38d417	-0.18049656
86	0xbd3dc784	-0.04633285
87	0x3d2326ea	0.039832033
88	0xbd15b0d9	-0.03654561
89	0x3cf10d80	0.029425383
90	0xbd2644ec	-0.040593073
91	0xbcc82c7b	-0.024435272
92	0x3ce7b144	0.028282769
93	0xbd754e23	-0.05988897
94	0xbc6f0bc8	-0.014590211
95	0xbd139246	-0.03602817
96	0xbe17b353	-0.148145
97	0x3d014278	0.03155753
98	0x3d63f75b	0.05565582
99	0x3ccddf6e	0.025130954
100	0x3e24cb0f	0.16093086
101	0xbd11de5c	-0.03561245
102	0x3cc2931a	0.023751784
103	0x3cb9c12f	0.022675125
104	0x3dbdbf19	0.092649646
105	0xbd7f6676	-0.062353574
106	0xbce464fb	-0.027880182
107	0x3e02ca9c	0.12772602
108	0xbda0fb34	-0.07860413
109	0x3d25ceed	0.040480543
110	0xbb0ef5fa	-0.0021814094
111	0x3bdea0c4	0.006794067
112	0xbd9e999b	-0.07744142
113	0x3da3d7df	0.080001585
114	0x3cac54f6	0.021036606
115	0x3c622c66	0.013804531
116	0x3c8fdad1	0.017560394
117	0x3d6fb22c	0.058519527
118	0xbe05c4c0	-0.13063335
119	0xbc2944be	-0.010331331
120	0xbdecce08	-0.11562735
121	0x3b4f6d09	0.0031650683
122	0xbdd76837	-0.10517924
123	0xbe838ddd	-0.2569417
124	0xbd5b29c7	-0.05350664
125	0x3df9647b	0.12177368
126	0xbdec09ba	-0.11525293
127	0xbc981ee0	-0.01856941
128	0xbde709e7	-0.112811856
129	0xbdfb7cbf	-0.12279653
130	0xbd5639b6	-0.05230113
131	0x3da192da	0.07889338
132	0x3daccd75	0.08437625
133	0xb923e2f6	-0.00015629441
134	0xbd1ea30c	-0.038729712
135	0xbdac9f9d	-0.08428881
136	0x3db440fa	0.08801456
137	0x3d8a5bfa	0.067558244
138	0x3dc591e9	0.09646971
139	0x3d8ff822	0.070297495
140	0x3e1ec77e	0.15505788
141	0x3db52725	0.08845357
142	0x3aef3172	0.0018248989
143	0x3e7d652b	0.24745624
144	0xbddfc6c8	-0.109265864
145	0x3c6cbd53	0.014449435
146	0xbd23ebef	-0.040019926
147	0x3d90992a	0.07060464
148	0x3d81c289	0.06335933
149	0xbdbde347	-0.09271865
150	0x3d091ca2	0.033474572
151	0x3cbff842	0.023433808
152	0x3e207f6a	0.15673605
153	0xbd619574	-0.05507417
154	0x3de1302c	0.10995516
155	0x3d3e9b2c	0.046534702
156	0x3de273f5	0.11057273
157	0xbd60bb1d	-0.054865945
158	0xbd0a81c1	-0.03381515
159	0x3db7f940	0.089830875
160	0x3c79bdb6	0.0152429845
161	0x3dafa1d7	0.085757904
162	0x3d3e4f63	0.046462428
163	0x3dd47c4e	0.10375272
164	0xbc2c695b	-0.010523166
165	0xbd01785f	-0.031608935
166	0xbdb2f5a3	-0.08738258
167	0xbd2326ce	-0.03983193
168	0xbd21f6ab	-0.03954188
169	0xbdd336a3	-0.103131555
170	0x3c3b895a	0.011446321
171	0xbdef43e7	-0.11682873
172	0x3d3d3ee4	0.046202555
173	0xbd1f9b03	-0.03896619
174	0x3e2a8824	0.16653496
175	0x3bf3d85d	0.007441564
176	0x3e2a9d96	0.16661677
177	0x3e018fab	0.12652461
178	0x3d9cfad8	0.07665032
179	0xbe012b1f	-0.12614106
180	0xbe0cac40	-0.13737583
181	0xbd4b79ab	-0.04967658
182	0xbd1a28c6	-0.03763654
183	0x3cbdb77b	0.02315878
184	0xbd0b42ec	-0.03399937
185	0x3e04b931	0.1296127
186	0xbdbe53c0	-0.09293318
187	0x3cf1f8d0	0.029537588
188	0x3ccf231c	0.025285296
189	0xbe66e08d	-0.22546597
190	0x3d67513a	0.056473948
191	0x3ca4572b	0.020061096
192	0xbd8be1da	-0.06830187
193	0xbe06c643	-0.13161568
194	0xbba30d44	-0.0049759466
195	0x3de87c48	0.1135183
196	0x3cd614fc	0.026133053
197	0xbd397e05	-0.045286197
198	0xbd818c9f	-0.063256495
199	0xbd4e79d1	-0.050409142
200	0xbd7d65f0	-0.061864793
201	0xbda63ade	-0.08116697
202	0xbe109535	-0.14119418
203	0x3d78b9d1	0.060724083
204	0x3e77fb18	0.24216878
205	0x3b7277fa	0.003699778
206	0x3d46e14e	0.04855471
207	0xbc84635d	-0.016160661
208	0x3c50a68b	0.012735019
209	0x3e1acfad	0.15118285
210	0x3d062006	0.032745384
211	0x3d8d33d1	0.06894649
212	0x3e3085b4	0.17238504
213	0x3d12e78f	0.035865363
214	0xbe073b12	-0.13206127
215	0x3da9dd27	0.082941346
216	0xbc868a85	-0.016423473
217	0x3cf9037e	0.030397173
218	0xbcceb6b4	-0.025233604
219	0xbdb5f489	-0.08884532
220	0xbd88f67f	-0.066876404
221	0xbc5ee4eb	-0.013604383
222	0x3e1d593e	0.15366074
223	0xbd2659a5	-0.040612835
224	0x3e3a2e30	0.18181682
225	0xbbd6a7dc	-0.006550772
226	0xbcf7f1da	-0.030266691
227	0xbe33b071	-0.17547776
228	0xbc97791b	-0.018490365
229	0xbcc723fc	-0.02430915
230	0xbd5f7f40	-0.054564714
231	0xbc60cf48	-0.013721295
232	0x3d5d4765	0.054023165
233	0x3dea2c80	0.11434269
234	0xbccc8b9f	-0.02496892
235	0xbca615de	-0.020274099
236	0xbb178675	-0.0023120914
237	0xbdd24f07	-0.102689795
238	0x3e1fff16	0.15624651
239	0xbd1cfe4b	-0.03832845
240	0x3dff87dd	0.12477086
241	0xbde18c64	-0.110131055
242	0xbe2f1427	-0.17097531
243	0xbcea35ba	-0.028590072
244	0xbde3e642	-0.111279026
245	0xbd076e4e	-0.03306418
246	0x3e606f75	0.21917517
247	0x3cc6ddc7	0.024275674
248	0x3e037eb5	0.12841304
249	0xbc14c8b7	-0.009081057
250	0x3d89e189	0.067324705
251	0x3bcef65b	0.006315989
252	0xbd3068ad	-0.043068577
253	0xbdf0c85c	-0.117569655
254	0x3d231146	0.039811395
255	0x3d01159b	0.031514745

network_body._body_endoder.seq_layers.2.bias f4 [128]
0	0x00000000	0.0
1	0x00000000	0.0
2	0x00000000	0.0
3	0x00000000	0.0
4	0x00000000	0.0
5	0x00000000	0.0
6	0x00000000	0.0
7	0x00000000	0.0
8	0x00000000	0.0
9	0x00000000	0.0
10	0x00000000	0.0
11	0x00000000	0.0
12	0x00000000	0.0
13	0x00000000	0.0
14	0x00000000	0.0
15	0x00000000	0.0
16	0x00000000	0.0
17	0x00000000	0.0
18	0x00000000	0.0
19	0x00000000	0.0
20	0x00000000	0.0
21	0x00000000	0.0
22	0x00000000	0.0
23	0x00000000	0.0
24	0x00000000	0.0
25	0x00000000	0.0
26	0x00000000	0.0
27	0x00000000	0.0
28	0x00000000	0.0
29	0x00000000	0.0
30	0x00000000	0.0
31	0x00000000	0.0
32	0x00000000	0.0
33	0x00000000	0.0
34	0x00000000	0.0
35	0x00000000	0.0
36	0x00000000	0.0
37	0x00000000	0.0
38	0x00000000	0.0
39	0x00000000	0.0
40	0x00000000	0.0
41	0x00000000	0.0
42	0x00000000	0.0
43	0x00000000	0.0
44	0x00000000	0.0
45	0x00000000	0.0
46	0x00000000	0.0
47	0x00000000	0.0
48	0x00000000	0.0
49	0x00000000	0.0
50	0x00000000	0.0
51	0x00000000	0.0
52	0x00000000	0.0
53	0x00000000	0.0
54	0x00000000	0.0
55	0x00000000	0.0
56	0x00000000	0.0
57	0x00000000	0.0
58	0x00000000	0.0
59	0x00000000	0.0
60	0x00000000	0.0
61	0x00000000	0.0
62	0x00000000	0.0
63	0x00000000	0.0
64	0x00000000	0.0
65	0x00000000	0.0
66	0x00000000	0.0
67	0x00000000	0.0
68	0x00000000	0.0
69	0x00000000	0.0
70	0x00000000	0.0
71	0x00000000	0.0
72	0x00000000	0.0
73	0x00000000	0.0
74	0x00000000	0.0
75	0x00000000	0.0
76	0x00000000	0.0
77	0x00000000	0.0
78	0x00000000	0.0
79	0x00000000	0.0
80	0x00000000	0.0
81	0x00000000	0.0
82	0x00000000	0.0
83	0x00000000	0.0
84	0x00000000	0.0
85	0x00000000	0.0
86	0x00000000	0.0
87	0x00000000	0.0
88	0x00000000	0.0
89	0x00000000	0.0
90	0x00000000	0.0
91	0x00000000	0.0
92	0x00000000	0.0
93	0x00000000	0.0
94	0x00000000	0.0
95	0x00000000	0.0
96	0x00000000	0.0
97	0x00000000	0.0
98	0x00000000	0.0
99	0x00000000	0.0
100	0x00000000	0.0
101	0x00000000	0.0
102	0x00000000	0.0
103	0x00000000	0.0
104	0x00000000	0.0
105	0x00000000	0.0
106	0x00000000	0.0
107	0x00000000	0.0
108	0x00000000	0.0
109	0x00000000	0.0
110	0x00000000	0.0
111	0x00000000	0.0
112	0x00000000	0.0
113	0x00000000	0.0
114	0x00000000	0.0
115	0x00000000	0.0
116	0x00000000	0.0
117	0x00000000	0.0
118	0x00000000	0.0
119	0x00000000	0.0
120	0x00000000	0.0
121	0x00000000	0.0
122	0x00000000	0.0
123	0x00000000	0.0
124	0x00000000	0.0
125	0x00000000	0.0
126	0x00000000	0.0
127	0x00000000	0.0

action_model._continuous_distribution.log_sigma f4 [1, 2]
0	0x00000000	0.0
1	0x00000000	0.0

action_model._continuous_distribution.mu.weight f4 [2, 128]
0	0xbb0e4973	-0.002171126
1	0xbcb757d6	-0.02238075
2	0x3c9eab30	0.019368738
3	0x3c8698d5	0.016430298
4	0x3c2446b3	0.010026622
5	0xbc70ad3b	-0.014689739
6	0xbc830caf	-0.015997259
7	0x3c23754f	0.009976699
8	0x3bdcb623	0.0067355796
9	0x3c8ccb13	0.017186677
10	0xbc4b8b60	-0.012423366
11	0xbc048b8f	-0.008089914
12	0x3c0e0a3b	0.008669431
13	0xbc94fae2	-0.018186036
14	0x3c0bd683	0.00853503
15	0xbc7fb093	-0.015606063
16	0xbbfdf8d8	-0.0077506118
17	0x3c94408c	0.018097185
18	0x3d0f4f10	0.03498751
19	0x3bb36a20	0.0054752976
20	0xbb7bbc8a	-0.0038411939
21	0xbbfe4e6a	-0.0077608125
22	0x3c1a6942	0.0094245095
23	0xbcf78215	-0.030213395
24	0x3a17606e	0.0005774562
25	0xbc44990e	-0.011999382
26	0xbae6c407	-0.0017606028
27	0xbb5ff945	-0.0034175676
28	0xba288dae	-0.00064298033
29	0xbcaad182	-0.020851854
30	0x3cad2d22	0.021139685
31	0xbbbaee74	-0.0057046954
32	0x3caf1777	0.021373494
33	0x3c6bbb58	0.014387928
34	0x3bc3cd6f	0.0059754173
35	0xbccfc2d3	-0.025361454
36	0xbbd7d135	-0.0065862187
37	0xbaded507	-0.0017000743
38	0xbca7796f	-0.020443646
39	0xbc1d22a7	-0.009590781
40	0xbc96707b	-0.018364182
41	0x3c3faf7d	0.0116995545
42	0x3c3ba923	0.0114539
43	0xbc07954a	-0.008275339
44	0xbb3318b3	-0.0027327954
45	0xbbe81ddb	-0.007083637
46	0xbd1673de	-0.036731593
47	0x3ba506aa	0.005036195
48	0xbc3d2211	-0.011543767
49	0x3c4fa595	0.012673755
50	0x3a4768c6	0.000760686
51	0x3c377eaf	0.011199637
52	0xbc2df8f0	-0.010618433
53	0xbae9fcf5	-0.0017851876
54	0x3b8664cb	0.004101371
55	0xbcaae951	-0.020863207
56	0x3caffe77	0.021483643
57	0x3c0cb20f	0.008587374
58	0xbafa33bb	-0.0019088903
59	0x3c00807c	0.007843133
60	0xbd1b4e64	-0.037916556
61	0xbc9b9383	-0.018991238
62	0x3ce47ec8	0.027892485
63	0x3d1fa703	0.038977634
64	0x3c448b9f	0.011996179
65	0x3cadbce3	0.021208232
66	0x3b442d25	0.0029934135
67	0x3cca9838	0.024730787
68	0x3c1b4ebf	0.009479224
69	0xbd0313ae	-0.03200119
70	0x3b7776df	0.0037760062
71	0xbc793f9b	-0.015212919
72	0x3bdd1c10	0.00674773
73	0xbb92691c	-0.0044680964
74	0xbd4a9762	-0.049460776
75	0x3c17fd10	0.009276643
76	0x3cb96397	0.022630496
77	0x39303696	0.00016805003
78	0x3a6084ef	0.00085647305
79	0xbc52d8a7	-0.012869037
80	0x3a717812	0.0009211312
81	0xbbcf6157	-0.0063287425
82	0xbb4f1d0b	-0.0031603004
83	0xbc55608d	-0.013023508
84	0x3ae984a8	0.0017816024
85	0x3ca57586	0.020197641
86	0x3cc635b4	0.02419553
87	0x3b55dac2	0.003263161
88	0xb9cef2a5	-0.00039472166
89	0xbc7ed808	-0.015554436
90	0xbd0a5f86	-0.033782504
91	0x3cf70477	0.030153496
92	0xbbf1b285	-0.0073760175
93	0x3d1ca7cb	0.038245957
94	0xbc581142	-0.013187708
95	0x3c2d6354	0.010582764
96	0xbd09f15f	-0.033677455
97	0x3be24b62	0.006905959
98	0xbc294933	-0.010332393
99	0xba45b6b2	-0.00075421773
100	0xbd42b0f8	-0.04753205
101	0x3d0b5717	0.034018602
102	0xbb1fa1ba	-0.002435787
103	0x3ccd2788	0.025043264
104	0xbd1c9ef3	-0.038237523
105	0x3b470fcc	0.0030374406
106	0x3c6e7cb0	0.014556095
107	0x3a34ca49	0.0006896598
108	0xbbe25eb2	-0.006908261
109	0xbb357560	-0.002768837
110	0x3ce40c18	0.027837798
111	0xbc7eb7f5	-0.015546788
112	0xbce97e83	-0.028502708
113	0xbc8fea10	-0.017567664
114	0x39a09b4f	0.00030633292
115	0x3cf6d92a	0.030132849
116	0x3be4ce12	0.0069825733
117	0xbbe0fe8f	-0.0068662832
118	0xbcbbec8b	-0.02293994
119	0x3bbc010c	0.0057374295
120	0xbb96a4bb	-0.004597274
121	0xbc1c7cf9	-0.00955128
122	0xbb58b303	-0.0033065684
123	0x3b8217bd	0.003970115
124	0x3cf253fa	0.029581059
125	0xbd17766f	-0.03697818
126	0xbc9e9f77	-0.019363148
127	0x3c3242e2	0.010880204
128	0x3b9cd506	0.0047861366
129	0x3bfac5b8	0.0076529644
130	0x3cb5827f	0.022156952
131	0xbc149fa9	-0.009071269
132	0x3b93b6c1	0.00450787
133	0x3c5b760b	0.013394843
134	0x3d0e8496	0.034794413
135	0xbc82a8eb	-0.015949687
136	0x3c13106d	0.008976084
137	0x3c8e377b	0.01736044
138	0xbbb50e9b	-0.0055254227
139	0x3be766f3	0.007061833
140	0x3cb2ef3c	0.021842591
141	0x3b028b67	0.0019919516
142	0x3c72372b	0.014783661
143	0x3c0596e7	0.008153654
144	0x3cb4f2ce	0.022088435
145	0xbb643b28	-0.00348253
146	0xbc7fcd75	-0.01561295
147	0x3d0173e3	0.03160466
148	0x3add3a7b	0.001687839
149	0x3bfeab55	0.007771889
150	0x3bf67ffd	0.0075225816
151	0x3c5a1803	0.013311389
152	0xbbd171b3	-0.006391728
153	0xb9e513c5	-0.00043693013
154	0x3cf0a2db	0.02937453
155	0xbcd4a0b0	-0.025955528
156	0xbc0dccdf	-0.008654802
157	0x3c9770a3	0.018486327
158	0x3c240b73	0.010012495
159	0x3ca14274	0.019685008
160	0x3d37470b	0.044745486
161	0xbb9ee996	-0.004849623
162	0x3bca9a5f	0.0061829532
163	0xbbbd447b	-0.005775986
164	0x3c88a9fc	0.016682617
165	0x3ca213ec	0.01978489
166	0x3bfd57c2	0.007731409
167	0xb8368ad3	-4.352147e-05
168	0xbc10b6af	-0.008832618
169	0x3c10edcb	0.008845757
170	0xbbc08cc0	-0.0058761537
171	0xbb175125	-0.0023089137
172	0x388101fe	6.1515704e-05
173	0x3c13177f	0.00897777
174	0x3b4f6550	0.003164608
175	0x3c8378be	0.016048785
176	0xbcec01a5	-0.028809378
177	0xbbbc92ed	-0.0057548196
178	0x3c930893	0.017948424
179	0xbc682957	-0.014170012
180	0xbb542c03	-0.0032374866
181	0x3b1a50c8	0.0023546685
182	0xbb918a13	-0.0044415086
183	0xbc9fbbc3	-0.019498711
184	0xbc21f647	-0.009885377
185	0xbc3f66a3	-0.011682185
186	0x3d02a363	0.0318941
187	0x3c2bc8aa	0.010484854
188	0xbd03743f	-0.032093283
189	0x3c4dd5a3	0.012563142
190	0x3c43975e	0.011937944
191	0x3bdcef70	0.0067424104
192	0x3c9000a5	0.017578432
193	0x3d26f38b	0.040759604
194	0x3c5b72d8	0.01339408
195	0xbc4fc05a	-0.0126801375
196	0xbd0167af	-0.03159302
197	0xbc4cb25b	-0.012493695
198	0xbc6c8a47	-0.014437265
199	0xbc98db85	-0.018659363
200	0xbcc137ab	-0.023586115
201	0xbd02906a	-0.031876005
202	0xbb8f6736	-0.0043763174
203	0x3c512405	0.012764935
204	0xbc1cb3b1	-0.009564326
205	0x3c0c53fb	0.008564944
206	0x3cc72916	0.024311583
207	0x3c98aad5	0.018636147
208	0x3d1b5055	0.037918407
209	0x3b970245	0.004608425
210	0x3d15d124	0.036576405
211	0x3b9703ee	0.0046086228
212	0xbce15aca	-0.027509112
213	0xbca02310	-0.01954797
214	0xbcac3bf8	-0.02102469
215	0xbc282c87	-0.010264522
216	0x3cf8404d	0.030304099
217	0x3c172071	0.009224043
218	0x3bda7533	0.0066668033
219	0x3b504da5	0.003178456
220	0xbc09573b	-0.008382614
221	0xbc8100fd	-0.015747542
222	0xbca77f25	-0.02044637
223	0x3bf5da42	0.007502825
224	0x3c80cb07	0.015721811
225	0x3b9ab064	0.0047207344
226	0xbbc4af52	-0.006002345
227	0xbb286383	-0.002569408
228	0x3c8d94ec	0.017282926
229	0x3beb96d5	0.0071896114
230	0xbccefc67	-0.02526684
231	0xbb8469ef	-0.0040409486
232	0x3cbbf16f	0.022942273
233	0xba688cdb	-0.0008871087
234	0xbc646813	-0.013940829
235	0x3c10fb19	0.008848929
236	0xbba20a5e	-0.0049450835
237	0x3b607557	0.0034249627
238	0xbcd3f783	-0.025874859
239	0x3d4d312b	0.05009572
240	0xbb08683f	-0.0020814089
241	0xbbc3110f	-0.0059529613
242	0x3bd9dcc7	0.006648633
243	0xbbbaea65	-0.0057042115
244	0x3bb5460e	0.005532033
245	0xbc6f34a8	-0.014599957
246	0x39388b5f	0.00017599527
247	0xbd12fad3	-0.035883736
248	0xbccc8a36	-0.024968248
249	0x3cba69e7	0.022755576
250	0xbd0ab788	-0.033866435
251	0xbcda4e4f	-0.026648669
252	0xbcc9a85a	-0.02461641
253	0xbcb32af3	-0.021871066
254	0xbb963c2f	-0.004584811
255	0xbcd815f5	-0.026377657

action_model._continuous_distribution.mu.bias f4 [2]
0	0x00000000	0.0
1	0x00000000	0.0

action_model._discrete_distribution.branches.0.weight f4 [1, 128]
0	0x3bee80d3	0.0072785406
1	0xb894d5ce	-7.097014e-05
2	0x3c4613fc	0.012089726
3	0xbc559022	-0.013034852
4	0x3c294e48	0.010333605
5	0xbb3008c3	-0.002686069
6	0xbc8fcd9f	-0.017554102
7	0x3c70c22a	0.01469473
8	0xbc190dae	-0.00934164
9	0x3baa66b7	0.005200233
10	0xbc611797	-0.013738534
11	0xbb62fce3	-0.0034635596
12	0x3bed1315	0.007234941
13	0xbb914892	-0.0044337
14	0xbb240909	-0.00250298
15	0xbb1d0e38	-0.0023964774
16	0xbbe5731f	-0.007002249
17	0xbc1b98a7	-0.009496844
18	0xbb635a5d	-0.0034691312
19	0xba430439	-0.0007439289
20	0x3b93d8dd	0.004511936
21	0xbc80762b	-0.015681347
22	0xbb69d73d	-0.003568127
23	0xbcc28e3e	-0.023749467
24	0xbb312fdb	-0.002703658
25	0x3bc78e3d	0.006089954
26	0xbbcba90d	-0.006215221
27	0xbae308db	-0.0017321365
28	0xbb5c5a85	-0.003362329
29	0xbb24b0f1	-0.002512988
30	0x3b1856d5	0.0023245115
31	0x3b863cff	0.004096627
32	0xbc8899a5	-0.016674826
33	0xba82a555	-0.0009967486
34	0x3c2ae5a7	0.01043073
35	0x3c75db6a	0.015005926
36	0x3b703992	0.0036655408
37	0xbbe0be15	-0.006858597
38	0xbb4fbf87	-0.0031699853
39	0xbc2bebee	-0.010493262
40	0xbbb81a7f	-0.005618393
41	0x3b85e7ef	0.0040864865
42	0x3b647e83	0.0034865446
43	0xbb9220f4	-0.0044594947
44	0x3b59bdd5	0.003322472
45	0x3c974da5	0.018469641
46	0x38b8ea0e	8.8174e-05
47	0x3bb2abe2	0.005452619
48	0xbc86cf25	-0.016456196
49	0x3bcd2f90	0.0062617734
50	0xbc074ffa	-0.008258814
51	0xbad6c143	-0.0016384501
52	0x3bd35d02	0.0064502964
53	0xbc234887	-0.009966022
54	0x3bff0a1a	0.0077831866
55	0xbb40392b	-0.002933095
56	0xbbfa4f9f	-0.007638886
57	0x3c434b76	0.011919847
58	0xbbf93362	-0.0076050023
59	0x3a1549f9	0.0005694922
60	0xbc174f5f	-0.009235232
61	0xbc07b4bd	-0.008282837
62	0x3a730de5	0.0009271785
63	0xbb3ff1f9	-0.0029288514
64	0xbbcd1abd	-0.006259291
65	0xbc35c1c2	-0.011093559
66	0xbc90e787	-0.017688526
67	0x3b8668b0	0.004101835
68	0xb98d096f	-0.00026900644
69	0xbc2e0258	-0.010620676
70	0x3c09946b	0.008397202
71	0x3bb249a3	0.005440907
72	0x3bd802c3	0.006592126
73	0xbc19cb4c	-0.009386849
74	0xbb6ae51f	-0.0035842133
75	0x3c5a7575	0.013333668
76	0xbc03e8ab	-0.008051078
77	0xbc5b3ddf	-0.01338145
78	0xba9db863	-0.0012033101
79	0x3bb8a5fc	0.0056350213
80	0x3c4e0667	0.012574769
81	0xbbd6cf9a	-0.0065555098
82	0x3b2f05d9	0.0026706366
83	0xbc891728	-0.016734675
84	0xbbf1d0aa	-0.007379611
85	0x38eb4163	0.000112178524
86	0x3c6f1778	0.014592998
87	0xbbb5b770	-0.005545549
88	0x39456f5f	0.00018828873
89	0xbca975a3	-0.020685976
90	0xbbec1f57	-0.0072058844
91	0xba1bff68	-0.0005950839
92	0x3b7043a7	0.0036661418
93	0xbb2bcd7c	-0.0026215008
94	0x3b0a881c	0.0021138256
95	0xbbec9d7d	-0.0072209225
96	0xbb566a35	-0.0032717113
97	0xbc2b68d5	-0.010462006
98	0xbc25a3d4	-0.01010986
99	0x3c897146	0.016777646
100	0xbbedb78a	-0.0072545456
101	0xbc87e042	-0.016586427
102	0xbb2e8e1f	-0.0026635004
103	0xbcb94d4c	-0.022619866
104	0xbbb01702	-0.0053738365
105	0xbb1e9879	-0.0024199768
106	0xba9ec6bb	-0.001211367
107	0xbb913a93	-0.0044320314
108	0x3b99b0d8	0.004690271
109	0x3b29f57d	0.0025933676
110	0xbbdc41d5	-0.006721715
111	0x3b80e63b	0.0039336956
112	0x3b7afb22	0.003829666
113	0xbc511ed8	-0.012763701
114	0x3c67fe3b	0.014159734
115	0x3b22f28b	0.0024863805
116	0xb9c2b24e	-0.0003713541
117	0x3ab70ea5	0.0013966156
118	0x3c781ecf	0.015144064
119	0x3bf96d67	0.0076119187
120	0x3a6dcfc0	0.00090717897
121	0xbb0d0de7	-0.002152318
122	0x3bf2b4ab	0.007406791
123	0x3c1b7cb6	0.009490183
124	0xbba03059	-0.004888576
125	0x3ba42757	0.0050095725
126	0x3b603557	0.003421148
127	0x3bbe467d	0.0058067427

network_body._body_endoder.seq_layers.0.weight f4 [128, 23]
0	0xbdd7a80c	-0.10530099
1	0x3e818f96	0.2530486
2	0xbec7f694	-0.39055312
3	0x3ee6d62a	0.4508527
4	0x3e92244e	0.28543323
5	0xbd198057	-0.03747591
6	0xbd87f1d8	-0.06637925
7	0xbc5dc44d	-0.013535571
8	0x3e136e17	0.14397465
9	0xbde0ef49	-0.1098314
10	0x3e13872a	0.1440703
11	0xbe3b7976	-0.18308052
12	0xbe599377	-0.2124766
13	0x3d2599c3	0.04042984
14	0x3edb8050	0.42871332
15	0xbd4938ab	-0.04912631
16	0x3dcfff87	0.1015616
17	0xbe8bba5b	-0.27290615
18	0xbe560fe1	-0.20904495
19	0x39661f6f	0.00021946219
20	0xbc9230cc	-0.017845534
21	0xbe1e177c	-0.15438646
22	0x3c938536	0.018007856
23	0x3cfa1ce2	0.03053135
24	0xbe62ff06	-0.22167596
25	0xbda2510d	-0.079256155
26	0x3caa9eb5	0.02082763
27	0xbe5cf321	-0.21577121
28	0x3d4a4bdc	0.04938875
29	0xbe51ee5f	-0.20501088
30	0xbc95c6f4	-0.018283345
31	0xbed2a189	-0.41138867
32	0xbeb2a213	-0.34889278
33	0xbe28ee0b	-0.16497056
34	0x3da0e0ea	0.07855399
35	0xbe9a00c7	-0.30078718
36	0xbe1c84c4	-0.15285021
37	0x3dee1a53	0.11626115
38	0xbd08b4d5	-0.03337558
39	0xbd96d9d6	-0.07365768
40	0x3e86e9ef	0.26350352
41	0x3e4adbf7	0.19810472
42	0xbd5054af	-0.05086201
43	0xbd4b716a	-0.049668707
44	0xbe5eae2a	-0.21746126
45	0xbea149c6	-0.31501597
46	0x3da23d3b	0.07921835
47	0xbe0ddc1f	-0.13853501
48	0x3ccd7ab8	0.02508293
49	0x3d45d2e2	0.048296817
50	0x3ca1877b	0.019717922
51	0x3e632440	0.22181797
52	0x3db93a56	0.0904433
53	0xbe5363fe	-0.20643613
54	0xbe93784b	-0.28802714
55	0xbd1768fb	-0.03696535
56	0x3dcbd959	0.09953565
57	0x3e5cbf6d	0.21557398
58	0xbe3e8235	-0.18604358
59	0x3e8056f7	0.2506635
60	0x3d96717e	0.07345866
61	0x3d716787	0.058936622
62	0x3bfbdafb	0.0076860166
63	0xbdbccc9b	-0.09218713
64	0xbe3e74fb	-0.18599312
65	0x3d994c45	0.074852504
66	0x3b83eb45	0.004025849
67	0x3e2209df	0.15824078
68	0x3ea12afd	0.3147811
69	0xbeca3290	-0.394917
70	0x3e8a2c57	0.26986954
71	0xbf10c015	-0.56543094
72	0xbe070e38	-0.13189018
73	0x3cded38e	0.027200487
74	0xbc830c49	-0.015997069
75	0x3aa37126	0.0012469634
76	0x3cf9e777	0.030505879
77	0xbe52b460	-0.2057662
78	0x3d3b8cc8	0.045788556
79	0xbe120ede	-0.14263484
80	0xbd3a4f2a	-0.045485653
81	0x3e1244fc	0.14284128
82	0xbda7f5ba	-0.082011655
83	0xbdffdaab	-0.124928795
84	0x3bf788c1	0.007554144
85	0x3e24e2c9	0.16102137
86	0xbdc1db6b	-0.09465679
87	0xbd1ddb98	-0.0385395
88	0xbc97cc8e	-0.018530156
89	0xbbaec306	-0.005333307
90	0x3d3c0a3e	0.045908205
91	0xbdaef1f0	-0.0854224
92	0xbd7d88f3	-0.061898183
93	0x3e4e7589	0.20162024
94	0x3d5c6c1e	0.053814046
95	0xbe4a3ac3	-0.19748978
96	0xbc05c743	-0.0081651835
97	0xbd8c80ba	-0.0686049
98	0x3ea5c4e8	0.3237679
99	0x3ecdc423	0.40188703
100	0xbc7fe9a6	-0.015619671
101	0x3dd6c7e8	0.10487348
102	0xbe088f70	-0.13335967
103	0xbe25fe50	-0.16210294
104	0x3bf1f6b9	0.007384148
105	0x3e6160f1	0.22009636
106	0xbea02052	-0.31274658
107	0xbdf5cd79	-0.120020814
108	0x3dea0380	0.11426449
109	0x3cf38479	0.029726254
110	0xbd8eb60a	-0.06968315
111	0x3d995456	0.07486789
112	0x3b30c883	0.0026974983
113	0xbe53d2e4	-0.20685917
114	0xbe945ef0	-0.28978682
115	0xbe20e06c	-0.1571061
116	0xbe95e44d	-0.29275742
117	0xbddc1c18	-0.10747546
118	0x3d74447e	0.05963563
119	0xbdac08a7	-0.08400088
120	0xbdeb27d8	-0.11482209
121	0xbe8075d8	-0.25089908
122	0xbe34b8ea	-0.17648664
123	0xbf047b78	-0.517509
124	0x3eb32fc4	0.3499738
125	0x3cc097d9	0.023509907
126	0xbe86c2eb	-0.26320586
127	0x3dc35519	0.095377155
128	0x3e6c334d	0.23066445
129	0xbeb5ce64	-0.35509026
130	0xbd93adf0	-0.0721091
131	0x3e00c318	0.12574422
132	0x3c276cb2	0.010218786
133	0x3e22eea6	0.1591135
134	0x3ddc9046	0.107697055
135	0x3d18e5d8	0.03732857
136	0xbe6b582e	-0.22982857
137	0x3e1cec53	0.15324526
138	0xbedc8116	-0.43067235
139	0xbd7546c9	-0.05988196
140	0x3e6393ae	0.22224304
141	0x3de86e31	0.11349142
142	0x3e4fab23	0.20280127
143	0xbdfccca1	-0.12343717
144	0x3c3d8ecb	0.011569689
145	0xbdcd201c	-0.1001589
146	0x3e0c07ab	0.136748
147	0xbdc79a16	-0.097461864
148	0x3e3cf14a	0.1845142
149	0x3d943ff9	0.07238764
150	0x3d68ef5c	0.056868896
151	0x3e44e365	0.19227369
152	0x3ddf2628	0.108959496
153	0xbe609984	-0.21933562
154	0xbe4ce34d	-0.20008583
155	0x3da7acce	0.08187257
156	0x3e9d2863	0.30694875
157	0xbd9a957d	-0.07548044
158	0xbdb7022c	-0.08935961
159	0x3d87eadd	0.066365935
160	0x3e66c9a3	0.22537856
161	0xbdb79c77	-0.0896539
162	0xbe9218c2	-0.28534514
163	0x3e25af1c	0.1618008
164	0x3e8cad95	0.27476183
165	0xbe22b475	-0.15889151
166	0xbcb7c88d	-0.022434497
167	0xbd9e6d01	-0.077356346
168	0x3cdec3b8	0.027192935
169	0xbd68c9ea	-0.056833185
170	0xba979a45	-0.0011566362
171	0xbe29fb06	-0.16599664
172	0xbe78e9af	-0.24307893
173	0x3ccdabb7	0.025106294
174	0x3ede7416	0.43447942
175	0x3dc2d773	0.0951375
176	0xbd808956	-0.06276195
177	0x3d04e2b0	0.03244275
178	0xbd0702b6	-0.03296157
179	0x3db6f5ec	0.089336246
180	0x3e45ff83	0.19335751
181	0xbe479709	-0.19491209
182	0xbe0db8ec	-0.13840073
183	0x3dde6d2c	0.10860667
184	0xbe297df6	-0.16551957
185	0xbde9d0b0	-0.11416757
186	0xbd3b4e2e	-0.045728855
187	0xbd4221c9	-0.0473955
188	0xbcd4b6cc	-0.02596607
189	0xbd746e14	-0.05967529
190	0xbe4c96c5	-0.19979389
191	0x3dc7cdeb	0.097560726
192	0x3d3458b8	0.04402992
193	0xbe994a87	-0.29939672
194	0xbec7df02	-0.3903733
195	0xbeac9695	-0.33708635
196	0x3c767016	0.015041372
197	0xbcb2be03	-0.02181912
198	0xbcb4b644	-0.022059567
199	0x3e252d91	0.16130663
200	0x3e023f48	0.12719452
201	0xbda588e7	-0.08082753
202	0x3e83f82b	0.25775275
203	0xbe30653c	-0.17226118
204	0x3d79850c	0.0609179
205	0x3e7563e9	0.23963894
206	0x3f0f75d5	0.5603917
207	0xbee248fe	-0.44196314
208	0x3e68be2c	0.22728795
209	0x3dfc3973	0.12315645
210	0xbe4f2bd2	-0.2023156
211	0xbd24fe4b	-0.040281575
212	0x3e900c9f	0.2813463
213	0xbed1b432	-0.4095779
214	0xbc248d0c	-0.010043394
215	0xbc90ffdd	-0.01770013
216	0xbdf5293d	-0.11970756
217	0xbe69f54f	-0.22847484
218	0xbe885cf4	-0.26633418
219	0xbe9094ae	-0.28238434
220	0xbe414716	-0.18874773
221	0x3ecb4e38	0.39708114
222	0xbd877f06	-0.06616025
223	0xbd57c71e	-0.052680127
224	0xbe29fd7a	-0.166006
225	0x3bc356b9	0.005961266
226	0xbe95335a	-0.2914074
227	0x3da55df8	0.08074564
228	0xbe8000e8	-0.2500069
229	0xbddde719	-0.10835094
230	0xbde33f01	-0.110960014
231	0xbebfdd5c	-0.3747357
232	0xbdd7e422	-0.1054156
233	0x3d47f3b7	0.04881641
234	0x3e3fd2e4	0.18732792
235	0xbe338675	-0.1753176
236	0xbde4e807	-0.11177068
237	0xbe8fc9ce	-0.28083652
238	0x3e2b07d3	0.16702203
239	0x3e82cab1	0.25545266
240	0x3dfcdeb0	0.12347162
241	0xbe536b76	-0.20646462
242	0x3c75084b	0.0149555905
243	0x3eb39fb5	0.35082784
244	0xbe1f60e1	-0.155643
245	0xbe1dbf30	-0.15404963
246	0xbcc95e72	-0.024581168
247	0xbd0501f2	-0.03247256
248	0xbeadc8f8	-0.3394239
249	0xbdc98a23	-0.098408006
250	0xbeb1fd25	-0.34763446
251	0xbe0d36b7	-0.13790403
252	0x3e82ee63	0.255725
253	0x3d8ccbee	0.06874834
254	0x3eb6aa3c	0.35676754
255	0xbd57cbeb	-0.052684706

network_body._body_endoder.seq_layers.0.bias f4 [128]
0	0x00000000	0.0
1	0x00000000	0.0
2	0x00000000	0.0
3	0x00000000	0.0
4	0x00000000	0.0
5	0x00000000	0.0
6	0x00000000	0.0
7	0x00000000	0.0
8	0x00000000	0.0
9	0x00000000	0.0
10	0x00000000	0.0
11	0x00000000	0.0
12	0x00000000	0.0
13	0x00000000	0.0
14	0x00000000	0.0
15	0x00000000	0.0
16	0x00000000	0.0
17	0x00000000	0.0
18	0x00000000	0.0
19	0x00000000	0.0
20	0x00000000	0.0
21	0x00000000	0.0
22	0x00000000	0.0
23	0x00000000	0.0
24	0x00000000	0.0
25	0x00000000	0.0
26	0x00000000	0.0
27	0x00000000	0.0
28	0x00000000	0.0
29	0x00000000	0.0
30	0x00000000	0.0
31	0x00000000	0.0
32	0x00000000	0.0
33	0x00000000	0.0
34	0x00000000	0.0
35	0x00000000	0.0
36	0x00000000	0.0
37	0x00000000	0.0
38	0x00000000	0.0
39	0x00000000	0.0
40	0x00000000	0.0
41	0x00000000	0.0
42	0x00000000	0.0
43	0x00000000	0.0
44	0x00000000	0.0
45	0x00000000	0.0
46	0x00000000	0.0
47	0x00000000	0.0
48	0x00000000	0.0
49	0x00000000	0.0
50	0x00000000	0.0
51	0x00000000	0.0
52	0x00000000	0.0
53	0x00000000	0.0
54	0x00000000	0.0
55	0x00000000	0.0
56	0x00000000	0.0
57	0x00000000	0.0
58	0x00000000	0.0
59	0x00000000	0.0
60	0x00000000	0.0
61	0x00000000	0.0
62	0x00000000	0.0
63	0x00000000	0.0
64	0x00000000	0.0
65	0x00000000	0.0
66	0x00000000	0.0
67	0x00000000	0.0
68	0x00000000	0.0
69	0x00000000	0.0
70	0x00000000	0.0
71	0x00000000	0.0
72	0x00000000	0.0
73	0x00000000	0.0
74	0x00000000	0.0
75	0x00000000	0.0
76	0x00000000	0.0
77	0x00000000	0.0
78	0x00000000	0.0
79	0x00000000	0.0
80	0x00000000	0.0
81	0x00000000	0.0
82	0x00000000	0.0
83	0x00000000	0.0
84	0x00000000	0.0
85	0x00000000	0.0
86	0x00000000	0.0
87	0x00000000	0.0
88	0x00000000	0.0
89	0x00000000	0.0
90	0x00000000	0.0
91	0x00000000	0.0
92	0x00000000	0.0
93	0x00000000	0.0
94	0x00000000	0.0
95	0x00000000	0.0
96	0x00000000	0.0
97	0x00000000	0.0
98	0x00000000	0.0
99	0x00000000	0.0
100	0x00000000	0.0
101	0x00000000	0.0
102	0x00000000	0.0
103	0x00000000	0.0
104	0x00000000	0.0
105	0x00000000	0.0
106	0x00000000	0.0
107	0x00000000	0.0
108	0x00000000	0.0
109	0x00000000	0.0
110	0x00000000	0.0
111	0x00000000	0.0
112	0x00000000	0.0
113	0x00000000	0.0
114	0x00000000	0.0
115	0x00000000	0.0
116	0x00000000	0.0
117	0x00000000	0.0
118	0x00000000	0.0
119	0x00000000	0.0
120	0x00000000	0.0
121	0x00000000	0.0
122	0x00000000	0.0
123	0x00000000	0.0
124	0x00000000	0.0
125	0x00000000	0.0
126	0x00000000	0.0
127	0x00000000	0.0

network_body._body_endoder.seq_layers.2.weight f4 [128, 128]
0	0xbd7cc0b5	-0.061707217
1	0xbc763a7e	-0.015028594
2	0xbe04b3f3	-0.1295927
3	0xbd47bee4	-0.04876603
4	0xbd9cc4f7	-0.076547556
5	0x3dd528d4	0.10408178
6	0x3c4f66f1	0.0126588205
7	0xbdbf3f2e	-0.093382224
8	0x3e314076	0.17309746
9	0xbd1d541c	-0.03841029
10	0xbe01d6ce	-0.12679598
11	0x3dba5d5a	0.09099837
12	0xbcda0120	-0.026611865
13	0xbd85e03b	-0.06536909
14	0x3d7a277d	0.061072815
15	0xbe3b1cdf	-0.18272732
16	0x3e500f77	0.203184
17	0xbc9bb1f9	-0.019005762
18	0xbcc3e207	-0.02391149
19	0xbc48c659	-0.012254321
20	0xbd8190e5	-0.063264646
21	0x3d9a9377	0.07547658
22	0xbbb0e516	-0.005398403
23	0x3d93e8d3	0.07222142
24	0xbd875c83	-0.06609442
25	0x3e15261f	0.14565323
26	0xbe21a980	-0.15787315
27	0xbddde949	-0.10835511
28	0x3b455295	0.0030109037
29	0xbd9f3b48	-0.07774979
30	0x3dcd9407	0.100379996
31	0xbdede6e1	-0.11616302
32	0xbc87bd27	-0.016569687
33	0x3de9c940	0.114153385
34	0xbdbfc3d2	-0.09363522
35	0x3dee544b	0.11637171
36	0x3d5bb38e	0.053638034
37	0xbdbfb808	-0.09361273
38	0x3e078369	0.13233723
39	0xbcd71eeb	-0.02625986
40	0xbd1fced4	-0.039015606
41	0xbd553c76	-0.052059613
42	0x3bbd9885	0.005786004
43	0xbc76c064	-0.015060518
44	0x3be6bf04	0.007041814
45	0xbc8ed555	-0.017435709
46	0xbdd96531	-0.10615004
47	0x3cfae777	0.03062795
48	0x3e13cc6f	0.14433454
49	0xbc4f5ce9	-0.012656429
50	0xbce00ad0	-0.027348906
51	0x3d05e34d	0.032687474
52	0x3dec4dd6	0.115382835
53	0xbe13998c	-0.14414042
54	0x3d450f17	0.048110094
55	0x3d35fea8	0.044432312
56	0xbd32a1ed	-0.043611456
57	0x3c17b8f8	0.009260409
58	0xbd63f2ad	-0.055651356
59	0xbdda20a0	-0.10650754
60	0x3d4d7830	0.050163448
61	0x3d9a6efb	0.07540699
62	0xbd80ed76	-0.06295292
63	0x3ccc72c9	0.024957078
64	0xbe09b825	-0.13449152
65	0xbcdb2c61	-0.02675456
66	0x3d1389e9	0.036020193
67	0x3df10fc1	0.11770583
68	0xbcf1337e	-0.029443499
69	0xbd827209	-0.06369407
70	0xbc2306db	-0.009950365
71	0x3bfec756	0.0077752275
72	0x3db51b0c	0.088430494
73	0xbb9d9dd6	-0.0048100753
74	0xbdd4b45a	-0.10385962
75	0x3ca5d6eb	0.020244082
76	0x3d82be67	0.063839726
77	0xbc95e646	-0.01829828
78	0x3d3d4bfe	0.04621505
79	0x3c0e8808	0.008699425
80	0x3df129c6	0.11775546
81	0x3dbdfe27	0.09276991
82	0xbda26969	-0.07930262
83	0x3c93517b	0.017983189
84	0xbdd88411	-0.10572065
85	0x3df96398	0.12177199
86	0x3d664aa8	0.05622354
87	0xbdfa60ed	-0.122255184
88	0xbca9ac86	-0.020712148
89	0xbd54bd15	-0.051938135
90	0x3de6d4e3	0.11271074
91	0x3db6d329	0.08926994
92	0xbe08686f	-0.13321088
93	0xbe17111e	-0.14752623
94	0xbd696c57	-0.056988087
95	0x3c7c00cc	0.015381049
96	0x3d430dbf	0.04762053
97	0xbd97115a	-0.073763564
98	0xbcbd4c3b	-0.023107639
99	0x3d96c26c	0.07361302
100	0xbcad5779	-0.021159874
101	0xbda1f676	-0.07908337
102	0xbc93d2ef	-0.018044917
103	0x3e998e47	0.29991361
104	0xbd8c4f66	-0.068510816
105	0x3d9acb7b	0.07558342
106	0x3d74d0f9	0.059769604
107	0xbb7d6e47	-0.0038670467
108	0x3dfde051	0.123963006
109	0x3ced91f3	0.029000258
110	0xbd36e48b	-0.04465155
111	0x3de787f7	0.1130523
112	0xbdb62e39	-0.08895535
113	0xbd91f456	-0.071266815
114	0x3d100c6f	0.035168108
115	0x3ca0c148	0.019623414
116	0xbdc4e36d	-0.096136905
117	0x3e058162	0.13037637
118	0x3c946f15	0.018119374
119	0xbc76e9ec	-0.01507042
120	0x394e5e5c	0.00019680843
121	0x3dad021f	0.0844767
122	0x3da727f7	0.081619196
123	0x3d08ba9c	0.03338109
124	0x3bb4bd93	0.005515763
125	0x3d4d0575	0.050054032
126	0x3de6c92c	0.11268839
127	0xbd4ea7eb	-0.050453108
128	0xbd3d6013	-0.0462342
129	0xbe08b746	-0.13351163
130	0x3da7ae63	0.081875585
131	0xbd016d9f	-0.031598683
132	0x3e11f32d	0.1425292
133	0x3b209081	0.0024500194
134	0x3d460420	0.048343778
135	0xbadb9d07	-0.0016755172
136	0x3df453cb	0.11930045
137	0x3b18f3d0	0.0023338683
138	0x3d0fee5d	0.03513943
139	0xbd905f62	-0.07049443
140	0xbcd1c9f5	-0.025608996
141	0x3d7b3483	0.061329376
142	0xbc09ddb4	-0.008414675
143	0x3d49805f	0.04919469
144	0xbc2cd2c7	-0.0105483
145	0x3d0d3ff1	0.034484807
146	0x3bf119e3	0.0073578223
147	0xbd56ef9d	-0.052474607
148	0x3baee399	0.0053371903
149	0xbe0fb2a3	-0.14032988
150	0x3d731549	0.05934647
151	0x3d9ea9bb	0.07747217
152	0xbca58e36	-0.020209413
153	0x3dce2936	0.10066454
154	0x3e394364	0.18092114
155	0xbdb0ee42	-0.08639194
156	0xbd414363	-0.047183406
157	0xbcd4ab33	-0.02596054
158	0x3c5d1b58	0.013495289
159	0x3d248e8c	0.040175006
160	0x3d68991c	0.05678664
161	0xbdb05fe8	-0.08612043
162	0x3e29e491	0.16591097
163	0x3d05bfda	0.032653667
164	0x3db87122	0.09005953
165	0xbd9e3e79	-0.077267595
166	0xbe14fb1e	-0.14548919
167	0x3c84c430	0.01620683
168	0x3db40ad6	0.08791129
169	0xbd20f9ec	-0.039300844
170	0x3dd6dfe8	0.104919255
171	0xbdfd8445	-0.12378744
172	0x3d5c7c97	0.053829756
173	0xbdc5f0b8	-0.09665054
174	0xbded42dc	-0.11585018
175	0x3c03c9ac	0.008043688
176	0x3d9df7ee	0.077133045
177	0xbd810955	-0.06300608
178	0x3d16b43f	0.03679299
179	0x3e0e1d9a	0.1387848
180	0x3beb0de7	0.007173288
181	0xbd476887	-0.04868367
182	0xbd04a1ae	-0.032380752
183	0x3b5197bf	0.0031981317
184	0x3db06462	0.086128965
185	0x3d9891cf	0.07449686
186	0x3debc23f	0.11511659
187	0xbd0352af	-0.032061275
188	0x3de02854	0.10945192
189	0xbc48137d	-0.012211678
190	0x3d641e37	0.055692878
191	0xbccf2f6f	-0.025291173
192	0xbdb7f17a	-0.08981605
193	0x3e1b8b95	0.15189965
194	0xbdbead88	-0.09310442
195	0x3e5ba012	0.2144778
196	0xbe1e6b04	-0.1547051
197	0xbd2832c0	-0.041064024
198	0xbd15b6ab	-0.03655116
199	0x3c88eae8	0.016713575
200	0xbc5c7de6	-0.013457751
201	0x3d865b55	0.06560389
202	0xbe7280af	-0.23681901
203	0x3e060f9b	0.1309189
204	0x3c925e38	0.017867193
205	0x3de8efd5	0.11373869
206	0x3b71c2ca	0.0036889785
207	0x3d9c9fe2	0.07647683
208	0x3c7272f1	0.014797912
209	0xbc0f5ade	-0.008749692
210	0x3d4d29d5	0.050088722
211	0x3cb1e935	0.021717647
212	0x3e039984	0.1285153
213	0xbe19a15c	-0.1500296
214	0x3c896cd2	0.016775522
215	0xbd9f6f6b	-0.07784923
216	0xbc12608c	-0.008934151
217	0x3c95da44	0.018292554
218	0x3dab453c	0.08362815
219	0xbe359a97	-0.17734753
220	0xbdc46668	-0.09589845
221	0xbd612bcc	-0.05497341
222	0x3e00176d	0.12508936
223	0xbd4d4ce0	-0.05012214
224	0xbc21c843	-0.009874406
225	0x3d8cf8f3	0.06883421
226	0x3da5262f	0.080639236
227	0x3d51742d	0.051136184
228	0xbe0967d1	-0.13418509
229	0xbb36239b	-0.0027792219
230	0xbd297f2a	-0.04138104
231	0xbd173d5a	-0.036923744
232	0xbd0cf56d	-0.034413744
233	0x3cbafc21	0.022825303
234	0xbd06a182	-0.03286887
235	0xbcb20e54	-0.021735348
236	0x3cb148a9	0.021641092
237	0xbc3eb9c6	-0.0116409715
238	0xbd573b79	-0.052546952
239	0x3e1209be	0.14261529
240	0xbd547790	-0.051871836
241	0xbc6d80f9	-0.0144960815
242	0xbe05574e	-0.13021585
243	0xbdf26f91	-0.11837686
244	0x3cfdd913	0.030987298
245	0xbe073201	-0.13202669
246	0xbdb38e2c	-0.087673515
247	0xbe658616	-0.22414431
248	0x3d8daad5	0.06917349
249	0xbe453168	-0.19257128
250	0xbc68a1d9	-0.014198744
251	0x3dac2f81	0.08407498
252	0xbd9dd424	-0.07706478
253	0x3e3e2272	0.18567827
254	0x3d92776d	0.07151685
255	0x3c5a7247	0.01333291

network_body._body_endoder.seq_layers.2.bias f4 [128]
0	0x00000000	0.0
1	0x00000000	0.0
2	0x00000000	0.0
3	0x00000000	0.0
4	0x00000000	0.0
5	0x00000000	0.0
6	0x00000000	0.0
7	0x00000000	0.0
8	0x00000000	0.0
9	0x00000000	0.0
10	0x00000000	0.0
11	0x00000000	0.0
12	0x00000000	0.0
13	0x00000000	0.0
14	0x00000000	0.0
15	0x00000000	0.0
16	0x00000000	0.0
17	0x00000000	0.0
18	0x00000000	0.0
19	0x00000000	0.0
20	0x00000000	0.0
21	0x00000000	0.0
22	0x00000000	0.0
23	0x00000000	0.0
24	0x00000000	0.0
25	0x00000000	0.0
26	0x00000000	0.0
27	0x00000000	0.0
28	0x00000000	0.0
29	0x00000000	0.0
30	0x00000000	0.0
31	0x00000000	0.0
32	0x00000000	0.0
33	0x00000000	0.0
34	0x00000000	0.0
35	0x00000000	0.0
36	0x00000000	0.0
37	0x00000000	0.0
38	0x00000000	0.0
39	0x00000000	0.0
40	0x00000000	0.0
41	0x00000000	0.0
42	0x00000000	0.0
43	0x00000000	0.0
44	0x00000000	0.0
45	0x00000000	0.0
46	0x00000000	0.0
47	0x00000000	0.0
48	0x00000000	0.0
49	0x00000000	0.0
50	0x00000000	0.0
51	0x00000000	0.0
52	0x00000000	0.0
53	0x00000000	0.0
54	0x00000000	0.0
55	0x00000000	0.0
56	0x00000000	0.0
57	0x00000000	0.0
58	0x00000000	0.0
59	0x00000000	0.0
60	0x00000000	0.0
61	0x00000000	0.0
62	0x00000000	0.0
63	0x00000000	0.0
64	0x00000000	0.0
65	0x00000000	0.0
66	0x00000000	0.0
67	0x00000000	0.0
68	0x00000000	0.0
69	0x00000000	0.0
70	0x00000000	0.0
71	0x00000000	0.0
72	0x00000000	0.0
73	0x00000000	0.0
74	0x00000000	0.0
75	0x00000000	0.0
76	0x00000000	0.0
77	0x00000000	0.0
78	0x00000000	0.0
79	0x00000000	0.0
80	0x00000000	0.0
81	0x00000000	0.0
82	0x00000000	0.0
83	0x00000000	0.0
84	0x00000000	0.0
85	0x00000000	0.0
86	0x00000000	0.0
87	0x00000000	0.0
88	0x00000000	0.0
89	0x00000000	0.0
90	0x00000000	0.0
91	0x00000000	0.0
92	0x00000000	0.0
93	0x00000000	0.0
94	0x00000000	0.0
95	0x00000000	0.0
96	0x00000000	0.0
97	0x00000000	0.0
98	0x00000000	0.0
99	0x00000000	0.0
100	0x00000000	0.0
101	0x00000000	0.0
102	0x00000000	0.0
103	0x00000000	0.0
104	0x00000000	0.0
105	0x00000000	0.0
106	0x00000000	0.0
107	0x00000000	0.0
108	0x00000000	0.0
109	0x00000000	0.0
110	0x00000000	0.0
111	0x00000000	0.0
112	0x00000000	0.0
113	0x00000000	0.0
114	0x00000000	0.0
115	0x00000000	0.0
116	0x00000000	0.0
117	0x00000000	0.0
118	0x00000000	0.0
119	0x00000000	0.0
120	0x00000000	0.0
121	0x00000000	0.0
122	0x00000000	0.0
123	0x00000000	0.0
124	0x00000000	0.0
125	0x00000000	0.0
126	0x00000000	0.0
127	0x00000000	0.0
