results/test/Car_agent/Car_agent-499942.pt (torch, 485577 bytes, 39 tensors)

network_body._body_endoder.seq_layers.0.weight f4 [128, 19]
-0.09086579 -0.063823424 0.13110377 -0.115739964 -0.35033235 0.058622666 -0.095872365 0.070785604
0.14097704 -0.15350384 -0.0965989 0.17741269 0.17820743 0.079494394 -0.043124944 0.18714933
-0.19482403 0.2664312 -0.29071102 -0.075697735 -0.17648229 -0.075649306 0.20553266 -0.1216638
-0.08717972 -0.11079248 0.012037659 0.24822596 0.273848 0.044519823 -0.3177512 0.09032229
0.022740947 -0.04913172 0.44716167 0.11707153 0.010969994 -0.2764806 -0.11991891 -0.1402107
-0.17833567 0.06205857 0.40652055 0.1628913 -0.36041242 0.11303439 0.21782494 0.30864283
0.13313992 -0.024539614 -0.33708695 0.1489782 -0.008755974 -0.0937275 0.1822423 0.37389067
-0.33773732 -0.30465016 -0.23122501 -0.23642838 0.032846622 -0.29284653 -0.1577912 0.0029696207
0.27293292 -0.19610582 0.19549626 0.057298888 -0.043448728 -0.26576608 0.28343475 0.17895462
0.35717198 0.15539342 -0.29370958 0.12283284 -0.23069003 -0.23421109 0.36954305 0.13086219
-0.25291726 -0.45688897 0.13468544 -0.46715245 0.080713645 0.23427092 0.16775359 0.2957935
0.24212576 0.38821134 -0.00070499664 -0.01148096 0.14640829 -0.30566898 0.049659945 -0.12741533
0.04272456 -0.31243038 -0.30043307 0.2022081 -0.22720022 -0.078435555 -0.10603369 0.032986715
-0.4077198 0.10058801 -0.2965342 0.31618956 0.16265067 -0.5091379 -0.0072355806 -0.8802035
-0.15643974 0.13559346 -0.17913866 -0.35197988 -0.19414616 -0.22649677 0.43888262 0.24081036
-0.2866326 -0.0038922657 0.13145638 -0.104935855 -0.099167585 -0.30308133 -0.079709396 -0.008042884
-0.0360971 -0.06144614 0.21634169 -0.15914735 -0.27113193 -0.050834756 -0.2443626 -0.0876944
0.014967757 0.17184572 0.36681542 -0.09489777 0.29663357 0.012264394 -0.12585577 0.49320492
-0.20128973 0.020594483 0.104998365 0.10870988 -0.45518067 0.09932864 -0.37182418 0.035525754
-0.03733497 -0.13694257 -0.24229367 0.21786398 0.010777642 -0.29656735 0.23214306 -0.15578122
-0.19742174 -0.4530167 -0.10658131 0.0037741042 -0.071855426 0.017886007 -0.011131322 0.10455932
-0.2899416 0.36374956 0.022334063 0.123046644 0.23105319 0.15998025 0.0558408 -0.005143495
-0.009663838 0.23564816 -0.04268223 -0.047349308 -0.49747834 0.09860827 -0.35058352 0.0051588416
-0.35447094 -0.028393446 -0.46115607 -0.53750443 0.37045202 -0.20203272 0.12885496 0.06940937
0.014840168 -0.05349043 -0.4267778 -0.3400777 0.0077376757 -0.15446433 0.13256915 0.2633956
0.24664849 -0.11523792 0.42577693 0.12795825 0.2574622 0.27609065 -0.23640187 0.10097992
0.11853388 -0.14031807 0.22007056 -0.056001663 0.03959179 0.08531221 0.025463508 -0.08277504
0.3037632 -0.20808119 -0.15220648 0.22409503 -0.03013825 -0.058998603 -0.3831472 0.14442828
0.022337489 0.17028187 0.19891667 -0.02896149 -0.57522416 -0.50111413 -0.14735258 0.12404889
-0.26849157 -0.020937424 -0.28070426 -0.19100188 -0.26865184 0.053159893 0.085154235 -0.10236296
-0.1593876 0.26518795 0.20708956 -0.35586834 0.1807897 -0.13184814 -0.00015713481 -0.051600855
-0.34845614 0.088645875 -0.14400427 -0.081933916 0.18005751 -0.22578387 0.1645723 -0.3002857
00000000: d817 babd dbb5 82bd 1140 063e 1309 edbd
00000010: c35e b3be 521e 703d bb58 c4bd 0bf8 903d
00000020: 495c 103e 1c30 1dbe a5d5 c5bd acab 353e
00000030: 027c 363e f5cd a23d c8a3 30bd 13a4 3f3e
00000040: f37f 47be ac69 883e 13d8 94be 6a07 9bbd
00000050: c6b7 34be 06ee 9abd 2777 523e df2a f9bd
00000060: 488b b2bd 2be7 e2bd 9a39 453c f22e 7e3e
00000070: ce35 8c3e 6b5a 363d 49b0 a2be e5fa b83d
00000080: 394b ba3c 583e 49bd 60f2 e43e 33c3 ef3d
00000090: 7dbb 333c dd8e 8dbe 0c98 f5bd 6593 0fbe
000000a0: a09d 36be 2131 7e3d 7623 d03e facc 263e
000000b0: fa87 b8be 937e e73d 800d 5f3e 6f06 9e3e
000000c0: d555 083e 4d07 c9bc a996 acbe be8d 183e
000000d0: 3775 0fbc 34f4 bfbd ba9d 3a3e 996e bf3e
000000e0: e8eb acbe 1bfb 9bbe 40c6 6cbe 481a 72be
000000f0: 2e8a 063d fbef 95be 0494 21be f89d 423b
00000100: ddbd 8b3e f7cf 48be 2c30 483e 3db2 6a3d
00000110: 4bf7 31bd 7e12 88be 5c1e 913e e13f 373e
00000120: 3fdf b63e 741f 1f3e 1a61 96be c98f fb3d
00000130: 023a 6cbe 08d5 6fbe bf34 bd3e bd00 063e
00000140: 5f7e 81be 5aed e9be fbea 093e 9b2e efbe
00000150: 324d a53d b7e4 6f3e 99c7 2b3e 3f72 973e
00000160: d1ef 773e a3c3 c63e 86cf 38ba a31a 3cbc
00000170: 0eec 153e a580 9cbe 3a68 4b3d 2a79 02be
00000180: f3ff 2e3d e0f6 9fbe 5dd2 99be a40f 4f3e
00000190: 2da7 68be d2a2 a0bd 3128 d9bd 141d 073d
000001a0: a6c0 d0be 1601 ce3d 55d3 97be 99e3 a13e
000001b0: e68d 263e dd56 02bf 7318 edbb 0455 61bf
000001c0: bd31 20be 03d9 0a3e 2070 37be b536 b4be
000001d0: 40ce 46be c5ee 67be 39b5 e03e fe96 763e
000001e0: 82c1 92be 6215 7fbb 809c 063e 9ce8 d6bd
000001f0: 6018 cbbd 7a2d 9bbe ae3e a3bd 4dc6 03bc
00000200: 8dda 13bd f3ae 7bbd ad88 5d3e 86f7 22be
00000210: ced1 8abe 1b38 50bd 303a 7abe 1f99 b3bd
00000220: 533b 753c 53f8 2f3e 3bcf bb3e c359 c2bd
00000230: 5be0 973e 99f0 483c 56e0 00be 5b85 fc3e
00000240: e51e 4ebe c3b5 a83c 6209 d73d 49a3 de3d
00000250: 710d e9be d06c cb3d bd5f bebe 7483 113d
00000260: 8eec 18bd ac3a 0cbe d51b 78be bc17 5f3e
00000270: b594 303c add7 97be e9b6 6d3e 1d85 1fbe
00000280: ed28 4abe cef1 e7be 4d47 dabd f656 773b
00000290: f028 93bd ad85 923c 2660 36bc 3223 d63d
000002a0: 3a73 94be 623d ba3e edf5 b63c e1ff fb3d
000002b0: 3599 6c3e ddd1 233e 53b9 643d c38a a8bb
000002c0: 1355 1ebc c04d 713e 90d3 2ebd 59f1 41bd
000002d0: 7bb5 febe 22f3 c93d af7f b3be 800b a93b
000002e0: 377d b5be 5f99 e8bc a61c ecbe e499 09bf
000002f0: e3ab bd3e aae1 4ebe 8ef2 033e 8026 8e3d
00000300: 2d24 733c c818 5bbd 9f82 dabe aa1e aebe
00000310: 548c fd3b e62b 1ebe 35c0 073e cadb 863e
00000320: 6c91 7c3e dc01 ecbd 6fff d93e 7d07 033e
00000330: 16d2 833e c15b 8d3e 5513 72be 8fce ce3d
00000340: e4c1 f23d 8aaf 0fbe 2d5a 613e 0062 65bd
00000350: 002b 223d 2bb8 ae3d d998 d03c f685 a9bd
00000360: da86 9b3e 3c13 55be 04dc 1bbe 2b79 653e
00000370: 7ee4 f6bc 85a8 71bd df2b c4be 02e5 133e
00000380: 1cfd b63c 5f5e 2e3e d0b0 4b3e a640 edbc
00000390: e441 13bf 0449 00bf 98e3 16be 580d fe3d
000003a0: ba77 89be f684 abbc 78b8 8fbe ff95 43be
000003b0: bc8c 89be 30be 593d 5865 ae3d aca3 d1bd
000003c0: 8136 23be b7c6 873e 490f 543e 6034 b6be
000003d0: ef20 393e 3303 07be 8ec4 24b9 6b5b 53bd
000003e0: d868 b2be f88b b53d db75 13be f8cc a7bd
000003f0: ff60 383e e333 67be a485 283e 0cbf 99be

network_body._body_endoder.seq_layers.0.bias f4 [128]
0.002741594 0.013807481 -0.0024526 -0.008342266 -0.005194201 -0.0005473122 0.004265854 0.0034688518
-0.001522928 0.006871148 0.00016124187 0.0036656407 0.00090840907 0.006036116 -0.0043973215 -0.009207497
-0.0012045266 0.0046477523 -0.0041813236 -0.015169196 -0.0037288747 0.014262152 0.004151728 0.0042093145
-0.0016228338 -0.011343045 -0.0008859785 0.0036691916 -0.002107013 -0.001578373 0.005017462 -0.002681881
0.0006596875 0.006175371 0.0036852176 -0.0039387234 0.0072339186 -0.002515612 -0.001389908 0.0039216345
-0.0028305552 0.0029920333 0.01048123 -0.00475507 -0.0061825356 0.0011705558 0.0021316423 0.0025370244
-0.010609289 -0.0006885893 -0.0064079245 -0.0018542703 -0.003988068 -0.0018003893 0.015156251 -0.0049031703
0.0040705465 0.0045737927 -0.0038376965 0.0077731907 0.0035687166 0.0026386671 0.005525403 0.000111035
-0.0032503433 -0.0013389359 0.0038169527 -0.008884324 0.0037645584 -0.0006204098 0.005706011 0.017110782
-0.0025208422 -0.007924082 -0.02031501 -0.0047796573 -0.015770629 -0.0024786727 -0.010116061 -0.012028017
-0.0061218534 -0.0022570551 -0.0050468445 0.0034307884 -0.005090447 -0.0073543787 0.001954094 0.006099923
-0.0003545153 -0.0048456043 0.010987083 0.018759202 -0.011249111 -0.0029097777 0.005838255 0.005080447
-0.0050879335 -0.0038477653 -0.0066835545 -0.0030821916 0.021463364 -0.0045221536 0.0056877797 -0.006893967
0.0030668653 0.007605386 -0.002544597 -0.0068084453 -0.0012219797 -0.0034095827 0.00039536654 -0.0023487776
0.0116373645 -5.060399e-05 -0.0034887725 0.0018239435 -0.0030637216 -0.0019455535 -0.0012295698 -0.0038148873
-0.013647552 -0.0045893756 0.00095352443 -0.00037054069 -0.0046987184 -0.0061290916 0.000113520655 0.0028974775
00000000: 51ac 333b c638 623c cdbb 20bb 00ae 08bc
00000010: 1e34 aabb 8079 0fba 94c8 8b3b ad55 633b
00000020: fc9c c7ba 5e27 e13b 0913 2939 3f3b 703b
00000030: 4d22 6e3a 9cca c53b 6817 90bb 0bdb 16bc
00000040: 35e1 9dba 2c4c 983b 7c03 89bb 3888 78bc
00000050: 2360 74bb cdab 693c 380b 883b 4aee 893b
00000060: 44b5 d4ba 2ed8 39bc 0341 68ba d276 703b
00000070: d015 0abb 69e1 ceba 8669 a43b 7fc2 2fbb
00000080: e1ee 2c3a c45a ca3b b183 713b 6810 81bb
00000090: 820a ed3b f7dc 24bb 932d b6ba 0e81 803b
000000a0: d680 39bb fd15 443b 77b9 2b3c 6bd0 9bbb
000000b0: de96 cabb 566d 993a 06b3 0b3b 3544 263b
000000c0: 95d2 2dbc 7282 34ba 91f9 d1bb fd0a f3ba
000000d0: 57ae 82bb 0afb ebba ed51 783c c6aa a0bb
000000e0: 3862 853b c1df 953b dd81 7bbb 40b6 fe3b
000000f0: 21e1 693b 7ded 2c3b 710e b53b 76db e838
00000100: b603 55bb 3c7f afba d725 7a3b 8e8f 11bc
00000110: cfb6 763b ffa2 22ba 7df9 ba3b e92b 8c3c
00000120: b734 25bb 02d4 01bc aa6b a6bc ac9e 9cbb
00000130: 6831 81bc 3a71 22bb d6bd 25bc 2911 45bc
00000140: d499 c8bb 1aeb 13bb 0060 a5bb 14d7 603b
00000150: c4cd a6bb 00fd f0bb 4210 003b dde1 c73b
00000160: 3dde b9b9 e0c7 9ebb 2b03 343c e6ac 993c
00000170: 314e 38bc f8b1 3ebb d54e bf3b e179 a63b
00000180: aeb8 a6bb ca2a 7cbb b801 dbbb 98fe 49bb
00000190: f0d3 af3c 932e 94bb 8e60 ba3b c9e6 e1bb
000001a0: 76fd 483b 9a36 f93b 41c3 26bb 6119 dfbb
000001b0: d62a a0ba 4e73 5fbb 3349 cf39 f3ed 19bb
000001c0: a5aa 3e3c 9f3f 54b8 e4a3 64bb 6311 ef3a
000001d0: b8c8 48bb f101 ffba 8429 a1ba 3003 7abb
000001e0: fb99 5fbc 7962 96bb f1f5 793a 2145 c2b9
000001f0: b5f7 99bb 8cd6 c8bb f011 ee38 9be3 3d3b

network_body._body_endoder.seq_layers.2.weight f4 [128, 128]
-0.027603948 0.04203068 -0.0071122875 0.057676844 0.12739393 0.061447185 0.037131824 0.021090792
0.048006598 -0.15193108 0.029535154 0.01792912 0.12619933 0.014280582 0.009328651 0.111174144
0.08847769 -0.040136613 -0.063196674 0.11977493 -0.029353537 0.02641342 0.019231502 0.128752
-0.010549698 -0.007628069 -0.058400497 0.04939456 0.069930665 0.19000432 -0.0030398609 0.0394644
-0.010988081 0.027191028 -0.06524556 -0.06803004 -0.124935284 0.03468402 0.06287417 -0.015734483
-0.044555817 0.120488025 -0.117486976 -0.11473917 -0.08153641 0.09632625 0.051697586 -0.015285665
-0.0539146 -0.16124366 0.003759887 0.1096692 0.09404134 0.16016072 0.02923629 0.04466618
-0.12190788 -0.017360318 0.08516345 0.2649548 0.110311575 -0.10111835 -0.08592779 0.07917983
0.01572776 -0.08041748 -0.06755656 0.104044765 0.04207829 -0.091167495 0.10806251 0.09376201
-0.04117085 0.04620108 -0.0283827 0.046121143 0.058103014 -0.08630532 0.20189285 0.012211461
-0.0016808626 -0.028319769 0.05515315 0.114799775 0.045905635 -0.039240994 -0.013616447 -0.019721316
0.0019515678 0.06726713 0.03209553 -0.015943492 0.05030017 -0.0040918933 -0.059125822 -0.114004605
0.0111873485 0.057543475 0.034742568 0.04467305 0.0032943063 0.07507347 -0.051999774 -0.12493195
-0.041283563 0.011345016 -0.032013226 0.078954816 0.009723447 -0.026495142 0.09041322 -0.10826697
0.08708021 -0.0008249322 -0.040757854 0.04544516 -0.08005667 0.024148846 -0.054219544 -0.1079127
0.075312495 0.113270454 -0.026324881 -0.10565209 0.018942865 0.11372126 0.19394074 -0.044525232
0.004349515 -0.043942567 -0.14832805 -0.09080558 0.06412295 0.025413712 -0.10058926 -0.08768472
0.056398146 0.0061529577 -0.12730974 -0.015057727 -0.056024216 0.13124518 -0.024546262 -0.13897938
-0.035998385 -0.06687497 0.0054098023 0.046015754 -0.0953736 0.05824672 -0.070336014 0.080929294
-0.016794674 0.06820001 0.023564903 0.05573964 -0.07755696 -0.10639009 0.046683334 -0.07099847
0.043375682 -0.06067554 -0.055417713 -0.0076007135 0.14450316 0.042541437 -0.0902032 0.011094258
0.08775451 -0.11771902 0.0035233335 0.057596277 0.049956273 0.06755686 -0.15011396 0.13999438
-0.035198875 0.1273407 0.023209319 0.047648635 0.11947614 -0.122479565 0.08155413 -0.07448136
0.040043123 -0.041996475 -0.028452909 -0.13528912 -0.009977175 -0.04190901 -0.13788885 -0.119956404
-0.10887723 -0.066164725 -0.070774846 0.14659323 0.022748152 -0.04662711 0.012390834 -0.10588826
-0.074498534 0.009766314 -0.0064101275 0.10453845 -0.19597743 0.048917875 -0.046208438 0.109631196
-0.028693225 -0.013866734 0.12377972 -0.1173996 -0.08186296 -0.096002154 -0.031430904 -0.024955308
-0.050476786 0.131285 0.050195154 -0.08974839 -0.0007642292 -0.1639635 0.08213337 0.033971682
-0.043486454 0.022431323 0.03077185 -0.13297167 -0.096498735 0.060665317 -0.14319031 0.029525794
-0.016894422 -0.10773509 -0.029892618 0.030511541 -0.0074167126 0.07413451 -0.06287136 -0.035538573
0.07181594 0.05240563 -0.032404546 -0.02276165 0.010534001 -0.06616101 0.14894706 0.028355066
-0.070242465 -0.01964804 0.053836603 0.13141468 -0.020458221 0.13985367 -0.095169835 -0.19158058
00000000: ad21 e2bc 5d28 2c3d 310e e9bb 8e3e 6c3d
00000010: 8e73 023e 0bb0 7b3d 8a17 183d 99c6 ac3c
00000020: 91a2 443d d293 1bbe b5f3 f13c 17e0 923c
00000030: 663a 013e 1af9 693c 33d7 183c 45af e33d
00000040: cb33 b53d 4a66 24bd 426d 81bd 8f4c f53d
00000050: d476 f0bc f560 d83c 628b 9d3c 90d7 033e
00000060: a4d8 2cbc e1f4 f9bb 5c35 6fbd f351 4a3d
00000070: cf37 8f3d 7e90 423e 6738 47bb 6ca5 213d
00000080: 5a07 34bc b8bf de3c 779f 85bd 5553 8bbd
00000090: 12de ffbd d510 0e3d 2cc4 803d 9ae5 80bc
000000a0: 2980 36bd 6dc2 f63d 039d f0bd 5ffc eabd
000000b0: 90fc a6bd b246 c53d d9c0 533d ba70 7abc
000000c0: 8ed5 5cbd 0f1d 25be 7068 763b 3f9a e03d
000000d0: bf98 c03d 2c01 243e f280 ef3c e2f3 363d
000000e0: d7aa f9bd 3a37 8ebc 2d6a ae3d 28a8 873e
000000f0: 09eb e13d 2317 cfbd e9fa afbd 0929 a23d
00000100: 81d7 803c ebb1 a4bd 185b 8abd 6c15 d53d
00000110: 495a 2c3d 06b6 babd e14f dd3d 4c06 c03d
00000120: c4a2 28bd 583d 3d3d d682 e8bc 86e9 3c3d
00000130: 6dfd 6d3d d8c0 b0bd 00bd 4e3e 9412 483c
00000140: 6450 dcba dcfe e7bc 45e8 613d 251c eb3d
00000150: 8c07 3c3d 2abb 20bd 8517 5fbc 998e a1bc
00000160: c0cb ff3a 59c3 893d 9a76 033d ed9b 82bc
00000170: 8d07 4e3d 4a15 86bb eb2d 72bd 3f7b e9bd
00000180: 244b 373c b5b2 6b3d 394e 0e3d 17fb 363d
00000190: 4ae5 573b 1fc0 993d b7fd 54bd 52dc ffbd
000001a0: f418 29bd 72e0 393c 4d20 03bd 10b3 a13d
000001b0: 184f 1f3c 570c d9bc 912a b93d 13bb ddbd
000001c0: 1c57 b23d 4340 58ba b5f1 26bd b424 3a3d
000001d0: c0f4 a3bd cdd3 c53c 5015 5ebd 5501 ddbd
000001e0: 703d 9a3d 57fa e73d 47a7 d7bc 1f60 d8bd
000001f0: 112e 9b3c b1e6 e83d 6798 463e 1760 36bd
00000200: 6086 8e3b 1ffd 33bd 4fe3 17be 47f8 b9bd
00000210: e552 833d 6b30 d03c be01 cebd 0c94 b3bd
00000220: be01 673d c09e c93b 7c5d 02be afb4 76bc
00000230: a679 65bd 2365 063e 3e15 c9bc 9c50 0ebe
00000240: 0b73 13bd bff5 88bd b644 b13b 047b 3c3d
00000250: 3c53 c3bd 1d94 6e3d 540c 90bd 42be a53d
00000260: fc94 89bc 72ac 8b3d 2f0b c13c 404f 643d
00000270: 2fd6 9ebd 0ce3 d9bd 0637 3f3d a567 91bd
00000280: b3aa 313d ea86 78bd affd 62bd 680f f9bb
00000290: a3f8 133e ee3f 2e3d 75bc b8bd b1c4 353c
000002a0: a3b8 b33d ab16 f1bd bae7 663b 13ea 6b3d
000002b0: f39e 4c3d 405b 8a3d 79b7 19be b05a 0f3e
000002c0: b22c 10bd 9a65 023e 7821 be3c 372b 433d
000002d0: e8af f43d 91d6 fabd da05 a73d af89 98bd
000002e0: 4204 243d 7f04 2cbd 1316 e9bc 3b89 0abe
000002f0: 4e77 23bc c8a8 2bbd bc32 0dbe b4ab f5bd
00000300: 06fb debd 5f81 87bd 67f2 90bd 891c 163e
00000310: 555a ba3c 12fc 3ebd ed02 4b3c f2db d8bd
00000320: b092 98bd e402 203c 0c0c d2bb 4118 d63d
00000330: 4fae 48be 1c5e 483d 0f45 3dbd 5286 e03d
00000340: 0e0e ebbc 4c31 63bc 3980 fd3d 346f f0bd
00000350: c4a7 a7bd c79c c4bd b1bd 00bd 136f ccbc
00000360: bfc0 4ebd 936f 063e 6f99 4d3d 01ce b7bd
00000370: 8e56 48ba 0ce6 27be 8a35 a83d e425 0b3d
00000380: da1e 32bd e5c1 b73c 3f15 fc3c ba29 08be
00000390: 21a1 c5bd 327c 783d 7ba0 12be 14e0 f13c
000003a0: 2c66 8abc 37a4 dcbd 5de1 f4bc 57f3 f93c
000003b0: e507 f3bb d5d3 973d b3c2 80bd e590 11bd
000003c0: 3c14 933d 49a7 563d a1ba 04bd a476 babc
000003d0: cd96 2c3c 6c7f 87bd 9485 183e e248 e83c
000003e0: 48db 8fbd edf4 a0bc c583 5c3d 9291 063e
000003f0: 0098 a7bc cd35 0f3e 67e8 c2bd b32d 44be

network_body._body_endoder.seq_layers.2.bias f4 [128]
-0.005911563 0.0028946917 0.0015089533 0.003187376 -0.0057410616 0.0021067578 -0.010824213 -0.0027675966
-0.0015297094 -0.0007502106 -0.0070318105 0.011957858 -0.003959493 -0.001529345 0.0039963922 -0.007363909
-0.0039947177 -0.004730866 0.0012689438 0.0025620922 0.004491519 0.0036234667 -0.005873626 -0.006648156
0.016333882 -0.0019581774 0.004747356 -0.008338451 -0.00189459 0.0053519583 0.0013421912 -0.007286817
0.0020458181 -0.006630515 -0.008106445 0.004312752 -0.0076835738 0.00069956685 0.0005986472 -0.003474526
0.005810839 0.0020198647 -0.0058173374 -0.00026909966 0.0061663534 0.015484044 0.0023077573 0.00082998467
-0.004494631 -0.000227776 0.0038982912 -0.003176917 0.00039842344 -0.0068886937 0.006372857 -0.0041374485
-0.0016491712 0.0031834417 -0.0039709453 0.0015520311 0.0057110107 -0.019063814 -0.0019980238 -0.002899684
-0.0069121155 0.008251709 -0.0025230795 -0.0038985529 0.0058100168 0.0022499913 0.0019508501 0.0029789382
-0.005785141 0.0017302259 -0.0036294677 -0.0058093606 0.0041661626 0.013345794 0.0022845003 -0.001843757
0.002715602 -0.00022087531 -0.0048531005 0.004920231 -0.00016643472 0.0028437427 -0.0040842113 -0.0047631436
0.0066220025 -0.0068067997 0.0039221793 0.0020717292 -0.0058658617 -0.004870547 0.005452009 -0.0040724673
-0.0011038485 -0.010269684 0.0018190343 0.0022491866 -0.008923826 -0.0062677613 0.0048205866 0.0013425321
0.001384448 0.002387026 0.0022496863 0.002348588 -0.0038398057 0.0010950956 -0.004556525 -0.005071995
-0.0028692847 -0.00030543475 0.008467506 0.00994627 -0.008137491 0.0038832542 0.0017064393 -0.00068106246
-0.011622559 -0.005704763 -0.0013524152 -0.0032315892 -0.0072039324 0.005909631 0.0013900531 -0.0011725716
00000000: c9b5 c1bb deb4 3d3b 12c8 c53a 4ce3 503b
00000010: 841f bcbb 8811 0a3b 0a58 31bc 9160 35bb
00000020: 8880 c8ba c8a9 44ba 1a6b e6bb e4ea 433c
00000030: a2be 81bb 4e74 c8ba 2bf4 823b f24c f1bb
00000040: 1fe6 82bb 6105 9bbb b052 a63a c6e8 273b
00000050: 982d 933b af77 6d3b 8c77 c0bb c6d8 d9bb
00000060: a2ce 853c c454 00bb b58f 9b3b 009e 08bc
00000070: e453 f8ba 7b5f af3b 77ec af3a 40c6 eebb
00000080: 2213 063b cb44 d9bb e5d0 04bc fc51 8d3b
00000090: 7dc6 fbbb 2363 373a 89ee 1c3a e0b4 63bb
000000a0: da68 be3b b55f 043b 5d9f bebb f215 8db9
000000b0: 1f0f ca3b cab0 7d3c be3d 173b 5493 593a
000000c0: b347 93bb 28d7 6eb9 797a 7f3b d333 50bb
000000d0: 7de3 d039 8dba e1bb 66d3 d03b 6f93 87bb
000000e0: 0129 d8ba 4aa1 503b b41e 82bb 866d cb3a
000000f0: 6e23 bb3b b72b 9cbc 47f1 02bb a008 3ebb
00000100: 077f e2bb 2d32 073c 405a 25bb dd7e 7fbb
00000110: f461 be3b 9774 133b abb3 ff3a 4a3a 433b
00000120: 4891 bdbb bfc8 e23a 5ddc 6dbb 735c bebb
00000130: 4e84 883b 51a8 5a3c 8eb7 153b 38aa f1ba
00000140: 3ef8 313b c49a 67b9 c206 9fbb e439 a13b
00000150: fb84 2eb9 165e 3a3b d9d4 85bb 2514 9cbb
00000160: 62fd d83b 930b dfbb a085 803b d9c5 073b
00000170: 6a36 c0bb 1c99 9fbb c4a6 b23b 5572 85bb
00000180: 02af 90ba 2d42 28bc aa6c ee3a 1767 133b
00000190: 3d35 12bc cb61 cdbb 03f6 9d3b e7f7 af3a
000001a0: 5e76 b53a a76f 1c3b 796f 133b c5ea 193b
000001b0: 40a5 7bbb 5089 8f3a e74e 95bb fa32 a6bb
000001c0: 9c0a 3cbb c222 a0b9 4bbb 0a3c aef5 223c
000001d0: 1c53 05bc 327e 7e3b 9aaa df3a 5489 32ba
000001e0: 8c6c 3ebc 05ef babb 8643 b1ba 12c9 53bb
000001f0: f70e ecbb 94a5 c13b 7132 b63a f9b0 99ba

action_model._continuous_distribution.log_sigma f4 [1, 2]
-0.006172038 -0.020073358
00000000: cf3e cabb e270 a4bc

action_model._continuous_distribution.mu.weight f4 [2, 128]
-0.0061893757 -0.02606528 -0.016664637 -0.017984413 -0.025739517 0.010176815 0.006925303 -0.007484472
0.0025149279 -0.03680965 0.0017869686 -0.05314833 -0.010626114 -0.010694881 0.016831677 0.012575253
0.011113548 0.010693288 -0.0059163696 0.000345051 0.0057261623 0.022210183 -0.0023077405 -0.0059145615
-0.0034240796 -0.009634758 0.019411925 0.017349 -0.043932945 0.02869056 0.021308623 -0.0041681346
0.011269021 -0.005422119 0.003387816 0.039750878 -0.0073542316 -0.012607299 -0.00017281415 -0.012972177
0.02415315 0.020325039 -0.011736691 0.0014773192 0.009218571 0.03311908 -0.015110239 0.014761932
-0.01253224 0.008818567 -0.009792325 0.0035610057 -0.016113853 -0.0073396685 0.022963839 -0.016296498
-0.014053051 0.008531095 0.0015618104 -0.03296639 0.015316441 0.00024996937 0.014797327 -0.010932619
-0.0006957452 0.030789217 -0.00793541 -0.008677619 -0.014894858 -0.039423577 -0.023259038 -0.023098923
-0.017877169 -0.020567406 -0.019959971 -0.03117881 0.007695742 -0.025303802 0.014957199 0.0015118979
0.0005410982 0.04333736 0.001500766 -0.024848323 0.03780297 0.006051372 -0.0528696 -0.031141473
0.030566925 -0.029927623 0.023251276 0.028174018 0.018213704 -0.0023905623 0.033264805 0.000498736
0.010054749 -0.013079162 0.005653928 0.0034663726 0.00038562733 -0.0026402308 0.043858856 -0.015433834
0.020970076 0.0076086917 -0.013042653 0.008489146 -0.036608465 0.011929615 -0.0032223107 -0.006980461
-0.01881764 0.021131977 -0.018211162 -0.019136924 -0.02284392 0.05543978 0.0025727756 0.037274536
-0.0007420087 0.015128344 -0.009392696 -0.031004382 -0.00013427733 0.019274933 -0.011073907 0.0032644633
-0.015766168 0.0039666984 -0.01142936 0.014253217 -0.0074158204 0.0195994 0.000988409 0.0070057972
-0.018144937 0.0073082726 0.016701885 0.00043753316 -0.0041602436 -0.0048829434 0.001658725 -0.00212178
-0.006115151 0.007248493 0.027971268 0.03643023 0.024910571 0.005222779 0.0025413837 -0.0045841406
-0.0424113 -0.02933779 -0.00077367295 0.032315332 0.0032068794 0.0005741126 -0.028976826 -0.004637498
-0.01588839 -0.008074769 0.010391173 0.030875498 -0.010712598 0.010859544 0.004901496 0.030541169
0.0016359532 -0.0045276713 -0.0044050287 -0.032043718 0.030188475 0.0019588796 -0.008623344 0.00036679624
0.007825022 -0.0032959809 0.022731345 -0.01937825 0.034844793 -0.0055038454 -0.0043162466 0.02733138
-0.028970342 0.0019435111 -0.011052351 -0.030552123 0.011797017 5.2379866e-05 0.0017491188 0.0048472052
0.014805958 -0.05559017 -0.0039377236 -0.013949081 0.023548951 -0.0033906791 -0.0045129424 0.0060630445
-0.019074624 0.0012226911 0.011118321 -0.040337447 -0.013201861 -0.015142605 -0.0027731936 -0.044309434
0.03232182 -0.01615274 0.0137008205 -0.021205138 0.034253772 0.030783229 0.0029861673 0.012730461
-0.026808003 -0.0020135958 -0.010699212 -0.019574225 -0.00800979 0.007532359 0.023748813 -0.0016734649
-0.017734827 -0.014755115 0.0009362377 0.010264173 0.005130432 -0.013619407 -0.0002880105 -0.027128983
-0.011776649 0.00459123 0.01416879 -0.0013941835 -0.003902722 -0.010615325 0.0022642827 -0.00804683
0.0006660748 -0.00311069 -0.013205134 -0.008638455 -0.011033939 -0.002365781 0.0013288746 0.03499698
0.0018393006 -0.009625326 0.011137326 -0.01762683 -0.0032527023 -0.028798958 0.014381041 0.00729937
00000000: 3fd0 cabb db86 d5bc 4784 88bc 0c54 93bc
00000010: aedb d2bc a8bc 263c a7ed e23b 4d40 f5bb
00000020: 7dd1 243b b7c5 16bd b738 ea3a 10b2 59bd
00000030: 2719 2ebc 9539 2fbc 96e2 893c 6f08 4e3c
00000040: 9915 363c e732 2f3c 1bde c1bb f6e7 b439
00000050: 88a2 bb3b 21f2 b53c 763d 17bb f0ce c1bb
00000060: 8666 60bb 1bdb 1dbc c205 9f3c 7d1f 8e3c
00000070: 08f3 33bd 7708 eb3c 6c8f ae3c d994 88bb
00000080: b3a1 383c 08ac b1bb 1f06 5e3b d1d1 223d
00000090: c4fb f0bb d88e 4ebc 7235 35b9 4189 54bc
000000a0: d4dc c53c b280 a63c 404b 40bc 9ba2 c13a
000000b0: 7d09 173c dfa7 073d f090 77bc 08dc 713c
000000c0: 0654 4dbc c07b 103c fd6f 20bc c35f 693b
000000d0: 3301 84bc 9a81 f0bb a91e bc3c 3c80 85bc
000000e0: c53e 66bc 02c6 0b3c a9b5 cc3a c407 07bd
000000f0: cff1 7a3c 520e 8339 7d70 723c ba1e 33bc
00000100: ac62 36ba ab39 fc3c 8603 02bc 922c 0ebc
00000110: 9009 74bc 9e7a 21bd bd89 bebc f439 bdbc
00000120: 2473 92bc fa7c a8bc 1883 a3bc b46a ffbc
00000130: 902c fc3b eb49 cfbc 0a0f 753c e02a c63a
00000140: 7cd8 0d3a 8482 313d 5ab5 c43a b68e cbbc
00000150: 49d7 1a3d 964a c63b cb8d 58bd 671c ffbc
00000160: 7d67 fa3c c62a f5bc 7679 be3c 33cd e63c
00000170: e834 953c fbaa 1cbb ad40 083d 9bbd 023a
00000180: adbc 243c fb49 56bc 9644 b93b 152c 633b
00000190: 062e ca39 b907 2dbb 58a5 333d 31de 7cbc
000001a0: 70c9 ab3c 5552 f93b dab0 55bc 0f16 0b3c
000001b0: c2f2 15bd 6f74 433c 672d 53bb 5abc e4bb
000001c0: 7427 9abc f81c ad3c 932f 95bc 0ac5 9cbc
000001d0: 2c23 bbbc d314 633d 039c 283b 2fad 183d
000001e0: 5c83 42ba e0dc 773c d3e3 19bc e7fc fdbc
000001f0: cccc 0cb9 77e6 9d3c 556f 35bc 9bf0 553b
00000200: 0d28 81bc 14fb 813b 3642 3bbc 5386 693c
00000210: 6900 f3bb ec8e a03c 818d 813a e390 e53b
00000220: b1a4 94bc 3c7a ef3b 64d2 883c b564 e539
00000230: a752 88bb 1901 a0bb 9369 d93a 900d 0bbb
00000240: 9b61 c8bb c484 ed3b 0024 e53c dd37 153d
00000250: 4111 cc3c d823 ab3b 588d 263b 8f36 96bb
00000260: 79b7 2dbd ce55 f0bc 50d0 4aba 155d 043d
00000270: 822a 523b 0b80 163a cf60 edbc 27f6 97bb
00000280: 5e28 82bc 094c 04bc bd3f 2a3c 9dee fc3c
00000290: e583 2fbc 3bec 313c bb9c a03b 7931 fa3c
000002a0: 7b6d d63a dc5c 94bb 0f58 90bb 4640 03bd
000002b0: d24d f73c 8c60 003b ed48 0dbc 8f4e c039
000002c0: 8534 003c 6201 58bb 1637 ba3c 23bf 9ebc
000002d0: 6ab9 0e3d 9a59 b4bb 4d6f 8dbb 0fe6 df3c
000002e0: 3653 edbc 69bd fe3a ec14 35bc 7248 fabc
000002f0: 4748 413c 74b2 5b38 b042 e53a 4ed5 9e3b
00000300: b094 723c 85b2 63bd 0508 81bb b08a 64bc
00000310: bbe9 c03c 2836 5ebb 4ee1 93bb 81ac c63b
00000320: 6342 9cbc b542 a03a 9e29 363c e138 25bd
00000330: 9e4c 58bc b018 78bc 78be 35bb cf7d 35bd
00000340: e263 043d c052 84bc 6879 603c 66b6 adbc
00000350: af4d 0c3d 1c2d fc3c 93b3 433b 6c93 503c
00000360: 759c dbbc 88f6 03bb bf4b 2fbc 205a a0bc
00000370: 7f3b 03bc 02d2 f63b df8c c23c 2a58 dbba
00000380: a148 91bc 70bf 71bc d96d 753a 102b 283c
00000390: 2f1d a83b ef23 5fbc 1d00 97b9 9a3d debc
000003a0: d9f2 40bc 0772 963b 3624 683c 09bd b6ba
000003b0: cfc4 7fbb e6eb 2dbc 5c64 143b dad6 03bc
000003c0: 869b 2e3a b8dc 4bbb 595a 58bc 4e88 0dbc
000003d0: b2c7 34bc 380b 1bbb a22d ae3a fe58 0f3d
000003e0: b014 f13a 8bb3 1dbc 5579 363c 2466 90bc
000003f0: 4a2b 55bb cbeb ebbc 759e 6b3c 8e2f ef3b

action_model._continuous_distribution.mu.bias f4 [2]
0.0045638597 0.0033934137
00000000: 6e8c 953b 0964 5e3b

action_model._discrete_distribution.branches.0.weight f4 [1, 128]
0.013385259 0.014994337 0.0028079073 0.0018784398 0.008062053 -0.005190735 0.004302095 -0.0220002
-0.008425045 0.013955674 -0.017122421 0.007989758 0.016717754 -0.0038050325 0.002589521 -0.0049083414
0.0039956537 -0.012621452 -0.00052090833 0.0027692167 0.002282368 -0.021849684 0.008014591 0.012465736
0.0074663744 -0.0047267065 -0.00082448137 -0.016288888 -0.00722164 -0.0048246654 -0.0150385825 0.006483278
-0.009163715 -0.004741074 -0.00026949856 0.021384487 -0.0019254193 0.008711637 0.013311356 -0.0046377433
-0.004443537 -0.023613695 0.016831106 0.0065970914 -0.0016740045 0.005495302 -0.007670904 0.002859101
0.018269258 -0.018103786 0.0031398162 0.013547219 0.009236332 -0.00037286084 0.0053290087 -0.0072080526
0.00479166 -0.005925612 0.014431282 0.0052660196 -0.0107459435 0.007625936 0.013693015 0.0011746024
0.006862043 -0.0068415077 0.0030424136 -0.0068477034 -0.0010974559 -0.0001045179 -0.00059049606 0.007789059
0.0012146943 0.013161552 0.0048260665 0.0070016496 -0.0037824877 -0.006655898 -0.0018901086 0.006718573
0.008727677 0.0019061615 0.0027980683 0.0011227852 -0.014324243 -0.009120326 0.0029833387 0.005915241
-0.003018219 0.017478362 0.0031028416 -0.021051694 -0.009685237 -0.006040745 0.013118555 -0.0011239522
-0.0069848225 -0.006661231 -0.0012173094 -0.017063187 -0.0051698037 -0.009752929 0.003841192 0.007856428
0.015546041 0.0007853005 0.0030310976 -0.0014608017 0.010976993 0.0012398659 -0.0056718397 -0.0019355767
0.010131862 0.021797119 0.004550704 -0.0037056468 -0.0015454425 0.0060987575 -0.00766582 0.014137082
-0.0021016584 -0.008516314 -0.0013308711 0.00043277713 -0.016880555 -0.0047781332 -0.0014313441 0.007756757
00000000: d84d 5b3c cfaa 753c de04 383b fb35 f63a
00000010: b316 043c 0b17 aabb 97f8 8c3b c339 b4bc
00000020: 3309 0abc 57a6 643c 5244 8cbc 79e7 023c
00000030: acf3 883c da5d 79bb f4b4 293b 27d6 a0bb
00000040: f9ed 823b 35ca 4ebc 918d 08ba bf7b 353b
00000050: c893 153b 1cfe b2bc a24f 033c 163d 4c3c
00000060: 7da8 f43b 7de2 9abb 0222 58ba 4670 85bc
00000070: 82a3 ecbb 3a18 9ebb 6364 76bc ad71 d43b
00000080: 6823 16bc 035b 9bbb 7c4b 8db9 852e af3c
00000090: 5a5e fcba 41bb 0e3c e017 5a3c 36f8 97bb
000000a0: 179b 91bb 8271 c1bc 63e1 893c 6a2c d83b
000000b0: 456a dbba ef11 b43b 355c fbbb c15f 3b3b
000000c0: 69a9 953c 644e 94bc 60c5 4d3b 28f5 5d3c
000000d0: fc53 173c 897c c3b9 f79e ae3b 8731 ecbb
000000e0: 5b03 9d3b a32b c2bb 2f71 6c3c 938e ac3b
000000f0: c10f 30bc fde2 f93b ab58 603c 1ef5 993a
00000100: fdda e03b ba2e e0bb 3b63 473b b362 e0bb
00000110: 82d8 8fba 9f30 dbb8 85cb 1aba 5d3b ff3b
00000120: 6136 9f3a 8da3 573c fb23 9e3b 186e e53b
00000130: 9de3 77bb b819 dabb 85bd f7ba 7a27 dc3b
00000140: 88fe 0e3c 2bd8 f93a cc5f 373b 6b2a 933a
00000150: 3bb0 6abc 6b6d 15bc 1e84 433b a3d4 c13b
00000160: 50cd 45bb c82e 8f3c 0b59 4b3b 9a74 acbc
00000170: d4ae 1ebc 71f1 c5bb 35ef 563c 9451 93ba
00000180: f0e0 e4bb 7546 dabb 208e 9fba 19c8 8bbc
00000190: 7567 a9bb c0ca 1fbc 82bc 7b3b 3fb8 003c
000001a0: d2b4 7e3c a0dc 4d3a 61a5 463b 5f78 bfba
000001b0: d8d8 333c ff82 a23a d7da b9bb 2db3 fdba
000001c0: 1c00 263c df8f b23c 121e 953b 70da 72bb
000001d0: 7290 caba 16d8 c73b 8f31 fbbb 389f 673c
000001e0: fabb 09bb 0388 0bbc a070 aeba 5de6 e239
000001f0: 1749 8abc e391 9cbb f09b bbba 652c fe3b

exp_avg f4 [128, 19]
7.5330145e-06 1.0830812e-05 3.380934e-06 8.897034e-06 4.737502e-06 1.6002605e-05 0.0 8.49903e-06
2.8787451e-06 1.6268425e-05 5.0585354e-06 8.307607e-06 1.1131408e-06 1.5973035e-05 0.00023633626 0.00017617096
2.154903e-06 0.0001880564 2.1545917e-05 2.4936232e-06 3.4418343e-07 1.3966454e-06 8.901833e-07 1.5931835e-06
-7.767816e-07 0.0 9.690153e-07 5.2286157e-07 -3.3351962e-06 1.3977649e-06 1.0901063e-06 -3.9810837e-07
-3.5143235e-06 -7.2616334e-05 -1.36967865e-05 -4.3969123e-07 -7.4485244e-05 2.219175e-06 -2.0519255e-06 -6.42339e-06
-7.083064e-07 -4.4795297e-06 -1.3235211e-07 -1.1705605e-05 0.0 -4.0133714e-06 2.4511638e-07 -1.5768586e-05
-1.8233562e-06 -3.8016283e-06 -2.8368743e-07 -1.6061302e-05 -0.0002793851 -0.00013774654 -2.1087328e-06 -0.00025326503
8.500899e-06 4.636662e-06 9.2148375e-06 2.9803348e-06 7.431202e-06 2.3711855e-06 1.4484511e-05 0.0
6.0964026e-06 1.0561014e-06 1.6855654e-05 1.1861036e-06 6.011222e-06 4.032485e-07 1.7187269e-05 0.00033059847
0.0001172965 2.4396631e-06 0.00029564407 0.00153347 6.623833e-08 6.1175945e-07 4.5706483e-07 5.025857e-07
6.9886977e-07 9.2647656e-07 0.0 1.7924349e-07 3.1797777e-07 -1.3638278e-06 3.317723e-08 5.8234815e-07
2.0772427e-06 -1.5587227e-06 -3.6422076e-05 8.737807e-06 -2.8477876e-07 -3.621642e-05 -0.00015145587 -4.7773974e-06
1.1730781e-05 -2.213487e-06 6.882039e-06 -6.7514798e-06 2.7584141e-05 0.0 6.1256187e-06 -2.2091772e-06
4.399593e-05 -9.3776794e-07 4.4783956e-06 -2.0167079e-07 4.667787e-05 0.0008040461 0.00030653967 6.750585e-06
0.00073510397 0.0051437765 3.9470936e-07 1.9518495e-07 1.9779267e-07 2.328083e-07 3.112376e-07 6.7034875e-08
0.0 2.1954007e-07 2.3693715e-07 -3.2683687e-07 7.867044e-08 2.2883255e-07 8.525801e-08 -3.8887111e-07
-1.0682177e-05 -3.2200844e-06 -4.7389797e-08 -1.1928506e-05 5.4865154e-07 1.6853371e-06 2.3008981e-06 1.835874e-06
2.1455483e-06 1.8004336e-06 2.8708344e-06 0.0 1.8580936e-06 6.850979e-08 3.0841547e-06 -2.6888564e-08
2.2690226e-06 6.8447105e-07 3.826069e-06 6.3791517e-06 -9.972033e-06 3.0608592e-07 -1.6273067e-06 0.00011380318
-4.3200257e-06 -1.7716093e-07 -3.342252e-06 -9.638368e-07 -4.8354577e-06 3.954886e-06 0.0 -4.2058946e-07
-2.851291e-07 9.245958e-06 -9.950614e-07 -1.5159524e-06 1.9158663e-06 1.0541831e-05 0.00013084603 6.956391e-05
1.6939856e-06 0.000114110924 0.0024651026 7.450383e-07 3.4432035e-06 7.984294e-07 2.5409445e-06 7.649884e-07
6.163579e-06 0.0 1.9469273e-06 -9.47851e-08 8.860537e-06 7.188123e-08 1.9364845e-06 1.2910547e-06
8.812411e-06 0.00015736512 4.6703295e-05 1.1552986e-06 0.00014418372 6.828676e-05 4.192454e-06 -1.3194283e-05
4.072419e-06 -7.91518e-06 6.086654e-06 -3.004614e-05 0.0 -6.780263e-06 -1.4843033e-06 -4.3983207e-05
1.5680738e-06 -5.448857e-06 -3.8830085e-06 -4.6430403e-05 -0.000776896 -0.00034825038 -6.725183e-06 -0.0007019738
-0.0056725936 -4.6611154e-07 -5.9454715e-07 -1.1671765e-06 -3.873808e-07 -4.0099967e-06 1.7498792e-06 0.0
5.3824e-07 -3.0587466e-06 9.643317e-06 1.962046e-06 -1.0944698e-06 -3.4360892e-06 1.1002196e-05 0.00015381016
4.489268e-05 1.7404136e-06 0.00014061721 0.0011671886 -8.431184e-07 -3.0207211e-06 -1.1943303e-06 -2.4777444e-06
-1.5209309e-06 -4.9575765e-06 0.0 -1.913061e-06 -1.6110968e-07 -7.801573e-06 4.5416775e-07 -2.0613793e-06
-1.2375763e-06 -8.252604e-06 -0.00010289174 -2.8730952e-05 -1.0519982e-06 -9.0389025e-05 -0.000675009 -1.876374e-06
-6.2364898e-06 -1.2624628e-06 -4.5406377e-06 -3.828505e-06 -9.2952905e-06 0.0 -3.0835024e-06 -3.6751928e-06
00000000: 1ac4 fc36 fcb5 3537 01e4 6236 7844 1537
00000010: d5f6 9e36 553d 8637 0000 0000 0e97 0e37
00000020: 7730 4136 2d78 8837 7dbc a936 e660 0b37
00000030: 3a67 9535 d5fd 8537 08d1 7739 88ba 3839
00000040: f49c 1036 0131 4539 81bd b437 1f58 2736
00000050: 36c8 b834 5f74 bb35 eef4 6e35 5ed5 d535
00000060: 0684 50b5 0000 0000 1d0f 8235 c65a 0c35
00000070: 3cd2 5fb6 d69a bb35 c44f 9235 99bb d5b4
00000080: 9ed7 6bb6 9949 98b8 40cb 65b7 b40e ecb4
00000090: f634 9cb8 23ed 1436 d0b3 09b6 8088 d7b6
000000a0: 7222 3eb5 de4e 96b6 ac1c 0eb4 3163 44b7
000000b0: 0000 0000 99aa 86b6 8a98 8334 c846 84b7
000000c0: 0bba f4b5 7a1f 7fb6 b44d 98b4 62bb 86b7
000000d0: 6f7a 92b9 0e70 10b9 c183 0db6 a8c8 84b9
000000e0: 159f 0e37 a094 9b36 6d99 1a37 c301 4836
000000f0: 8a59 f936 a820 1f36 8002 7337 0000 0000
00000100: b38f cc36 5ebf 8d35 3e65 8d37 3632 9f35
00000110: 01b4 c936 0d7e d834 612d 9037 2d54 ad39
00000120: 14fd f538 18b9 2336 ad00 9b39 b7fe c83a
00000130: e83e 8e33 ca37 2435 8362 f534 6de9 0635
00000140: f799 3b35 fcb2 7835 0000 0000 1376 4034
00000150: 88b6 aa34 c40c b7b5 c07e 0e33 a952 1c35
00000160: c266 0b36 4e35 d1b5 e8c3 18b8 9898 1237
00000170: b2e3 98b4 16e7 17b8 20d0 1eb9 884d a0b6
00000180: 52cf 4437 6b8b 14b6 44ec e636 c58a e2b6
00000190: 7e64 e737 0000 0000 aa8a cd36 6041 14b6
000001a0: 4588 3838 ecba 7bb5 2045 9636 d88a 58b4
000001b0: fbc7 4338 9fc6 523a 0fb7 a039 1583 e236
000001c0: feb3 403a 208d a83b 71e8 d334 0894 5134
000001d0: d660 5434 dcf9 7934 2c18 a734 d0f4 8f33
000001e0: 0000 0000 b7ba 6b34 ca68 7e34 1e78 afb4
000001f0: 88f1 a833 03b5 7534 1617 b733 0ac6 d0b4
00000200: 9a37 33b7 a118 58b6 a289 4bb3 8b20 48b7
00000210: 0c47 1335 be33 e235 2169 1a36 2668 f635
00000220: 3dfc 0f36 6da6 f135 8fa8 4036 0000 0000
00000230: 9c63 f935 a81f 9333 60f9 4e36 94f8 e6b2
00000240: 8345 1836 7ebc 3735 af61 8036 7f0c d636
00000250: 8e4d 27b7 2154 a434 d569 dab5 9ea9 ee38
00000260: bdf4 90b6 a039 3eb4 744b 60b6 2e5d 81b5
00000270: 4440 a2b6 36b4 8436 0000 0000 60cd e1b4
00000280: d813 99b4 161f 1b37 0d8e 85b5 ba77 cbb5
00000290: 5592 0036 d2dc 3037 b733 0939 d7e2 9138
000002a0: e75c e335 d64e ef38 8f8d 213b a4fe 4735
000002b0: c911 6736 a753 5635 1885 2a36 9a59 4d35
000002c0: bed0 ce36 0000 0000 f5a7 0236 a98c cbb3
000002d0: b7a7 1437 205d 9a33 8df4 0136 4d48 ad35
000002e0: 04d9 1337 6102 2539 48e3 4338 c20f 9b35
000002f0: 0630 1739 2d35 8f38 e8ac 8c36 045d 5db7
00000300: d0a5 8836 70cb 04b7 f63b cc36 980b fcb7
00000310: 0000 0000 0482 e3b6 4638 c7b5 9c7a 38b8
00000320: 9b76 d235 53d5 b6b6 ca4a 82b6 44be 42b8
00000330: 9ca8 4bba 6095 b6b9 e2a8 e1b6 aa04 38ba
00000340: 2ae1 b9bb e23d fab4 f898 1fb5 e1a7 9cb5
00000350: 36f9 cfb4 9c8d 86b6 64dd ea35 0000 0000
00000360: 927b 1035 de44 4db6 bbc9 2137 b2ab 0336
00000370: b2e5 92b5 9097 66b6 1296 3837 1a48 2139
00000380: 264b 3c38 2898 e935 a572 1339 5afc 983a
00000390: a852 62b5 98b7 4ab6 e04c a0b5 5347 26b6
000003a0: ca22 ccb5 4259 a6b6 0000 0000 2362 00b6
000003b0: 7efd 2cb4 80e3 02b7 57d4 f334 3a56 0ab6
000003c0: cc1a a6b5 aa74 0ab7 95c7 d7b8 4003 f1b7
000003d0: 6232 8db5 3d8f bdb8 16f3 30ba b8d7 fbb5
000003e0: 0a43 d1b6 e471 a9b5 c85b 98b6 9c76 80b6
000003f0: f8f2 1bb7 0000 0000 2bee 4eb6 55a3 76b6

exp_avg_sq f4 [128, 19]
7.948271e-09 8.5978655e-09 7.5532185e-09 8.132641e-09 8.315161e-09 9.731811e-09 0.0 4.713502e-09
8.7342655e-10 1.181893e-08 6.6041433e-10 7.4216797e-09 4.333829e-10 1.4119387e-08 6.9164316e-06 1.075178e-06
2.3282515e-10 5.8168725e-06 7.833395e-08 1.9675969e-10 3.2715394e-10 1.5230764e-10 2.461638e-10 2.4691477e-10
5.348288e-10 0.0 1.7818767e-10 9.022572e-11 1.6100499e-09 2.6485928e-11 4.921434e-10 6.022893e-11
2.0980881e-09 6.517441e-07 9.33838e-08 3.4693547e-11 5.7463774e-07 2.634942e-09 2.0838675e-09 2.3073812e-09
1.9448796e-09 2.1415307e-09 2.2143893e-09 2.740419e-09 0.0 1.2378598e-09 2.3845423e-10 3.2775336e-09
1.6623257e-10 1.8535823e-09 1.5124757e-10 3.6505707e-09 1.6480395e-06 2.8405873e-07 6.1876886e-11 1.358919e-06
2.5312514e-07 4.6376836e-09 5.228311e-09 3.493846e-09 4.6240234e-09 5.157799e-09 5.7891585e-09 0.0
2.6954114e-09 9.568342e-10 6.1827503e-09 3.241784e-10 3.9963983e-09 2.7887256e-10 5.8310947e-09 3.0511392e-06
4.792612e-07 1.0264813e-10 2.4914139e-06 5.3869066e-05 2.096622e-10 3.891582e-10 1.7527531e-10 2.8583774e-10
3.177791e-10 6.244696e-10 0.0 2.1096425e-10 1.2877359e-10 1.2669736e-09 3.233236e-11 3.4465064e-10
1.2266278e-10 1.3565717e-09 3.3358842e-07 7.397461e-08 2.2422515e-11 2.6456217e-07 1.3797142e-05 5.5377675e-10
1.601149e-09 4.0265172e-10 9.821615e-10 9.2404473e-10 3.731905e-09 0.0 7.4523154e-10 5.1867466e-10
1.0716929e-08 7.496173e-11 1.2857232e-09 4.4572154e-10 1.1475485e-08 2.9293217e-06 5.3416125e-07 2.04625e-10
2.433761e-06 0.0001196808 9.932813e-12 1.5355288e-11 8.806476e-12 1.2088417e-11 1.3239091e-11 2.530411e-11
0.0 8.058628e-12 5.6053526e-12 5.7429294e-11 2.043047e-12 1.5550535e-11 3.640442e-12 6.646376e-11
1.8107642e-08 3.4755427e-09 1.1257242e-12 1.461801e-08 2.1272876e-11 5.075678e-09 5.0472853e-09 5.104432e-09
5.0620503e-09 5.0531934e-09 5.036715e-09 0.0 2.8359182e-09 2.476713e-10 3.7693844e-09 4.8649024e-10
4.060333e-09 4.783233e-11 4.3226134e-09 2.3780092e-06 6.309121e-07 5.980753e-11 1.9684678e-06 2.1879297e-05
7.543666e-09 8.222757e-09 6.8190285e-09 7.703876e-09 7.989853e-09 9.255128e-09 0.0 4.485492e-09
7.1748446e-10 1.0799125e-08 5.4753047e-10 6.6344845e-09 3.102049e-10 1.1581961e-08 5.3135773e-06 7.9157144e-07
1.9207837e-10 4.4605927e-06 8.219756e-05 1.2674986e-08 1.2695355e-08 1.2628653e-08 1.2672331e-08 1.2669156e-08
1.274646e-08 0.0 7.0563835e-09 2.301942e-10 8.981312e-09 9.1005e-10 1.0088779e-08 7.939672e-11
1.0710835e-08 7.43688e-06 1.3848461e-06 1.629546e-10 6.1584205e-06 1.3620264e-05 1.974996e-08 2.327259e-08
1.5279632e-08 2.0295225e-08 2.218121e-08 2.7836553e-08 0.0 1.2284557e-08 4.3218544e-09 3.8460385e-08
1.3944675e-09 1.8517786e-08 1.581209e-09 3.8650658e-08 1.5998472e-05 2.5466716e-06 6.7434364e-10 1.311596e-05
0.0003782682 1.207001e-08 1.3478119e-08 9.425635e-09 1.2190652e-08 1.3067495e-08 1.4871247e-08 0.0
6.9812973e-09 1.640148e-09 1.6764373e-08 6.147007e-10 1.0869607e-08 5.174273e-10 1.6896092e-08 8.867306e-06
1.1712377e-06 2.859463e-10 7.322129e-06 0.00014335023 1.17333565e-08 1.1784828e-08 1.1825426e-08 1.1782826e-08
1.1727929e-08 1.1863697e-08 0.0 6.6285724e-09 3.2439865e-10 8.841623e-09 1.0722156e-09 9.51953e-09
7.825058e-11 1.0476663e-08 6.850251e-06 1.5087371e-06 1.5711818e-10 5.593587e-06 2.5706318e-05 1.5986668e-08
1.819415e-08 1.2368069e-08 1.6308176e-08 1.772734e-08 2.0112793e-08 0.0 9.586729e-09 2.4823328e-09
00000000: de8c 0832 d0b5 1332 68c3 0132 bcb7 0b32
00000010: 77da 0e32 f530 2732 0000 0000 67f4 a131
00000020: ee15 7030 340c 4b32 8788 3530 c901 ff31
00000030: 3941 ee2f b991 7232 b213 e836 d64e 9035
00000040: 74fe 7f2f 8e2e c336 8b38 a833 ee56 582f
00000050: d3da b32f ca76 272f 7a54 872f 2abe 872f
00000060: 3b03 1330 0000 0000 5feb 432f 9168 c62e
00000070: 9848 dd30 02f9 e82d 8347 0730 e071 842e
00000080: f52d 1031 83f3 2e35 498a c833 7695 182e
00000090: ce40 1a35 6412 3531 c933 0f31 e18f 1e31
000000a0: afa6 0531 352a 1331 f32b 1831 f651 3c31
000000b0: 0000 0000 5221 aa30 7317 832f fb3a 6131
000000c0: 4fc6 362f 21c1 fe30 684c 262f 85dd 7a31
000000d0: 3532 dd35 bc80 9834 9711 882e 1a64 b635
000000e0: 41e5 8734 7f59 9f31 b6a4 b331 6418 7031
000000f0: 57e1 9e31 7b38 b131 fae9 c631 0000 0000
00000100: 2e3a 3931 9c81 8330 0c70 d431 0e38 b22f
00000110: b150 8931 d34f 992f da5a c831 2cc2 4c36
00000120: 94a6 0035 c3b9 e12e 2a32 2736 78f1 6138
00000130: aa86 662f 26f1 d52f 9db7 402f 1624 9d2f
00000140: 6fb3 ae2f 24a7 2b30 0000 0000 28f5 672f
00000150: 8b96 0d2f ac21 ae30 0033 0e2e 4479 bd2f
00000160: 81de 062f 2072 ba30 0b18 b334 f9db 9e33
00000170: 043b c52d 2609 8e34 467a 6737 9338 1830
00000180: 6c0f dc30 315c dd2f bcfc 8630 deff 7d30
00000190: 2f3a 8031 0000 0000 02d9 4c30 7c92 0e30
000001a0: 8d1d 3832 b4d7 a42e 5db5 b030 bb09 f52f
000001b0: b725 4532 5d95 4436 4863 0f35 d1fc 602f
000001c0: b253 2336 24fd fa38 6abd 2e2d 0911 872d
000001d0: d8ec 1a2d 64a9 542d 91e7 682d ca93 de2d
000001e0: 0000 0000 d6c4 0d2d 8738 c52c a393 7c2e
000001f0: 43c4 0f2c b1c8 882d 3016 802c c527 922e
00000200: 208b 9b32 65d6 6e31 7d6e 9e2b b022 7b32
00000210: 421e bb2d 2366 ae31 646c ad31 0f63 af31
00000220: 44ee ad31 5ca0 ad31 6a0f ad31 0000 0000
00000230: 00e2 4231 a328 882f db83 8131 b5b9 0530
00000240: 1183 8b31 6a5e 522e 1c86 9431 e395 1f36
00000250: f35b 2935 a584 832e 051a 0436 6f89 b737
00000260: 6599 0132 1144 0d32 cf4c ea31 015a 0432
00000270: bf43 0932 7c00 1f32 0000 0000 ce1e 9a31
00000280: 7b38 4530 0e87 3932 0881 1630 8bf5 e331
00000290: 7589 aa2f 01fa 4632 484b b236 607c 5435
000002a0: 4131 532f 33ac 9536 7b61 ac38 2ec1 5932
000002b0: c31a 5a32 67f5 5832 80b5 5932 8aa7 5932
000002c0: 86fb 5a32 0000 0000 9b74 f231 e819 7d2f
000002d0: 3a4c 1a32 1327 7a30 eb52 2d32 6198 ae2e
000002e0: c002 3832 508a f936 f3de b935 a42b 332f
000002f0: 6ea4 ce36 9782 6437 9fa6 a932 f7e8 c732
00000300: 4440 8332 ac55 ae32 ff88 be32 3a1d ef32
00000310: 0000 0000 0e0c 5332 6f7f 9431 a42f 2533
00000320: 77a7 bf30 0b11 9f32 d951 d930 d900 2633
00000330: 7534 8637 7ce7 2a36 b75c 3930 9f0c 5c37
00000340: 4c52 c639 775c 4f32 658d 6732 62ee 2132
00000350: 0e6f 5132 737f 6032 707c 7f32 0000 0000
00000360: 24e0 ef31 946b e130 3f01 9032 b7f7 2830
00000370: 0abd 3a32 b63a 0e30 e622 9132 cac4 1437
00000380: 6c33 9d35 5d33 9d2f 9cb0 f536 4950 1639
00000390: d993 4932 3976 4a32 c628 4b32 6b6d 4a32
000003a0: fa7b 4932 17d1 4b32 0000 0000 8ac1 e331
000003b0: 0d57 b22f dfe5 1732 3c5d 9330 568b 2332
000003c0: 2913 ac2e dafc 3332 35db e536 d07f ca35
000003d0: d6c0 2c2f 8cb0 bb36 e6a3 d737 0e53 8932
000003e0: 5c49 9c32 587b 5432 0f16 8c32 d546 9832
000003f0: 80c4 ac32 0000 0000 e1b2 2432 a995 2a31

exp_avg f4 [128]
1.9169496e-05 -3.981423e-06 -1.8861174e-05 2.21232e-05 -2.511214e-06 6.021585e-05 -4.3426994e-07 3.0641102e-06
1.521421e-05 1.0317407e-05 -6.042282e-05 1.5813477e-05 -9.579818e-06 -3.1976128e-06 -1.8628134e-07 -4.7815965e-06
-2.2608465e-05 -8.8508295e-07 1.8448122e-06 6.203576e-07 1.3256445e-06 2.9623002e-06 1.642411e-08 2.7866201e-05
-4.641349e-06 1.7413646e-05 -1.1042268e-05 5.2323458e-08 -2.2232146e-06 -8.578448e-06 1.6553307e-05 -3.22951e-07
4.113245e-05 1.0409669e-05 -1.5153384e-05 -4.4873595e-06 1.1175293e-06 5.12798e-06 -1.5276607e-06 -1.768875e-05
-3.061177e-05 3.861592e-05 1.5251801e-06 -1.7035756e-05 1.7776416e-05 6.2298586e-06 -1.2774566e-06 5.4261177e-06
-2.9618632e-06 2.0473806e-05 -1.9284184e-06 -1.01818005e-05 3.3532924e-06 1.658512e-06 3.343655e-06 1.14927425e-05
9.855894e-06 5.296496e-07 -2.2643075e-05 8.9336004e-07 -1.84158e-05 3.8013522e-06 -3.8521703e-06 2.475471e-06
-4.0868008e-07 2.1608388e-05 4.760671e-06 -8.1961736e-07 1.0648539e-05 -1.9924548e-05 -3.1525574e-06 1.2488863e-06
-8.025083e-07 -1.3021162e-05 -1.2304029e-08 -1.6213216e-06 -1.7091365e-06 2.2919467e-05 7.764207e-06 3.2564958e-07
1.0508775e-06 7.77048e-06 -5.574733e-06 5.0110373e-08 3.2820399e-06 1.1242262e-06 1.1036738e-05 1.6133215e-07
9.9689405e-06 -4.5490855e-05 7.481578e-06 2.5220761e-05 -1.314441e-05 1.2257697e-06 2.325193e-06 2.3424896e-06
2.1048958e-05 1.13305405e-05 -1.2596281e-05 -8.134681e-06 -4.348787e-07 2.7844958e-06 3.0527687e-07 -1.9643614e-05
9.86289e-06 2.3880404e-05 1.6272514e-05 4.647478e-06 -4.6023415e-06 -2.3479875e-05 -7.4430495e-06 -4.464396e-05
1.3345828e-05 1.3319708e-06 -7.275477e-07 3.820192e-06 -1.5205387e-05 -8.0364025e-06 -9.4965503e-07 3.8955186e-05
3.8720214e-07 -3.746445e-05 -1.0315465e-05 5.5549137e-08 3.1521657e-05 4.9081596e-06 3.3315002e-05 1.6081017e-09
00000000: 2ece a037 2a98 85b6 1038 9eb7 3695 b937
00000010: 5486 28b6 4790 7c38 9b25 e9b4 03a1 4d36
00000020: 8940 7f37 ed18 2d37 826e 7db8 2fa7 8437
00000030: 01b9 20b7 9296 56b6 a004 48b4 9a71 a0b6
00000040: 4fa7 bdb7 7096 6db5 449b f735 a686 2635
00000050: ccec b135 eecb 4636 0015 8d32 36c2 e937
00000060: e2bc 9bb6 8513 9237 2e42 39b7 40ba 6033
00000070: 8932 15b6 27ec 0fb7 f5db 8a37 0c62 adb4
00000080: a285 2c38 30a5 2e37 4a3b 7eb7 2092 96b6
00000090: 04fe 9535 0311 ac36 060a cdb5 4d62 94b7
000000a0: 2365 00b8 87f7 2138 cab4 cc35 02e8 8eb7
000000b0: 901e 9537 140a d136 1375 abb5 ff11 b636
000000c0: 6cc4 46b6 2abf ab37 fa69 01b6 80d2 2ab7
000000d0: 2009 6136 0a9a de35 8e63 6036 f4d0 4037
000000e0: be5a 2537 3e2d 0e35 a2f1 bdb7 3ccf 6f35
000000f0: a17b 9ab7 bc1a 7f36 e441 81b6 4520 2636
00000100: 9068 dbb4 a943 b537 dabd 9f36 ad03 5cb5
00000110: 20a7 3237 a423 a7b7 8690 53b6 689f a735
00000120: f36b 57b5 7775 5ab7 b161 53b2 309c d9b5
00000130: 7c65 e5b5 2e43 c037 0443 0237 f0d4 ae34
00000140: e00b 8d35 f55d 0237 980e bbb6 f038 5733
00000150: 0441 5c36 1ee4 9635 6e2a 3937 a53a 2d34
00000160: 4640 2737 6fcd 3eb8 440a fb36 2c91 d337
00000170: d086 5cb7 2085 a435 830a 1c36 aa33 1d36
00000180: 4b92 b037 4d18 3e37 9d54 53b7 307a 08b7
00000190: 4679 e9b4 46dd 3a36 efe4 a334 57c8 a4b7
000001a0: ca78 2537 c752 c837 f580 8837 88f1 9b36
000001b0: d06d 9ab6 a6f6 c4b7 4fbf f9b6 1640 3bb8
000001c0: e5e7 5f37 2bc6 b235 b24c 43b5 332f 8036
000001d0: a41a 7fb7 16d4 06b7 cceb 7eb5 d063 2338
000001e0: a8e0 cf34 2623 1db8 9610 2db7 ec94 6e33
000001f0: 1f36 0438 c5b0 a436 b6bb 0b38 0c04 dd30

exp_avg_sq f4 [128]
1.8814665e-08 2.8206493e-09 5.002929e-09 8.296563e-09 1.8053935e-09 1.6411015e-08 9.024296e-11 5.087042e-09
1.5728766e-08 1.3333888e-08 5.4406264e-08 2.3177586e-08 1.2822272e-08 3.0160077e-08 1.688984e-09 2.2880633e-10
3.6899863e-08 1.241288e-07 4.0418087e-09 1.9724916e-11 9.950598e-08 5.59248e-11 8.578719e-08 2.0838687e-08
2.8512532e-09 1.2274592e-08 6.564778e-08 5.5698983e-09 8.195422e-08 2.192389e-08 4.8720383e-09 1.819239e-10
5.2920907e-08 2.3654906e-08 2.2574705e-08 2.0510141e-08 4.9437843e-11 1.0037449e-09 2.4597395e-09 1.0797816e-07
8.4794046e-08 8.532187e-08 2.0264077e-10 2.2893644e-08 1.4850399e-09 1.3501006e-09 2.4521172e-11 2.4604887e-09
9.601212e-09 8.104501e-09 1.9861082e-08 9.679929e-09 2.0957033e-08 4.3916294e-11 3.1302755e-10 2.1427327e-08
1.2896787e-08 4.121435e-12 2.3752223e-08 1.6488654e-11 5.498245e-08 4.339303e-09 3.1269731e-09 4.502277e-09
6.1821614e-09 6.2635097e-09 1.076847e-09 8.8424273e-10 6.57427e-08 1.1032475e-08 9.216136e-10 4.963194e-11
2.6124927e-09 4.2693844e-09 9.851766e-14 5.80293e-09 3.9648798e-10 6.6260926e-09 4.945025e-09 3.749405e-12
2.0155776e-11 2.3681286e-08 2.3360304e-08 1.1029313e-10 5.5162708e-08 2.4095006e-11 7.2461432e-09 3.0664547e-13
1.0228149e-08 2.204434e-08 9.350815e-09 6.2768333e-09 1.2763408e-09 1.0856004e-08 3.371578e-08 9.50598e-11
3.8558543e-09 1.6777758e-08 7.963763e-09 2.2608205e-08 3.2421027e-10 6.062491e-08 4.186383e-12 4.659467e-09
4.3224397e-09 1.0250484e-08 8.431931e-09 9.111585e-10 3.7371166e-08 1.825821e-08 1.7128418e-09 8.132218e-08
2.5687272e-09 2.3875209e-11 4.1411226e-09 3.827568e-08 2.463954e-08 4.2191115e-08 2.8760892e-08 3.9179394e-08
2.2050806e-11 5.646518e-08 1.7507897e-08 4.024392e-12 1.18096516e-07 3.4316239e-09 3.5860904e-08 4.871311e-16
00000000: e39d a132 63d5 4131 3be6 ab31 ac88 0e32
00000010: a321 f830 34f8 8c32 4572 c62e 18ca ae31
00000020: ec1b 8732 0f13 6532 52ac 6933 0d18 c732
00000030: f348 5c32 5b89 0133 d721 e830 4293 7b2f
00000040: d47b 1e33 4448 0534 20e0 8a31 9080 ad2d
00000050: feaf d533 baf5 752e 023a b833 c200 b332
00000060: c7ef 4331 3ae0 5232 40fa 8c33 5861 bf31
00000070: cffe af33 2553 bc32 e766 a731 0707 482f
00000080: 274b 6333 b031 cb32 4dea c132 472e b032
00000090: 106e 592e 22f4 8930 3208 2931 9fe1 e733
000000a0: 0518 b633 323a b733 4ece 5e2f a8a7 c432
000000b0: 321a cc30 718e b930 c5b0 d72d 6015 2931
000000c0: 94f2 2432 f93b 0b32 fb9a aa32 c74c 2632
000000d0: 0105 b432 5a25 412e b616 ac2f 310f b832
000000e0: ab90 5d32 9602 912c b107 cc32 2609 912d
000000f0: d825 6c33 ea18 9531 4be2 5631 73b2 9a31
00000100: de6a d431 6a36 d731 2f00 9430 0d0f 7330
00000110: 6e2e 8d33 5789 3d32 cb54 7d30 9948 5a2e
00000120: 7587 3331 e7b1 9231 90d7 dd29 1d63 c731
00000130: b9f8 d92f baab e331 e6e8 a931 a3eb 832c
00000140: c64a b12d b36b cb32 daa9 c832 8389 f22e
00000150: 0aec 6c33 21f1 d32d c0f9 f831 45a0 ac2a
00000160: e0b7 2f32 045c bd32 52a5 2032 9cab d731
00000170: 406b af30 3681 3a32 e4ce 1033 e909 d12e
00000180: 747c 8431 ae1e 9032 00d1 0832 f833 c232
00000190: 8a3c b22f e630 8233 964b 932c 1b19 a031
000001a0: 9584 9431 1b1a 3032 06dc 1032 1475 7a30
000001b0: 0882 2033 3ad6 9c32 4369 eb30 57a3 ae33
000001c0: 8785 3031 3102 d22d b349 8e31 8e64 2433
000001d0: eca6 d332 9f35 3533 df0d f732 3346 2833
000001e0: 00f6 c12d 1f84 7233 4664 9632 8098 8d2c
000001f0: 3f9c fd33 c4d1 6b31 7b05 1a33 ee67 0c26
