results/test/Car_agent/Car_agent-4370.onnx (onnx, 84494 bytes, 7 tensors)

network_body._body_endoder.seq_layers.0.weight f4 [128, 19]
00000000: 4252 e9bc 7fdd 1a3d eae1 acbe 3c5b c3bb
00000010: 410c 843e 6dc4 46be 2351 313b b8db 423e
00000020: 22a4 ab3e 1d2e 07bf cd00 70bd d698 983b
00000030: 57ca f33c 850b 1bbf 51dd 6cbe 7e9e 2dbd
00000040: 0261 6fbe 148c 293d eb5e 71be d01c cebe
00000050: 123f 0a3f 0562 96bc 59b7 6b3d d7ab 963d
00000060: ed77 31be ca9f b2be 9473 3d3d 9514 8ebd
00000070: 4d25 3e3e 8271 ab3e d0ea 253e 09a0 e2be
00000080: 572e f93e 1aed 3e3e 9f55 17bd fbfc 36bd
00000090: 5fb9 6c3e 88bb ef3d 36e0 9d3e 41ae 783d
000000a0: a982 ef3d da00 8cbd d0f7 893d bbba aebc
000000b0: d313 f43d 9d6d 023e 5fdb cabc 94af 503e
000000c0: 8b61 a3bd ebb7 fb3e f642 d0be 5a77 7cbe
000000d0: 82ab 4ebd e624 0f3f 2022 383e dcbd b3be
000000e0: 42c7 75be 3aa2 10be 2f9a 603d 5659 50be
000000f0: 7b12 033e 2d28 873d 22e5 d53d 7b42 50bd
00000100: 7e8e c9be b8c7 2e3e 76ae 02bd 6abe 5d3e
00000110: c66d b73e 8017 3bbe bf96 9cbe 27e0 33bd
00000120: 5daf 063e f971 b6bd f111 203d da88 06bf
00000130: 9ec8 0cbf 03d5 e5bd 8623 253e d9bc 6abe
00000140: 6737 5fbd c0d2 d3be 635b 483e fd62 5d3e
00000150: a268 723d 3e2a 03bf 69d7 913e b8e7 58be
00000160: b5a3 fdbe ede5 a43d cc0d 50be f7a5 4c3e
00000170: b086 ee3e c44a 96bb 8e86 febd 22a2 a2bd
00000180: 3056 9c3e 07cf 6f3e ced8 a73e 830d 9e3d
00000190: ae0e f13d 3c98 f23d f72e 713e d9d6 b93e
000001a0: fabf f93d e0d7 243e 556c 9bbe 4583 2abe
000001b0: 67a5 3bbe 14c9 f2bd 8212 a9be a497 a0bb
000001c0: 9b2b 77be d283 dabe 8bcd 8cbd b03f b33e
000001d0: af71 0a3f 1e9c a13b 77e4 a03d b44e 59be
000001e0: 7232 e83e 8d83 063e aa05 63be ed74 b33e
000001f0: adb3 bf3e 3458 5d3b 6563 bbbd f6dd fe3e
00000200: 23a5 9c3d 5990 1c3e 3cfc 823e 70c5 503e
00000210: 3feb b33e c4ef 14bd 999c b03e 0efd 3cbe
00000220: 04a1 d33e e06b 96be 4312 b33e 4500 cb3d
00000230: 7ab0 8bbd 6faa 94bc 3856 68bd d214 393e
00000240: d207 cd3d 3602 b43d 936d b83e 17ac 653c
00000250: 4321 e0bc 7f6b 95be 0280 8d3e 0a28 783e
00000260: c0b8 043d a435 223f 3cb7 333e bbda d9bd
00000270: 219d 8e3e 8abb 7cbe d467 193e 0f5a 203e
00000280: 5e78 59bc 835f 5d3e 7937 4dbe 2d62 8abe
00000290: 21c3 c83e 9b61 b1be 8b9d adbe 67bb d9be
000002a0: e7ea 9f3e 1de5 4cbe 61da bbbd 133e 46bd
000002b0: a7b9 3b3d 7f46 77be 0d54 d3be bf68 e7bd
000002c0: 1688 a1bd ab05 963e 23c4 52be f0f1 213e
000002d0: aa44 cd3e b4d2 e2bd d059 a43e d6b6 8e3d
000002e0: 062c 48bc 53f3 a63e 31d3 1a3e 7de5 c1be
000002f0: 1332 e33e 0c30 2bbe 77f3 a83e 4d4a c53d
00000300: 1bd3 3abd 6ddc aebe ce88 2c3e f473 50be
00000310: 25f0 2cbc d852 2bbe e91c 673e 6e4b d0bc
00000320: 9b9f debc 38e4 39bf 3ee1 9cbe 0591 763e
00000330: a1c3 b4be 12dd ba3e fbb8 c83d 2a9c b23c
00000340: 4667 e03d 2c93 783e 97a3 6a3e a928 b83e
00000350: ca50 c2be ed16 0dbe 7871 833d ae67 53bd
00000360: 143e 11be fd6f 913c 0b1f 843c 6531 3cbe
00000370: 5897 023e a5cd bdbe 0092 863e ca7e ff3e
00000380: 16cc 45be 5cbc 003e 1587 92bd 6bee 653d
00000390: 55a0 0e3d 0b55 15bf cbe9 493e 60a8 963e
000003a0: 0ba1 60bb 6eb8 86be 4759 4f3d 34a3 6a3e
000003b0: ae33 2b3d 7a55 8dbb d58e 45be 38d8 863d
000003c0: 3815 113d 6b30 d73e 8188 10bc b654 7b3e
000003d0: 285f 0b3e 4281 ebbe 19d7 58bd b3b4 fbbd
000003e0: 9506 77bd f750 43be 8960 033f 3562 af3d
000003f0: 4016 87bd aa2c 3c3e 1626 d0be a994 babe
-0.028481606 0.03780889 -0.3376611 -0.0059618037 0.257906 -0.19410868 0.0027056418 0.19029129
0.3352366 -0.5280474 -0.058594514 0.0046568913 0.02975957 -0.6056445 -0.231313 -0.042387478
-0.2337685 0.041393355 -0.23571365 -0.40256357 0.5400249 -0.018357286 0.0575479 0.073569946
-0.17330904 -0.34887534 0.046252802 -0.069375195 0.18568917 0.33485037 0.16202855 -0.44262722
0.48668167 0.18645135 -0.03694689 -0.044674855 0.23117588 0.117056906 0.30835122 0.060713056
0.11694843 -0.068361 0.067367196 -0.021329274 0.11917844 0.12737127 -0.024762807 0.20379478
-0.07977589 0.49163756 -0.40676087 -0.24654904 -0.05045653 0.5591568 0.17981768 -0.3510579
-0.24001792 -0.14124385 0.05483454 -0.20346579 0.12800018 0.0659946 0.10444094 -0.05084465
-0.39366525 0.17068374 -0.03190466 0.21654668 0.35825938 -0.18270683 -0.3058376 -0.04391494
0.13152833 -0.08908457 0.03907961 -0.5255257 -0.5499362 -0.112222694 0.16126832 -0.22923602
-0.054496195 -0.41371727 0.19566111 0.21619792 0.059181817 -0.5123633 0.28484657 -0.21182144
-0.4953896 0.08051667 -0.20317763 0.19985186 0.46587133 -0.0045865495 -0.12428008 -0.07941081
0.30534506 0.23418818 0.32782596 0.07717421 0.11770378 0.11845443 0.23553072 0.36296728
0.1219482 0.16097975 -0.30356088 -0.16651638 -0.18324815 -0.11854759 -0.33021933 -0.0049008895
-0.24137728 -0.42678696 -0.06875142 0.35009527 0.5407972 0.0049319407 0.07856076 -0.21221429
0.45350987 0.1313612 -0.2217013 0.35050145 0.3744177 0.0033774497 -0.091498174 0.49778718
0.07648685 0.1528944 0.25583065 0.20387816 0.35140416 -0.03636147 0.34494475 -0.18455908
0.41333783 -0.29379177 0.3497487 0.09912161 -0.068207696 -0.018147675 -0.05672285 0.18074349
0.10011257 0.08789484 0.36021098 0.01401808 -0.02735961 -0.29183576 0.27636725 0.24234024
0.032402754 0.633631 0.17550367 -0.10637423 0.27854255 -0.24680915 0.14981014 0.15659355
-0.013273327 0.21618466 -0.20040692 -0.27028027 0.39211372 -0.3464478 -0.33909258 -0.4252579
0.31233904 -0.20009275 -0.09172512 -0.048399042 0.04583135 -0.24147986 -0.41275063 -0.112992756
-0.078872845 0.293012 -0.20582633 0.15814948 0.4009145 -0.11075345 0.32099771 0.06968467
-0.012217527 0.32607517 0.15119626 -0.37870398 0.4437414 -0.16717547 0.3299825 0.096333124
-0.045611482 -0.34152547 0.16849062 -0.20356733 -0.010555302 -0.16730821 0.22569622 -0.025426593
-0.027175715 -0.7261386 -0.30640596 0.24078758 -0.35305503 0.36496788 0.09800907 0.02180298
0.10957198 0.24274892 0.22913967 0.3596852 -0.37952262 -0.13778277 0.06418127 -0.05161255
-0.14183837 0.017753595 0.016128084 -0.18378218 0.12753046 -0.37070957 0.26283264 0.4990142
-0.19316134 0.12571853 -0.07154671 0.056135576 0.034820873 -0.5833289 0.19718091 0.29425335
-0.0034275677 -0.26312584 0.05062225 0.2291382 0.041797332 -0.004313168 -0.19292767 0.06584209
0.035420626 0.42029127 -0.008821608 0.24544033 0.13610518 -0.45997053 -0.052939508 -0.12290325
-0.06030901 -0.19073854 0.51319176 0.085636534 -0.06596041 0.18376413 -0.40654057 -0.36441544

network_body._body_endoder.seq_layers.0.bias f4 [128]
00000000: 0000 0000 0000 0000 0000 0000 0000 0000
00000010: 0000 0000 0000 0000 0000 0000 0000 0000
00000020: 0000 0000 0000 0000 0000 0000 0000 0000
00000030: 0000 0000 0000 0000 0000 0000 0000 0000
00000040: 0000 0000 0000 0000 0000 0000 0000 0000
00000050: 0000 0000 0000 0000 0000 0000 0000 0000
00000060: 0000 0000 0000 0000 0000 0000 0000 0000
00000070: 0000 0000 0000 0000 0000 0000 0000 0000
00000080: 0000 0000 0000 0000 0000 0000 0000 0000
00000090: 0000 0000 0000 0000 0000 0000 0000 0000
000000a0: 0000 0000 0000 0000 0000 0000 0000 0000
000000b0: 0000 0000 0000 0000 0000 0000 0000 0000
000000c0: 0000 0000 0000 0000 0000 0000 0000 0000
000000d0: 0000 0000 0000 0000 0000 0000 0000 0000
000000e0: 0000 0000 0000 0000 0000 0000 0000 0000
000000f0: 0000 0000 0000 0000 0000 0000 0000 0000
00000100: 0000 0000 0000 0000 0000 0000 0000 0000
00000110: 0000 0000 0000 0000 0000 0000 0000 0000
00000120: 0000 0000 0000 0000 0000 0000 0000 0000
00000130: 0000 0000 0000 0000 0000 0000 0000 0000
00000140: 0000 0000 0000 0000 0000 0000 0000 0000
00000150: 0000 0000 0000 0000 0000 0000 0000 0000
00000160: 0000 0000 0000 0000 0000 0000 0000 0000
00000170: 0000 0000 0000 0000 0000 0000 0000 0000
00000180: 0000 0000 0000 0000 0000 0000 0000 0000
00000190: 0000 0000 0000 0000 0000 0000 0000 0000
000001a0: 0000 0000 0000 0000 0000 0000 0000 0000
000001b0: 0000 0000 0000 0000 0000 0000 0000 0000
000001c0: 0000 0000 0000 0000 0000 0000 0000 0000
000001d0: 0000 0000 0000 0000 0000 0000 0000 0000
000001e0: 0000 0000 0000 0000 0000 0000 0000 0000
000001f0: 0000 0000 0000 0000 0000 0000 0000 0000
0.0 0.0 0.0 0.0 0.0 0.0 0.0 0.0
0.0 0.0 0.0 0.0 0.0 0.0 0.0 0.0
0.0 0.0 0.0 0.0 0.0 0.0 0.0 0.0
0.0 0.0 0.0 0.0 0.0 0.0 0.0 0.0
0.0 0.0 0.0 0.0 0.0 0.0 0.0 0.0
0.0 0.0 0.0 0.0 0.0 0.0 0.0 0.0
0.0 0.0 0.0 0.0 0.0 0.0 0.0 0.0
0.0 0.0 0.0 0.0 0.0 0.0 0.0 0.0
0.0 0.0 0.0 0.0 0.0 0.0 0.0 0.0
0.0 0.0 0.0 0.0 0.0 0.0 0.0 0.0
0.0 0.0 0.0 0.0 0.0 0.0 0.0 0.0
0.0 0.0 0.0 0.0 0.0 0.0 0.0 0.0
0.0 0.0 0.0 0.0 0.0 0.0 0.0 0.0
0.0 0.0 0.0 0.0 0.0 0.0 0.0 0.0
0.0 0.0 0.0 0.0 0.0 0.0 0.0 0.0
0.0 0.0 0.0 0.0 0.0 0.0 0.0 0.0

network_body._body_endoder.seq_layers.2.weight f4 [128, 128]
00000000: bbc4 80bd 4ef0 e13d d0d8 1dbd 1842 943c
00000010: 057d 63ba feb5 2fbd a818 2fbd 3bfa 59bd
00000020: 3e27 593d b057 4d3c b074 ab3c f7ba 68bb
00000030: c5df a9bd 91e8 353d db88 b1bd 65b6 033d
00000040: 569f ebbd 0e93 423d c163 a2bb 3d70 c1bc
00000050: 142c 4c3d fefa 29be e495 47bd 6d77 643c
00000060: a11a 873d 11ac 1abe c5a8 16be 03f2 b33c
00000070: f1c7 e3bc f5c9 643d 35e4 94bd c775 1abe
00000080: 7f33 47bd 5b54 d93d d606 9abc d4e7 863e
00000090: 9c29 123c 865f 82bd 8af0 633d 7b8b 6e3d
000000a0: c060 a5bb e7d5 dbbc cc7c 44be fde6 4d3d
000000b0: 5ecb d43d a041 193b 45f4 293e b000 0d3e
000000c0: 8b92 fbbd f38b 8fba 2675 34bd 04fe 193e
000000d0: 0c17 d93c 6188 193d 9584 57bc d550 d23c
000000e0: 1935 8e3d 3bd6 613d 62ab c73b 942d 5a3e
000000f0: 6f23 403d 583c ecbc 9c6b 2abd ac03 eebd
00000100: 51e6 223e d63d f0bc 997f 49bd 722a ebbd
00000110: 9406 aa3d cba7 62bd 558d 273c 1575 1fbc
00000120: 5080 77bb 3d06 d33d e565 44bd d0ee 12bd
00000130: 89b0 21bd a7b7 bebc 5a8c 063d fe49 a4bd
00000140: ecbd fc3c bda7 cfbd 4f35 473d 40db eb3d
00000150: 86a2 6e3d 89c4 333d bccb d93d 5691 1b3d
00000160: fb8e c03c dd84 c43c 5d34 c13d 81e7 7d3d
00000170: f18b a5bd 1660 7a3c 81ab d63d 6f58 6abc
00000180: 5b94 9bbc 01d4 b73d 4ca7 2bbc 8a1d a0bd
00000190: d22f d9bd 5363 c3bd e37a 433e fcae 7d3d
000001a0: 9460 153e 9756 40bc 76d2 58bd 0334 823c
000001b0: 9a55 48bd 3f73 1fbe e9b2 a3bb 8892 9fbb
000001c0: 0a53 cbbd c059 903d 593f fe39 013f 4abd
000001d0: b1b6 e9bd fe56 853d 6aa4 62bd 7bd9 93bd
000001e0: ec9f 383d e980 903d 7b0c 023c bc13 fc3b
000001f0: a74b ed3d 7735 9cbd 726a dcbd c3a3 5ebd
00000200: dcf4 acbb 4576 dd3c 63a0 143d 9c50 143e
00000210: b068 113b a406 273d 8583 933d d205 003e
00000220: 6566 fe3d 4127 c6bd ab76 3bbc 7b67 9e3c
00000230: 4762 4d3d 393d 123d 4822 ee3c 20d7 4dbd
00000240: 17fe 1d3e c1b8 0cbd bc29 0bbd 070b 753d
00000250: 4fea e3bc a26e 7fbd e2a1 a8bd f934 cabc
00000260: f8a9 a93d 938d ff3b ad5f 1d3c dbf0 6d3d
00000270: 2e24 c13c 1dd9 08be a2a0 81bd 7eb1 05bd
00000280: b65d 483e be6d 633d f934 1b3d c8b0 7e3c
00000290: 972a d0bd 9a49 cbbb 6b73 05bd 40e0 45be
000002a0: d4b3 fa3d 9d3c 61bd eeb1 f13d a50e 02bc
000002b0: 4ba0 b53d d7a7 e33d d4b5 403d ce25 013d
000002c0: e22e a53d 3e44 16bd fea1 8dbd b551 013e
000002d0: 583b 663a 762f 07bc 88ee 05bd 0e05 133e
000002e0: e506 2fbc c035 e13c d75d 8d3b 1534 003d
000002f0: 659d 583c 4a4b 563c 4dd1 143d a76b babd
00000300: 6cfb cebc 814b 6abc b909 ddbd d0b9 09bc
00000310: 0d84 df3c bf8d 0fbc cd8c 89bd 818e 923c
00000320: 25b5 033e 8a7e 86bd 1c58 683d 66d8 203e
00000330: 6ebe cebc 8ac9 1bbe 4f1d 4dbd 0b29 aabd
00000340: e741 3d3b 920e 503e 62f7 323c 128e a7bd
00000350: 1b95 713d 4f74 81bd 0111 11bd 7b4b ecbc
00000360: 343d 9ebd 5e8f 25be 5917 913d 0a16 b1bd
00000370: f7b5 e6bd e567 703d 64b3 7ebd cc1b 0ebe
00000380: a32c cdbc 27c3 d9bd 4afc 07bd f6a6 2c3c
00000390: 3fc1 85bc 0aaf bdb9 be6b ab3d fb44 6eba
000003a0: fa47 7e3d 7c73 5ebd d106 103d 8872 e5bc
000003b0: faf3 ba3c b111 863d 51e8 42bd 6332 823d
000003c0: d36c e13d 82d7 0cbe d8e0 14be 7cff fc3d
000003d0: 6d90 713d a8c7 29bd 6910 0cbe f61e 8dbb
000003e0: 2db0 e3bd 2116 feba c3e2 bc3d 7657 c8bc
000003f0: 188e a1bd eaf3 30bd 4060 e73b 262f 97bd
-0.06287523 0.110321626 -0.038536847 0.018097922 -0.0008677992 -0.04289817 -0.042748123 -0.053217154
0.05301594 0.012533113 0.020929664 -0.003551183 -0.08294634 0.044411246 -0.08668681 0.032156367
-0.11505 0.047503524 -0.0049557392 -0.02361309 0.049846724 -0.16599652 -0.04872693 0.013944489
0.06596876 -0.151047 -0.14712818 0.021965986 -0.0278053 0.055856664 -0.072700895 -0.15083991
-0.048633095 0.10611793 -0.018802088 0.26348746 0.008921053 -0.06365876 0.055649318 0.058238488
-0.005046934 -0.026835395 -0.19188231 0.050269116 0.10390352 0.0023385063 0.16597088 0.13769794
-0.1228381 -0.0010951742 -0.044057034 0.15038306 0.026500247 0.037483577 -0.013154169 0.02567331
0.06943721 0.055135947 0.0060934285 0.21306449 0.046908792 -0.028837368 -0.04160653 -0.11621794
0.15908171 -0.02932636 -0.049193952 -0.11482705 0.08302036 -0.0553358 0.010226567 -0.009732504
-0.003776569 0.10303924 -0.047948737 -0.03587228 -0.039474998 -0.023280932 0.032848693 -0.080219254
0.03085228 -0.101394154 0.048634823 0.11516428 0.058260463 0.043888602 0.106345624 0.0379804
0.023505678 0.023989135 0.09433816 0.061988357 -0.08083332 0.015281698 0.104819305 -0.014303311
-0.01899164 0.089759834 -0.010476898 -0.07818134 -0.10604824 -0.09540429 0.19089846 0.061934456
0.14587623 -0.011739395 -0.052935086 0.015893942 -0.04890976 -0.15571307 -0.004995693 -0.004869763
-0.09927948 0.070483685 0.00048493853 -0.04937649 -0.11411799 0.06510733 -0.05533258 -0.072192155
0.04507439 0.07055838 0.007937546 0.007692782 0.11586695 -0.07627385 -0.1076249 -0.054355394
-0.005278213 0.027033934 0.03628577 0.14483875 0.0022187643 0.040777817 0.0720282 0.1250222
0.12421874 -0.09675456 -0.011441867 0.019336453 0.050142553 0.035702918 0.029069081 -0.050253987
0.15428959 -0.034355883 -0.033975348 0.05982497 -0.027821688 -0.062361367 -0.08234002 -0.024683462
0.08284372 0.0077988594 0.00960533 0.058091026 0.023576822 -0.13364072 -0.063294664 -0.032639973
0.19566998 0.05552458 0.037892316 0.015545078 -0.10164373 -0.0062038423 -0.032580774 -0.19323826
0.12241331 -0.054989446 0.118015155 -0.007938062 0.08868464 0.11115997 0.047048405 0.031530194
0.08065583 -0.036686175 -0.06915663 0.12628825 0.00087826466 -0.008251062 -0.032698184 0.14357397
-0.010682796 0.02749145 0.004314165 0.03129967 0.0132211195 0.013079474 0.036332417 -0.09102564
-0.025266372 -0.014300228 -0.1079287 -0.008406118 0.027284646 -0.008761822 -0.06716309 0.017890217
0.1286207 -0.06567104 0.056724653 0.1570755 -0.025237288 -0.152136 -0.05007678 -0.083086096
0.0028878392 0.20318058 0.0109232385 -0.08181395 0.05898009 -0.06321012 -0.035416607 -0.028844586
-0.07726517 -0.16167971 0.07084531 -0.08646782 -0.11265176 0.05869283 -0.0621828 -0.13877791
-0.025045699 -0.106329255 -0.033199586 0.010537853 -0.016327498 -0.00036179303 0.083701596 -0.00090892584
0.06208036 -0.054309353 0.03516275 -0.028008714 0.022821415 0.06546343 -0.047584835 0.06357267
0.11007085 -0.13754085 -0.14538896 0.12353417 0.058975626 -0.041450173 -0.13678135 -0.0043066693
-0.11117587 -0.0019385257 0.09222939 -0.024455767 -0.0788843 -0.043201365 0.0070610344 -0.0738204

action_model._continuous_distribution.log_sigma f4 [1, 2]
00000000: 0000 0000 0000 0000
0.0 0.0

action_model._continuous_distribution.mu.weight f4 [2, 128]
00000000: c519 e9bc 8047 c5bc f8f5 60bc f315 023c
00000010: 9584 30bb 53b1 82bc b55b 32bc 55f1 08bd
00000020: c3ab c13b 9b67 92bc ef77 c9bb 3a30 1bbc
00000030: a946 3c3b d115 c7bb bf3e 023d df9f 08bc
00000040: 44ae 99bc 8be1 203c 4832 92ba c8ca ecbc
00000050: e1f6 9dbb 985a dbbc 71fa a5bc f4f0 813c
00000060: 679a 1e3c 9345 c3bc a029 90ba 5834 e63b
00000070: d32f 77bc 06f7 8c3c 664a a3bc a0b7 123c
00000080: a20a 783b 5f34 11bc 3042 6fbc 2338 cbbc
00000090: e0d7 66ba c058 7dbc 2326 3dbb 0a51 c03c
000000a0: 4110 123d e9fa ae3a 9c0a a63c 6603 a33c
000000b0: ffa9 a9bc 632a c7bb 4329 2d3c 7507 013c
000000c0: a3c9 983a 16fc c53c 5719 033d 9f08 b23b
000000d0: be26 433b ff89 2abb 6e25 3539 6de8 e0bc
000000e0: d0e0 8abc 4b96 33bc 13fe acbc d628 9bbb
000000f0: ce02 893c ef14 2fbc 6e5b 0a3d eab0 ccbb
00000100: 5076 623b d64d b9bb e7a2 fdbc c70d 99bb
00000110: 2c44 083d e746 e43c fc05 0c3c ba01 9c3c
00000120: bb19 d8bc c8d5 943c 4955 00bd a398 f63b
00000130: 94af b6bb 8dd9 ec3c 5b59 a43b e512 573a
00000140: ee92 94bc 4e57 abbc 16e4 4bbb 5aed a03c
00000150: 3ce5 26bd e710 57bb 3a05 38bc 69ef 2abc
00000160: 0861 8d3b 25ae 66bc fabe 813c 5393 0cbc
00000170: bab9 d53a af71 3e3d 803b 133d e7e0 3fbc
00000180: e4d8 0e3d bac9 733c 977e cdbc 2647 8a3c
00000190: c05b 9abc eb4e b53a bf7e 873b e95f a6ba
000001a0: 307f d63c 7958 1a3c 450d 29bd 358e b33c
000001b0: bb39 b1bc 4794 0dbc 30d5 d2bc 0205 783c
000001c0: 62bb 2d3c df14 cdbc 3278 d8bc 435e 04bc
000001d0: c3c7 d03b df3f 38bc 2283 ebbc c0cb 2cbd
000001e0: 6f5e 2abb cbe8 85bc 157b 633c 393c 1d3c
000001f0: 0609 42bc 0f02 f63b c08d 003d b04c a6bc
00000200: 1f8f 94bc 571d 8d3c fb73 063c c7fc 8abb
00000210: 08d2 fdbb fe6a 8e3c 4c82 3abc 4379 1d3d
00000220: 53c6 bbba d1b4 c03b 5e61 9e3c 1d92 0ebc
00000230: 6b53 f0bb 9aad 283c 9fa3 7e3b 81fd 82bb
00000240: ee78 0d3d d3b3 05bd 089a 79bb ef9c c23c
00000250: e1df b0bc 8055 e1bc 01b3 bfbb 33f8 5eba
00000260: 9ba0 3f3b 7107 22bc 5b38 aebc cbed cfba
00000270: 5b08 2f3d 4cf6 05bc 9be4 8dbc 0370 5dbc
00000280: e33f 1e3b b175 adb6 1a33 4dbc 4b3f 2a3c
00000290: e503 9a39 32e8 053d dd34 f13a 8f36 263b
000002a0: 1b0a e9bb 093e 073d 93ab fdbc 688d 0a3a
000002b0: 661b 863a 6334 0a3c e256 c93b 215a 113d
000002c0: 0dc5 65bc cdfb 863d ff95 9fbc e717 823c
000002d0: 2534 4d3c 1bba a9bc 0e62 8d3c 9d84 eebc
000002e0: 4331 e7bc 22ee 31bd e731 a23c 3d36 763c
000002f0: b7f9 c43c 784c d03b d034 b33c 907f ab3b
00000300: f3cb ed3b 9b54 0ebd 959e dd3b 9778 17bd
00000310: e82c 5d3c 67b4 40bc bafa d63c b05d dabb
00000320: 523e 723c b803 ad3b 5557 603c e75b ea3c
00000330: eaa4 2c3c 5325 f8bb 50ff 83bc 2d55 633a
00000340: cf45 113b 653c 373c cd48 593c 0b30 0b3c
00000350: b6fc a33c 3a6f df3b 0317 35bb 2fa4 21bc
00000360: b376 24bd 3893 ed3b c426 a13c d3c4 aabc
00000370: 9a61 323c 2e68 95ba 3084 873c 3026 e73b
00000380: dcda 42ba 5728 133c f0a2 0ebd 4539 e93c
00000390: f7e7 483b f31f 03bc ebba 19bc 6bf8 d8bc
000003a0: 3fb0 b53b f8bd d33c 1eb5 3a3c 801a e6bc
000003b0: 4cf6 013d 2234 d2bc d680 30bc 02c4 64bb
000003c0: ffc7 073d 83c3 91bc 6f40 48bc aca0 9aba
000003d0: 0b6f c5bc fe4a c8bb d174 21bc 8fcc c3bc
000003e0: ddd4 ecbc 5dbd 903c fc43 103d 2f9d 6c3b
000003f0: 37f7 9f3c 8f03 c1bc 93c2 12bd 0ddf 31bc
-0.02845467 -0.024081945 -0.0137305185 0.007939803 -0.0026934494 -0.015953695 -0.0108861225 -0.033433277
0.005910368 -0.017871669 -0.0061483304 -0.009471947 0.002872864 -0.0060755988 0.03179812 -0.0083388975
-0.018759854 0.009819399 -0.0011153901 -0.028905287 -0.00482069 -0.026776597 -0.020261021 0.015861966
0.009680367 -0.023836887 -0.0010998733 0.007025283 -0.015087086 0.017207634 -0.019932937 0.008954912
0.0037848135 -0.008862584 -0.014603183 -0.024807042 -0.00088059716 -0.015463054 -0.0028861843 0.023476142
0.035660032 0.0013349924 0.02026873 0.019899081 -0.020710943 -0.006078051 0.01056892 0.007875313
0.0011656772 0.024168056 0.032006588 0.0054331566 0.002977773 -0.0026022193 0.00017275449 -0.02745458
-0.016952902 -0.010961126 -0.021117246 -0.0047350926 0.01672497 -0.010686143 0.0337786 -0.0062466757
0.0034555383 -0.0056550307 -0.030961467 -0.004670832 0.03326814 0.02786584 0.008546349 0.019043792
-0.026379457 0.018168345 -0.031331334 0.00752552 -0.0055751298 0.02891233 0.005015535 0.00082044146
-0.018136468 -0.020915654 -0.0031111292 0.019644428 -0.04074596 -0.003281647 -0.011231715 -0.010433056
0.0043145455 -0.014079605 0.015838135 -0.008580047 0.0016305961 0.046495136 0.035945415 -0.011711336
0.03487481 0.014879638 -0.025084777 0.01687963 -0.018842578 0.0013832723 0.0041349824 -0.0012693378
0.026183695 0.009420508 -0.04127242 0.021918396 -0.021633973 -0.008641309 -0.025736421 0.015137913
0.010603758 -0.025034366 -0.026424501 -0.008079114 0.0063714697 -0.011245697 -0.028749052 -0.0421865
-0.0025996228 -0.016346356 0.0138843255 0.009596878 -0.011842972 0.0075075696 0.031385183 -0.02030024
-0.018134652 0.017225904 0.008206363 -0.004241559 -0.007745985 0.017385002 -0.011383604 0.038445722
-0.0014326073 0.00588093 0.019333538 -0.008701828 -0.007334163 0.010295296 0.003885485 -0.003997505
0.034539156 -0.032642197 -0.0038086195 0.023756472 -0.021591129 -0.02750659 -0.0058501964 -0.00085056125
0.0029240015 -0.0098894695 -0.021267107 -0.0015863715 0.042732578 -0.0081763975 -0.017320922 -0.013515475
0.0024146966 -5.169503e-06 -0.012524391 0.010391067 0.0002937607 0.03269214 0.0018402595 0.002536211
-0.0071118004 0.033018146 -0.030965602 0.00052853534 0.0010231554 0.0084353415 0.0061443904 0.035486344
-0.014024031 0.06590996 -0.019480703 0.015880538 0.012524639 -0.020718625 0.01725867 -0.02911597
-0.028221732 -0.04343999 0.019799186 0.01502758 0.024044855 0.006356772 0.021875769 0.0052337125
0.0072569787 -0.034748655 0.006763289 -0.036980238 0.013499476 -0.011761761 0.026242603 -0.0066640005
0.014785366 0.0052799843 0.013692697 0.028608276 0.010537365 -0.007572809 -0.016112953 0.0008672055
0.0022166853 0.011183833 0.013261986 0.008495341 0.020017963 0.006818679 -0.0027632124 -0.009865805
-0.040152263 0.007250216 0.019671805 -0.020845806 0.010887528 -0.0011398846 0.016542524 0.007054113
-0.0007433125 0.008981786 -0.034823358 0.028469691 0.003065584 -0.008003223 -0.009382944 -0.026485642
0.005544692 0.02584742 0.011395721 -0.028088808 0.031729028 -0.025659624 -0.010772904 -0.0034906869
0.033149716 -0.017793423 -0.012222393 -0.0011797152 -0.024100801 -0.0061124554 -0.009854511 -0.023901252
-0.028910095 0.01766842 0.035221085 0.003610443 0.01952706 -0.023561267 -0.03583009 -0.010856402

action_model._continuous_distribution.mu.bias f4 [2]
00000000: 0000 0000 0000 0000
0.0 0.0

action_model._discrete_distribution.branches.0.weight f4 [1, 128]
00000000: ea76 c73a 9f43 babb d335 83bb 93ac 783c
00000010: 50a9 a8ba c827 1e3c 842d cbbb 673f 8f3a
00000020: cf32 e03b 6276 dc38 7ace 0bbc ed80 55bc
00000030: a8df 79ba 8b00 613b 7000 b33b ebae c03a
00000040: 5f3b 923b edb4 df3a ffc3 6ebb ce97 22bb
00000050: b8d7 783a a3fd 813b 2a8e 783c fe1b b7bb
00000060: 0794 7abb 0f46 09b9 7159 1bbc 1b4b d03b
00000070: 7737 1c3b 6330 3bbc 1648 253c b916 163c
00000080: ebe7 54bc 87cd 003c 9d90 3b3c 4b27 e4bb
00000090: 73d5 d13b df58 e3bb cafd a13b 3d5b dfbb
000000a0: bb4c 32bc 8d13 01bc 6036 8abc e4b9 393a
000000b0: 2916 15bc c6c4 29bb ad73 a3bb 0bb3 14bc
000000c0: 281e 42bc 4857 7f3b f082 e2bb 21da a03b
000000d0: eea0 243c b23d 8a3b 5966 43bc d9f0 a7bb
000000e0: db16 8e3c 46d1 00bc 6a20 323b 1ff2 343c
000000f0: ed76 103c bc43 b7bb a77d e63b 7dda 563c
00000100: 3492 9bbc b576 90b9 6361 bf3b 18a2 82bb
00000110: 936c 7e3a 8ce8 1cbb b2e1 a7ba 4e36 9e3b
00000120: 2827 0dbc 79c1 11bb d8d9 d23c 9948 303c
00000130: 515d 14ba ab21 b2bc 7654 9bbb 587c af39
00000140: 7721 ac3b a0f7 ad3b 67fd 873c c905 82bc
00000150: 66f5 c539 48aa a53b 0bf7 023c 19e1 2639
00000160: 3f68 a63a 2246 b4bb 5449 153c 6567 4f3c
00000170: 336e 3a3b 185a cd3b b3a6 343b 3b34 89bc
00000180: 20b6 6c3b a853 44bc eaa4 f93b c0dd 7b3b
00000190: 0209 d43b 8d82 6fbc 90b4 15bc c9ba 4cbc
000001a0: 905d 91b9 93c6 0d3a 4ea0 bc3b 9722 873b
000001b0: 2550 2dbc 8613 8bba bff1 be39 fbb9 f3ba
000001c0: 4c6b 183c b70b 2ebb 4dc2 d53a bbfd c93b
000001d0: 6a35 cd3a 2f91 133c dbcb 4dbc d3f0 8ebb
000001e0: 7be2 ad38 60fa 98bb 5233 a3bb 2336 1c3c
000001f0: 507e 953b 9afd 8e3c 7380 8cbb 94ce 41bb
0.0015217934 -0.0056843306 -0.004004219 0.015177864 -0.0012867842 0.009653039 -0.0062004942 0.001092893
0.0068419944 0.00010512468 -0.008533115 -0.013031227 -0.00095319236 0.00343326 0.0054626986 0.0014700567
0.004462644 0.001706747 -0.003643274 -0.002480972 0.0009492594 0.0039670034 0.015170613 -0.0055880537
-0.0038235204 -0.00013091437 -0.009481774 0.0063566095 0.002383677 -0.0114251105 0.010087987 0.009160691
-0.012994747 0.007861502 0.011448053 -0.006962692 0.006403619 -0.0069380845 0.004943584 -0.0068162964
-0.010882552 -0.007878196 -0.016871631 0.000708489 -0.009099522 -0.002590464 -0.004988155 -0.00907589
-0.01184801 0.0038961936 -0.0069125816 0.0049088155 0.010048134 0.0042187804 -0.011926257 -0.005125147
0.017344883 -0.007862395 0.0027179965 0.011044054 0.008817417 -0.0055927914 0.007034022 0.013113615
-0.018990614 -0.00027554264 0.005840467 -0.0039866082 0.000970551 -0.002394232 -0.0012808351 0.004828251
-0.008615293 -0.0022240563 0.025738642 0.010759496 -0.0005659657 -0.02174457 -0.004740293 0.00033471244
0.0052530128 0.00530906 0.016600324 -0.0158719 0.00037757604 0.0050556995 0.00799347 0.00015914849
0.0012695863 -0.0055015245 0.009111721 0.0126589285 0.0028447032 0.0062668435 0.002756518 -0.016748538
0.0036119297 -0.011982836 0.0076185362 0.0038431734 0.0064708004 -0.014618528 -0.009137288 -0.012495705
-0.00027726265 0.0005408313 0.0057564145 0.0041239965 -0.01057819 -0.0010610677 0.0003641974 -0.0018594855
0.009302925 -0.0026557276 0.0016308516 0.00616428 0.0015656177 0.009006782 -0.01256081 -0.0043622046
8.291468e-05 -0.004668519 -0.004980483 0.009534392 0.0045621768 0.017454911 -0.0042877733 -0.0029572593
