results/test/Car_agent/Car_agent-6556.onnx (onnx, 84494 bytes, 7 tensors)

network_body._body_endoder.seq_layers.0.weight f4 [128, 19]
0.4081075 -0.09477587 0.36385408 -0.07441919 0.34827206 0.26518744 0.067814246 0.16211408
0.08672044 0.05684503 -0.019087227 -0.3651825 0.36732167 0.34253612 0.19842874 -0.1039205
0.20635329 0.047548916 -0.054329455 -0.19308811 0.04208471 -0.035970915 -0.38182065 0.10389782
-0.12908138 0.37639815 -0.3490832 0.085367344 0.18796517 0.08340603 0.13557765 -0.03931288
0.088541 0.049733106 -0.1295273 -0.22628371 0.15712138 0.37619427 0.14202206 0.009940862
-0.08802315 0.13340598 0.23230568 -0.4616605 0.06808228 0.22924954 -0.39870483 -0.31764016
0.08261911 0.29765278 -0.054806013 -0.11337296 -0.009966955 -0.008528419 0.066395834 0.039964184
-0.16934927 0.078467146 0.36651704 -0.2661008 -0.03834409 0.022118665 0.3773625 -0.2769656
-0.20723791 0.112161905 0.0066105686 0.037263304 -0.070813045 0.15970157 0.15846395 0.048579074
-0.19934715 -0.33034864 0.21278627 -0.12641312 -0.20611405 0.1925802 -0.14034356 -0.45123497
-0.39745027 0.043793395 0.07669381 0.36271057 0.14259191 0.11856295 -0.05524057 0.21390162
0.02726018 0.2705203 0.25226098 -0.3015903 0.13856733 -0.3058923 -0.39971346 -0.14148317
0.12689479 -0.31372058 -0.18082501 -0.026244603 0.06830652 -0.54491043 0.030661631 0.04579744
0.016545324 0.113961995 -0.34672305 0.103553414 -0.11956359 0.3496233 -0.08735401 0.023401689
-0.34883755 0.075699575 0.0877867 -0.2704902 -0.265851 -0.11982012 0.21967238 0.08202323
-0.049370904 0.47190857 -0.60582286 -0.3714924 0.053164374 -0.29949343 -0.19228914 0.20761058
-0.11440722 -0.08852671 -0.041623846 -0.045883246 0.0008610732 0.07353601 -0.040208906 0.37829837
-0.37629098 -0.15525967 0.29256517 -0.25906745 -0.06286773 -0.2245887 -0.36381635 -0.05829167
-0.12278113 0.15194081 0.10762893 0.10335318 -0.06674716 0.22529611 -0.08840272 -0.10103874
0.36821726 -0.0023682993 0.33261156 -0.070448674 -0.19080399 -0.38241863 0.24423267 0.23220938
0.08934456 0.080308214 -0.37481678 -0.41651028 0.3646398 0.17285497 0.35522512 0.03412188
-0.10405313 -0.13968244 -0.20892486 -0.28262788 0.26699844 -0.0012209319 -0.18476607 -0.0443333
0.05958641 -0.13954082 -0.015098875 -0.02856963 0.23241964 -0.5044024 -0.17589402 0.11297155
0.08754521 -0.292134 0.023560379 -0.0321702 0.25149634 0.13972728 0.34356567 -0.22701824
-0.017846934 -0.06890529 -0.4044601 -0.080358475 0.43759033 0.01773325 -0.1590657 0.019212998
-0.19582704 -0.05715656 0.51818347 -0.19720912 0.11842774 0.04707203 -0.21273516 -0.32084984
0.2571086 -0.1810428 -0.029817319 0.16887888 -0.10139692 -0.20582616 -0.1231813 -0.011591741
-0.011738489 0.11988704 -0.14254919 0.06680785 -0.5696517 -0.04453317 0.16056184 -0.45682454
-0.19724587 0.13265492 0.34658834 -0.21131144 0.024391782 -0.79375786 -0.03761373 0.07208996
0.0153381955 -0.4192123 -0.090068 -0.563716 0.24946228 0.06550378 -0.3585916 0.17932492
0.17349166 -0.026443718 0.20458677 -0.21320952 0.539239 -0.27181515 -0.24940474 0.15903609
0.2214195 0.054895468 -0.38934344 -0.075195886 0.2677752 -0.025869507 0.14909653 -0.50283307
00000000: 77f3 d03e da19 c2bd 154b ba3e 1769 98bd
00000010: b750 b23e a6c6 873e 32e2 8a3d 3c01 263e
00000020: 7c9a b13d 56d6 683d d15c 9cbc 33f9 babe
00000030: 9611 bc3e e560 af3e e730 4b3e 45d4 d4bd
00000040: 474e 533e a7c2 423d 9088 5ebd e4b8 45be
00000050: 0461 2c3d 3d56 13bd ff7d c3be 61c8 d43d
00000060: e92d 04be 42b7 c03e 08bb b2be 13d5 ae3d
00000070: f179 403e c8d0 aa3d ded4 0a3e 8b06 21bd
00000080: fc54 b53d f1b4 4b3d cea2 04be ebb6 67be
00000090: 6de4 203e 899c c03e 3b6e 113e ffde 223c
000000a0: 7b45 b4bd 949b 083e 8ae1 6d3e c45e ecbe
000000b0: b96e 8b3d 64c0 6a3e 0a23 ccbe bba1 a2be
000000c0: 3534 a93d f265 983e 457c 60bd 1530 e8bd
000000d0: 704c 23bc c8ba 0bbc 8afa 873d 7cb1 233d
000000e0: e569 2dbe 62b3 a03d 1fa8 bb3e 5d3e 88be
000000f0: b10e 1dbd 3432 b53c a835 c13e 6fce 8dbe
00000100: 2d36 54be 24b5 e53d 789d d83b 68a1 183d
00000110: 6e06 91bd cf88 233e 6044 223e dafa 463d
00000120: a921 4cbe 7523 a9be a5e4 593e 7172 01be
00000130: 900f 53be be33 453e 39b6 0fbe 4508 e7be
00000140: 9a7e cbbe b460 333d a511 9d3d 33b5 b93e
00000150: 9d03 123e 22d1 f23d f043 62bd 0709 5b3e
00000160: be50 df3c a381 8a3e 5a28 813e 0b6a 9abe
00000170: 98e4 0d3e ea9d 9cbe 3ea7 ccbe f7e0 10be
00000180: b5f0 013e fc9f a0be 312a 39be ecfe d6bc
00000190: 4ae4 8b3d 407f 0bbf 1a2e fb3c 1996 3b3d
000001a0: 0f8a 873c e864 e93d af85 b1be d013 d43d
000001b0: c1dd f4bd d301 b33e a9e6 b2bd e6b4 bf3c
000001c0: d69a b2be 6108 9b3d 83c9 b33d b17d 8abe
000001d0: 9f1d 88be 4064 f5bd ccf1 603e ccfb a73d
000001e0: 2539 4abd 009e f13e 3517 1bbf 4034 bebe
000001f0: e3c2 593d 3457 99be 72e7 44be de97 543e
00000200: 554e eabd 7e4d b5bd c47d 2abd 12f0 3bbd
00000210: a5b9 613a 0c9a 963d 18b2 24bd 53b0 c13e
00000220: 36a9 c0be 64fc 1ebe 1acb 953e 7da4 84be
00000230: ccc0 80bd 95fa 65be 2346 babe 3fc3 6ebd
00000240: ac74 fbbd 5f96 1b3e 8e6c dc3d d5aa d33d
00000250: bcb2 88bd 06b4 663e 7c0c b5bd 66ed cebd
00000260: f986 bc3e 7835 1bbb 104c aa3e 6547 90bd
00000270: 1f62 43be 60cc c3be 2118 7a3e 4cc8 6d3e
00000280: 48fa b63d a278 a43d fce7 bfbe d640 d5be
00000290: 11b2 ba3e e500 313e 11e0 b53e 62c3 0b3d
000002a0: cf19 d5bd ea08 0fbe 66f0 55be 9ab4 90be
000002b0: 05b4 883e ad07 a0ba 5133 3dbe d696 35bd
000002c0: e110 743d cae3 0ebe 4661 77bc db0a eabc
000002d0: 6aff 6d3e 8420 01bf 901d 34be a15d e73d
000002e0: e74a b33d 9692 95be b201 c13c e6c4 03bd
000002f0: 21c4 803e ab14 0f3e d7e7 af3e 7877 68be
00000300: bc33 92bc 371e 8dbd 6515 cfbe fc92 a4bd
00000310: d70b e03e 5245 913c 1ee2 22be 9464 9d3c
00000320: e286 48be ff1c 6abd aca7 043f 30f1 49be
00000330: 3e8a f23d 9ace 403d 3fd7 59be 6e46 a4be
00000340: bda3 833e 4963 39be 7343 f4bc 96ee 2c3e
00000350: 30a9 cfbd 18c4 52be 7a46 fcbd 49eb 3dbc
00000360: cb52 40bc 5687 f53d 6af8 11be 8ed2 883d
00000370: b2d4 11bf 6a68 36bd 536a 243e e8e4 e9be
00000380: d2fa 49be b1d6 073e 0774 b13e 0762 58be
00000390: 46d1 c73c b733 4bbf db10 1abd e7a3 933d
000003a0: 0e4d 7b3c ffa2 d6be 9275 b8bd b14f 10bf
000003b0: 0a73 7f3e d926 863d 5199 b7be f4a0 373e
000003c0: cca7 313e 7fa0 d8bc 327f 513e 9953 5abe
000003d0: 910b 0a3f 5b2b 8bbe f563 7fbe 5bda 223e
000003e0: cbbb 623e 12da 603d 0658 c7be 4d00 9abd
000003f0: d519 893e 4aec d3bc c3ac 183e abb9 00bf

network_body._body_endoder.seq_layers.0.bias f4 [128]
0.0 0.0 0.0 0.0 0.0 0.0 0.0 0.0
0.0 0.0 0.0 0.0 0.0 0.0 0.0 0.0
0.0 0.0 0.0 0.0 0.0 0.0 0.0 0.0
0.0 0.0 0.0 0.0 0.0 0.0 0.0 0.0
0.0 0.0 0.0 0.0 0.0 0.0 0.0 0.0
0.0 0.0 0.0 0.0 0.0 0.0 0.0 0.0
0.0 0.0 0.0 0.0 0.0 0.0 0.0 0.0
0.0 0.0 0.0 0.0 0.0 0.0 0.0 0.0
0.0 0.0 0.0 0.0 0.0 0.0 0.0 0.0
0.0 0.0 0.0 0.0 0.0 0.0 0.0 0.0
0.0 0.0 0.0 0.0 0.0 0.0 0.0 0.0
0.0 0.0 0.0 0.0 0.0 0.0 0.0 0.0
0.0 0.0 0.0 0.0 0.0 0.0 0.0 0.0
0.0 0.0 0.0 0.0 0.0 0.0 0.0 0.0
0.0 0.0 0.0 0.0 0.0 0.0 0.0 0.0
0.0 0.0 0.0 0.0 0.0 0.0 0.0 0.0
00000000: 0000 0000 0000 0000 0000 0000 0000 0000
00000010: 0000 0000 0000 0000 0000 0000 0000 0000
00000020: 0000 0000 0000 0000 0000 0000 0000 0000
00000030: 0000 0000 0000 0000 0000 0000 0000 0000
00000040: 0000 0000 0000 0000 0000 0000 0000 0000
00000050: 0000 0000 0000 0000 0000 0000 0000 0000
00000060: 0000 0000 0000 0000 0000 0000 0000 0000
00000070: 0000 0000 0000 0000 0000 0000 0000 0000
00000080: 0000 0000 0000 0000 0000 0000 0000 0000
00000090: 0000 0000 0000 0000 0000 0000 0000 0000
000000a0: 0000 0000 0000 0000 0000 0000 0000 0000
000000b0: 0000 0000 0000 0000 0000 0000 0000 0000
000000c0: 0000 0000 0000 0000 0000 0000 0000 0000
000000d0: 0000 0000 0000 0000 0000 0000 0000 0000
000000e0: 0000 0000 0000 0000 0000 0000 0000 0000
000000f0: 0000 0000 0000 0000 0000 0000 0000 0000
00000100: 0000 0000 0000 0000 0000 0000 0000 0000
00000110: 0000 0000 0000 0000 0000 0000 0000 0000
00000120: 0000 0000 0000 0000 0000 0000 0000 0000
00000130: 0000 0000 0000 0000 0000 0000 0000 0000
00000140: 0000 0000 0000 0000 0000 0000 0000 0000
00000150: 0000 0000 0000 0000 0000 0000 0000 0000
00000160: 0000 0000 0000 0000 0000 0000 0000 0000
00000170: 0000 0000 0000 0000 0000 0000 0000 0000
00000180: 0000 0000 0000 0000 0000 0000 0000 0000
00000190: 0000 0000 0000 0000 0000 0000 0000 0000
000001a0: 0000 0000 0000 0000 0000 0000 0000 0000
000001b0: 0000 0000 0000 0000 0000 0000 0000 0000
000001c0: 0000 0000 0000 0000 0000 0000 0000 0000
000001d0: 0000 0000 0000 0000 0000 0000 0000 0000
000001e0: 0000 0000 0000 0000 0000 0000 0000 0000
000001f0: 0000 0000 0000 0000 0000 0000 0000 0000

network_body._body_endoder.seq_layers.2.weight f4 [128, 128]
-0.030469568 -0.16619217 0.07066294 -0.122382574 -0.10434071 -0.13016695 0.092693724 0.00027925574
-0.016798915 0.072044745 0.032668535 0.06828794 -0.102451496 -0.060845677 -0.06182281 -1.5733116e-05
0.055769395 0.107284255 -0.063353084 0.042925797 -0.041175455 0.044162337 -0.0034615 0.092862844
0.06368793 0.04251356 0.024113826 0.08880852 -0.0014112085 -0.026968261 -0.11487841 -0.0974539
0.26510808 0.1427026 0.14543754 0.07728003 0.18374197 0.15634577 0.028552698 0.0742062
-0.03247293 0.067984186 0.043867353 -0.00722328 0.0019524951 -0.03182026 -0.12045498 0.08922838
0.13953544 0.07260526 0.079967275 -0.08806396 0.0063222544 -0.090537965 0.09594688 0.14448816
0.08838145 0.1331349 0.027584257 -0.13406326 0.06764201 0.1342867 -0.10323028 0.030052468
-0.011705157 0.13565005 0.079693854 -0.14999144 0.08978971 0.057054292 0.050193425 0.08476081
-0.047620405 -0.12895441 0.09740152 -0.2207751 -0.09416508 0.024271572 0.09599317 -0.046318617
-0.034534488 -0.051854983 -0.11492946 0.14222077 -0.034836613 0.0117503265 -0.0004771221 -0.023105603
-0.0029305178 0.03229991 0.015427412 -0.0023963498 -0.0395964 -0.056989856 0.033648707 -0.047022928
-0.049967375 -0.04714583 0.13067403 0.16613373 -0.06250122 -0.043051258 -0.07940934 -0.06387456
0.016398719 0.20868789 -0.10380501 0.031049436 -0.005660644 0.14836438 -0.04307937 -0.054458294
0.016544722 0.07558195 -0.009440258 -0.02867268 0.05075296 -0.045224506 -0.003464347 0.08427009
-0.12217171 0.06686674 0.12249153 0.04259802 -0.082988515 -0.14352654 -0.10161965 0.024730917
0.09833423 0.0003014699 0.016251376 -0.087888926 0.032778226 0.069170915 0.025720496 -0.16412625
0.0737679 -0.016107064 0.024940867 -0.055833668 -0.06276965 0.07049165 -0.099820286 0.1262971
0.0952855 -0.054026037 -0.027318912 0.026498117 -0.07975597 -0.032990973 -0.04946655 -0.10526081
0.046842206 0.13154608 0.09901914 -0.0076225754 -0.086440414 0.030285086 -0.02794093 -0.074718885
0.06924077 0.068797335 0.05090353 -0.12819073 0.003604355 -0.06447066 0.27865222 -0.03546059
-0.006998325 -0.18606727 0.2208599 0.08735907 0.07030784 -0.024891028 0.087896116 -0.051806472
-0.020632371 0.1462483 -0.054452047 -0.0153719 -0.048750974 -0.030341716 -0.108611435 0.18366045
-0.03165076 0.094937965 0.0017713775 0.04984984 0.03887258 -0.09939183 -0.01335698 0.08437719
-0.0012425181 -0.16738537 -0.011314458 -0.112864316 0.06564436 -0.006889693 -0.037276134 -0.04037989
0.19771583 -0.06376348 0.06561552 -0.1275114 -0.03141942 0.102779195 0.04521604 -0.119926445
-0.038232606 0.085489154 0.031014567 0.10086847 0.021817174 0.16271287 -0.027714344 -0.2023531
-0.15626098 0.046284903 0.06451794 0.090078995 -0.08635486 0.14971757 -0.114601135 -0.034188244
0.089289986 0.03835877 -0.04792642 -0.015149752 -0.001249526 -0.0023352972 0.041020002 -0.00056596263
0.0946023 0.009981231 -0.08508803 -0.01021239 0.032159097 -0.004875612 -0.15816075 -0.07871675
0.004342195 0.05320745 -0.010663549 0.038930982 -0.066601604 0.11313551 -0.0384171 -0.039698187
-0.033915777 -0.045471076 0.058768615 0.053313054 0.03144279 0.13497826 -0.10041907 -0.03139504
00000000: 519b f9bc 482e 2abe bbb7 903d b7a3 fabd
00000010: 95b0 d5bd 7c4a 05be 35d6 bd3d 1269 9239
00000020: e19d 89bc 328c 933d 71cf 053d 8cda 8b3d
00000030: 17d2 d1bd 5139 79bd ea39 7dbd 9cfa 83b7
00000040: 736e 643d d9b7 db3d 43bf 81bd f6d2 2f3d
00000050: 98a7 28bd 91e3 343d 55da 62bb e02e be3d
00000060: d16e 823d b322 2e3d 5c8a c53c 3ee1 b53d
00000070: 4df8 b8ba 8bec dcbc 5f45 ebbd e995 c7bd
00000080: 3fbc 873e a120 123e 94ed 143e fe44 9e3d
00000090: db26 3c3e 1b19 203e 59e7 e93c 6cf9 973d
000000a0: 5602 05bd 4b3b 8b3d 41ae 333d 44b1 ecbb
000000b0: ddea ff3a f655 02bd 1ab1 f6bd 5ebd b63d
000000c0: 61e2 0e3e 11b2 943d e2c5 a33d e15a b4bd
000000d0: ea2a cf3b f86b b9bd cc7f c43d b4f4 133e
000000e0: 5501 b53d 8454 083e 61f8 e13c e147 09be
000000f0: e587 8a3d 7482 093e 666a d3bd 9830 f63c
00000100: fdc6 3fbc d9e7 0a3e 8836 a33d 5b97 19be
00000110: abe3 b73d c3b1 693d 9f97 4d3d 1397 ad3d
00000120: 9d0d 43bd a00c 04be 737a c73d de12 62be
00000130: 9fd9 c0bd 2dd5 c63c 1198 c43d 97b8 3dbd
00000140: 0974 0dbd e465 54bd 2360 ebbd 52a2 113e
00000150: d6b0 0ebd 7184 403c 3f26 fab9 f647 bdbc
00000160: ee0d 40bb e94c 043d 42c3 7c3c 140c 1dbb
00000170: d62f 22bd 326e 69bd 3ad3 093d 1d9b 40bd
00000180: 97aa 4cbd fc1b 41bd 6acf 053e f61e 2a3e
00000190: a400 80bd 8456 30bd 5da1 a2bd aad0 82bd
000001a0: 9b56 863c 47b2 553e b997 d4bd 635b fe3c
000001b0: ec7c b9bb d5ec 173e fe73 30bd a90f 5fbd
000001c0: cc88 873c b6ca 9a3d 50ab 1abc f8e2 eabc
000001d0: 56e2 4f3d 553d 39bd 190a 63bb cc95 ac3d
000001e0: 2935 fabd 6ef1 883d d7dc fa3d 437b 2e3d
000001f0: e2f5 a9bd 9ff8 12be f71d d0bd 7e98 ca3c
00000200: 7563 c93d 9b0e 9e39 9b21 853c 1cff b3bd
00000210: 7642 063d 7ba9 8d3d cab3 d23c b610 28be
00000220: a013 973d f6f2 83bc ca50 cc3c d8b1 64bd
00000230: 608d 80bd ed5d 903d 946e ccbd 0754 013e
00000240: 0b25 c33d 684a 5dbd e9cb dfbc 9412 d93c
00000250: 1957 a3bd 8b21 07bd 709d 4abd fb92 d7bd
00000260: 9ddd 3f3d 04b4 063e 8cca ca3d ccc6 f9bb
00000270: ac07 b1bd 6e18 f83c 61e4 e4bc 3706 99bd
00000280: 1bce 8d3d 9ee5 8c3d 3880 503d 6e44 03be
00000290: 0b37 6c3b 3209 84bd 81ab 8e3e 203f 11bd
000002a0: 3552 e5bb 6b88 3ebe 1929 623e 50e9 b23d
000002b0: 8ffd 8f3d 45e8 cbbc e102 b43d 0633 54bd
000002c0: 3805 a9bc 1dc2 153e 1c09 5fbd 6cda 7bbc
000002d0: 1aaf 47bd 318f f8bc ac6f debd 7c11 3c3e
000002e0: 3aa4 01bd d66e c23d 912d e83a 592f 4c3d
000002f0: db38 1f3d f28d cbbd 3cd7 5abc f3cd ac3d
00000300: fddb a2ba 1267 2bbe 4760 39bc 6825 e7bd
00000310: 8d70 863d efc2 e1bb dcae 18bd 6265 25bd
00000320: 0576 4a3e 6d96 82bd 6e61 863d 5992 02be
00000330: a6b1 00bd e67d d23d 7434 393d ff9b f5bd
00000340: cb99 1cbd f014 af3d 4312 fe3c 2194 ce3d
00000350: eeb9 b23c 349e 263e 3109 e3bc a735 4fbe
00000360: e102 20be 3d95 3d3d fb21 843d 567b b83d
00000370: d1da b0bd 904f 193e 00b4 eabd f908 0cbd
00000380: abdd b63d 161e 1d3d 7e4e 44bd aa36 78bc
00000390: 23c7 a3ba c90b 19bb 9704 283d 1c5d 14ba
000003a0: dabe c13d 5188 233c a242 aebd de51 27bc
000003b0: 42b9 033d 99c3 9fbb e4f4 21be 3f36 a1bd
000003c0: f948 8e3b 0ef0 593d 2bb6 2ebc 1876 1f3d
000003d0: 6c66 88bd 97b3 e73d 405b 1dbd 919a 22bd
000003e0: 45eb 0abd e13f 3abd 5cb7 703d ca5e 5a3d
000003f0: 28ca 003d be37 0a3e 83a8 cdbd 1698 00bd

action_model._continuous_distribution.log_sigma f4 [1, 2]
0.0 0.0
00000000: 0000 0000 0000 0000

action_model._continuous_distribution.mu.weight f4 [2, 128]
-0.021532662 0.004727521 -0.009036512 -0.0022088112 -0.019437151 -0.005454795 -0.045933213 -0.053118743
0.028142748 0.0049504777 -0.027577266 0.01363897 0.0035247281 -0.015664287 0.009345786 0.04347994
0.00973593 -0.00063282356 0.0012333133 -0.020840691 -0.010959184 0.0056001456 0.00015860361 0.0010611009
-0.017242946 0.010498105 -0.000575348 0.0007857449 0.027063373 0.026156468 0.024560718 -0.017462498
-0.0020035354 -0.028900016 0.009827376 0.0026223194 -0.0025079772 -0.0048425854 -0.021834327 0.0009758125
-0.008708131 -0.013576465 0.01956857 -0.004471463 -0.0042978465 -0.0016796477 -0.0023299067 -0.011395051
-0.012114233 -0.019910881 0.012561249 0.0061442847 -0.023278883 -0.005568485 -0.023491977 -0.019393887
-0.028181387 8.956083e-06 0.001938714 0.0490811 -0.0129149025 -0.0021859019 0.0027071692 0.016080523
0.025167381 -0.013662666 0.00443949 -0.021279322 -0.03257004 -0.009839833 -0.007679303 -0.01619898
-0.0021998486 0.0028722973 0.009027802 0.0025460846 -0.008062669 0.030694995 0.028644515 -0.0218953
0.013120949 0.015466641 -0.016780382 0.012087992 0.012297099 -0.0020376504 0.010153983 0.02989882
0.0046402956 -0.0060992124 -0.021059198 -0.0027628008 0.007860773 0.014514293 -0.027350415 0.0045483583
0.013735602 -0.025946314 -0.0023748835 0.043848615 0.0013016335 0.005829154 0.024121864 -0.018446341
-0.01293934 0.014818276 -0.009138487 0.00043170532 0.015176003 0.02408666 -0.024950264 -0.03320605
0.019986453 0.0035145339 -0.019510774 -0.007375055 -0.0010517427 0.023439692 -0.03392944 0.007174323
0.004486701 -0.014915369 0.01613021 0.004543259 -0.0024272378 -0.020905117 0.016812773 0.014088242
-0.0068758056 -0.00887157 0.029119357 -0.019127836 -0.021206627 -0.008218111 -0.041137718 -0.0032389709
-0.018633217 -0.0019479085 0.028212193 0.0028572106 0.0030777322 -0.0025802802 0.020573573 -0.010969481
0.016086904 0.022144808 -0.016301429 0.039422277 -0.009320692 0.0003632841 0.0007666033 0.0006152444
0.0236947 -0.02548778 0.00030345764 0.0005150096 0.00022181035 0.029997045 0.01583842 0.01509798
-0.007260745 -0.0072538913 -0.013262816 -0.0028174464 0.014367143 0.02422262 -0.027187789 0.027998596
0.048258413 0.014704488 0.0016469759 -0.002753239 0.015499465 -0.03805107 -0.01621883 -0.021632573
-0.021015495 0.008161942 -0.0102456715 0.0026718748 -0.021024972 0.016694358 -0.008263771 0.0020976341
-0.013483536 -0.013002018 -0.005113881 0.002356585 0.028303761 0.019030737 -0.0044439053 0.00042271806
-0.006006276 -0.008636705 0.014468418 0.02966601 -0.0062483167 -0.023253907 0.037533134 0.02627327
0.008192114 -0.00068938447 -0.014784912 0.00026412812 -0.004271404 -0.0030491187 -0.017992947 0.02418502
-0.008809657 0.025451902 0.012052747 -0.01628717 -0.0066668163 -0.0016158525 -0.025430962 -0.0072625116
-0.023093408 -0.010850715 -0.011909898 -0.0034984907 -0.025513401 0.007961867 -0.00090606575 -0.0069396743
-0.036339957 0.026661843 0.01132798 -0.013598206 0.016499413 -0.0102502 -0.0016059574 0.017730555
0.04404686 0.009675659 0.021167202 -0.0032066095 0.0028772817 0.00919981 0.0077563734 0.030923804
0.011671945 -0.018468896 0.026876865 0.01583964 0.029686717 0.02886509 0.01068963 0.031341054
-0.016864395 0.03349822 0.008934672 0.0055917134 -0.0014157052 -0.00043532657 0.05696894 0.008068204
00000000: 4465 b0bc 52e9 9a3b e10d 14bc b4c1 10bb
00000010: a93a 9fbc 23be b2bb 7724 3cbd 0a93 59bd
00000020: 9f8b e63c 9e37 a23b b8e9 e1bc fd75 5f3c
00000030: 20ff 663b 6452 80bc 111f 193c 0618 323d
00000040: 7383 1f3c 12e4 25ba 21a7 a13a 19ba aabc
00000050: 268e 33bc 6d81 b73b d54e 2639 a314 8b3a
00000060: 1441 8dbc 3e00 2c3c f3d2 16ba 73fa 4d3a
00000070: 02b4 dd3c 1746 d63c 8f33 c93c 830d 8fbc
00000080: bf4d 03bb babf ecbc 0103 213c 38db 2b3b
00000090: e05c 24bb 8dae 9ebb e7dd b2bc abcd 7f3a
000000a0: 8cac 0ebc d26f 5ebc 444e a03c 5a85 92bb
000000b0: f3d4 8cbb a027 dcba 59b1 18bb 4fb2 3abc
000000c0: c77a 46bc 251c a3bc b2cd 4d3c ff55 c93b
000000d0: 5bb3 bebc d677 b6bb 3f72 c0bc eedf 9ebc
000000e0: a7dc e6bc 1542 1637 721c fe3a 4309 493d
000000f0: 0799 53bc 5941 0fbb c36a 313b 4dbb 833c
00000100: d32b ce3c 60d9 5fbc 2479 913b f951 aebc
00000110: 2a68 05bd 4037 21bc aaa2 fbbb b9b3 84bc
00000120: 562b 10bb 273d 3c3b 59e9 133c 36dc 263b
00000130: 4919 04bc 1274 fb3c e7a7 ea3c c65d b3bc
00000140: 40f9 563c cb67 7d3c 0377 89bc b70c 463c
00000150: c679 493c 1a8a 05bb e45c 263c 5fee f43c
00000160: 9f0d 983b e7db c7bb 5784 acbc 1b10 35bb
00000170: 79ca 003c 5bcd 6d3c fa0d e0bc 650a 953b
00000180: 4a0b 613c 5d8d d4bc efa3 1bbb 9b9a 333d
00000190: 939b aa3a 7d02 bf3b 379b c53c c81c 97bc
000001a0: 87ff 53bc 5bc8 723c 98b9 15bc 8256 e239
000001b0: c5a4 783c 6351 c53c 7f64 ccbc 1103 08bd
000001c0: a1ba a33c 1854 663b 0fd5 9fbc 72aa f1bb
000001d0: a1da 89ba 9904 c03c 99f9 0abd 9516 eb3b
000001e0: 2d05 933b 985f 74bc 8123 843c 9edf 943b
000001f0: 4b12 1fbb 3541 abbc f1ba 893c 5fd2 663c
00000200: 704e e1bb 105a 11bc b88b ee3c fbb1 9cbc
00000210: 85b9 adbc 41a5 06bc 0680 28bd ea44 54bb
00000220: b0a4 98bc f750 ffba 421d e73c 0a40 3b3b
00000230: c7b3 493b eb19 29bb e989 a83c 57b9 33bc
00000240: afc8 833c 0769 b53c 938a 85bc 4179 213d
00000250: d1b5 18bc 2b77 be39 e0f5 483a 5a48 213a
00000260: 631b c23c c0cb d0bc 6519 9f39 b601 073a
00000270: c395 6839 5dbc f53c 93bf 813c 855d 773c
00000280: 8beb edbb 0db2 edbb 484c 59bc e8a4 38bb
00000290: 2a64 6b3c 846e c63c edb8 debc 505d e53c
000002a0: 9daa 453d 18eb 703c 57df d73a af6f 34bb
000002b0: 78f1 7d3c 70db 1bbd 5add 84bc cb36 b1bc
000002c0: b028 acbc aab9 053c 76dd 27bc 9f1a 2f3b
000002d0: 903c acbc 9bc2 883c c564 07bc 7678 093b
000002e0: 0dea 5cbc 6b06 55bc 5892 a7bb f070 1a3b
000002f0: 4add e73c 59e6 9b3c 2e9e 91bb 42a0 dd39
00000300: 4bd0 c4bb f780 0dbc f20c 6d3c 2206 f33c
00000310: aebe ccbb fa7e bebc 58bc 193d 0a3b d73c
00000320: 3738 063c cfb7 34ba 6a3c 72bc ad7a 8a39
00000330: 22f7 8bbb b9d3 47bb f265 93bc aa1f c63c
00000340: 6156 10bc 8280 d03c e378 453c ac6c 85bc
00000350: 4f75 dabb 03cb d3ba 9854 d0bc 5dfa edbb
00000360: 632e bdbc 33c7 31bc bc21 43bc ef46 65bb
00000370: 7b01 d1bc 7e72 023c 0b85 6dba 3566 e3bb
00000380: 35d9 14bd f069 da3c fe98 393c 03cb 5ebc
00000390: c729 873c 74f0 27bc fd7e d2ba ab3f 913c
000003a0: 7b6a 343d a886 1e3c d766 ad3c fb25 52bb
000003b0: c790 3c3b cdba 163c 2d29 fe3b eb53 fd3c
000003c0: b03b 3f3c 154c 97bc df2c dc3c 22c2 813c
000003d0: 8f31 f33c 7b76 ec3c 8f23 2f3c 7a5f 003d
000003e0: 3327 8abc 6e35 093d bb62 123c b13a b73b
000003f0: 2f8f b9ba 8b3c e4b9 4358 693d 8030 043c

action_model._continuous_distribution.mu.bias f4 [2]
0.0 0.0
00000000: 0000 0000 0000 0000

action_model._discrete_distribution.branches.0.weight f4 [1, 128]
-0.0071350387 0.011640142 0.0039285105 0.011885671 -0.009652587 -0.0041687978 0.0011545733 -0.0074030794
-0.0068074944 -0.008979091 -0.0010372318 -0.0034383114 -0.009550143 0.0110671725 -0.0121831605 -0.0023309418
0.0014697544 0.0036315043 -0.008713136 -0.0070030065 0.0022019362 0.008666888 0.00744801 -0.011032043
0.0038724428 -0.00020768923 -0.004531221 0.0064000017 0.001924453 0.0014680799 0.018608915 0.014195681
0.0058449632 0.006184378 -0.0047356016 -0.009169835 0.0070206844 0.005446025 -0.0017138406 -0.00610657
-0.0014984111 0.012603599 0.013088542 0.0044176714 0.0068275626 -0.008411205 0.009706228 0.0034404937
-0.016676715 -0.0012333476 0.00076529075 -0.0047166497 0.006290187 -0.0048392047 0.016313177 -0.0021529694
0.007586947 0.017268807 0.00738336 0.0030206633 -0.016379898 -0.016701907 0.004439446 0.0034195718
0.00747779 0.0038996346 0.0011430148 0.006376233 0.004207104 0.011622141 0.008755016 -0.0039833416
-0.011782956 -0.0051871543 0.0075037926 0.0063661695 -0.0054626744 0.014398605 0.01801957 0.01145922
0.008939763 0.0086715175 -0.015574599 0.0048651197 0.009142519 0.0027749462 -0.0052556344 -0.011049925
-0.010028069 -0.0033530411 0.0060542272 0.016959976 -0.012189149 -0.0023248247 -0.0025817375 0.009531079
0.0009154457 -0.0044665677 0.0055649867 0.0057664015 0.00073872984 -0.009241872 0.00016555727 0.0010202185
-0.002843323 0.009579299 -0.0023923197 0.0035715983 -0.0057829893 -0.0041983887 -0.010701935 0.0052695693
0.0076088468 -0.009817746 -0.008320252 -0.0028677692 -0.009096552 0.007396651 0.0064944807 -0.009305091
-0.002186209 0.0022928198 0.00043947218 -0.00063808385 0.0039105327 0.0040611965 -0.00017443144 -0.009371267
00000000: 0bcd e9bb 4bb6 3e3c bcba 803b 1ebc 423c
00000010: e225 1ebc 699a 88bb 0d55 973a 8895 f2bb
00000020: 6711 dfbb 0a1d 13bc b9f3 87ba 4b55 61bb
00000030: 3478 1cbc 1653 353c e19b 47bc b7c2 18bb
00000040: c6a4 c03a 88fe 6d3b 8bc1 0ebc 7a79 e5bb
00000050: 5c4e 103b 90ff 0d3c 700e f43b bebf 34bc
00000060: cfc8 7d3b 27c7 59b9 a37a 94bb 1bb7 d13b
00000070: ed3d fc3a 966c c03a b971 983c 0095 683c
00000080: 1b87 bf3b 53a6 ca3b 1b2d 9bbb 133d 16bc
00000090: c50d e63b 9274 b23b f3a2 e0ba 9f19 c8bb
000000a0: 5566 c4ba 537f 4e3c 5371 563c 1dc2 903b
000000b0: bfb9 df3b 27cf 09bc df06 1f3c e879 613b
000000c0: 9b9d 88bc 47a8 a1ba cb9d 483a 208e 9abb
000000d0: ea1d ce3b 3192 9ebb 36a3 853c d518 0dbb
000000e0: ed9b f83b 5077 8d3c 1df0 f13b 52f6 453b
000000f0: 232f 86bc 70d2 88bc c678 913b e51a 603b
00000100: 4008 f53b 0391 7f3b 36d1 953a b8ef d03b
00000110: bfdb 893b cb6a 3e3c 3371 0f3c b186 82bb
00000120: 4d0d 41bc 01f9 a9bb 60e2 f53b 4d9b d03b
00000130: 3c00 b3bb 20e8 6b3c c79d 933c 74bf 3b3c
00000140: 1578 123c fb12 0e3c 9a2c 7fbc 956b 9f3b
00000150: 81ca 153c dfdb 353b 7537 acbb bf0a 35bc
00000160: c54c 24bc b2be 5bbb 8a62 c63b a6ef 8a3c
00000170: ffb4 47bc 165c 18bb 5e32 29bb 3e28 1c3c
00000180: 85fa 6f3a 495c 92bb 7e5a b63b 15f4 bc3b
00000190: 52a7 413a 386b 17bc 7199 2d39 dab8 853a
000001a0: 0b57 3abb 7ef2 1c3c 77c8 1cbb 7a11 6a3b
000001b0: 3b7f bdbb a392 89bb 2b57 2fbc 5aac ac3b
000001c0: a253 f93b 9cda 20bc ab51 08bc 2ff1 3bbb
000001d0: b409 15bc 9b5f f23b a7cf d43b 6174 18bc
000001e0: 8046 0fbb 2243 163b f568 e639 1545 27ba
000001f0: ed23 803b c913 853b 95e7 36b9 f189 19bc
