results/test/Car_agent/Car_agent-1992.pt (torch, 163979 bytes, 13 tensors)

network_body._body_endoder.seq_layers.0.weight f4 [128, 19]
000000 4c 75 0c 3f 1a 7e f4 3d eb 7c 91 3d d4 49 8b be
       0.5486648 0.119381145 0.07103904 -0.27204764
000010 39 77 d6 bc ab 99 8a 3c c5 d0 45 be 0f f1 a6 bd
       -0.026179897 0.016918978 -0.1931792 -0.08151447
000020 fe 29 fd 3d 2e 70 7f 3e 5a f8 24 bd 2d f6 24 3e
       0.12361525 0.24945137 -0.04027591 0.16109534
000030 72 13 af bd 8f ae 49 be d3 54 95 be c0 1e 85 be
       -0.08548631 -0.19695495 -0.29166278 -0.26000023
000040 a6 0b 31 3e d4 02 b7 bd 02 c9 dd be fa fa ca 3d
       0.172896 -0.08936086 -0.4331742 0.09911151
000050 71 e7 ad bd 07 a3 4f be b5 7c 2c 3e c0 97 d7 3d
       -0.084914096 -0.20277034 0.16844447 0.10526991
000060 df 7c af 3e 91 d7 86 bd f2 f9 6b 3e cc 52 1a 3d
       0.34274957 -0.06584085 0.23044565 0.037676618
000070 a6 0b a0 bd f6 30 e9 3d a8 82 60 be 26 79 0a be
       -0.07814722 0.11386292 -0.21924841 -0.13522777
000080 8c 9a 29 3e 52 1a 20 3e 60 77 86 3e fe 8c aa bd
       0.16562861 0.1563504 0.2626295 -0.083276734
000090 17 e3 8e be 11 d6 ac be af a6 d3 3d b4 b0 4d be
       -0.2790763 -0.3375707 0.10334527 -0.20086938
0000a0 9f b2 27 bd 74 cc cf 3b 55 6e 55 be 0f 91 c2 be
       -0.04094183 0.0063415114 -0.2084287 -0.38001296
0000b0 62 2c 01 3f 91 7f 3a bd 88 43 1a be 21 a1 c1 3d
       0.5045835 -0.045531813 -0.15064824 0.09454561
0000c0 1f 65 0b 3d 3e dc 0e 3e 45 54 63 be 1a 2c a1 bd
       0.034031983 0.13951203 -0.22200115 -0.0786974
0000d0 27 d5 ad 3e e2 0d 8c 3e 3a e3 40 3e 20 5a 09 3e
       0.33951685 0.27354342 0.1883668 0.13413286
0000e0 d5 26 e9 3e 7c 56 73 3e 51 22 97 bb 36 76 8f 3d
       0.4553744 0.2376346 -0.004612245 0.07004969
0000f0 52 87 17 be 8b 30 95 3e 61 57 61 be f4 9e 8a be
       -0.14797714 0.29138598 -0.22005989 -0.27074397
000100 31 d4 1f bc ae ea 33 be ce df 01 bd b6 4e ef 3b
       -0.00975518 -0.17569992 -0.031707577 0.0073030842
000110 07 6c 28 3f 5f d8 e0 be 05 aa 83 3e 32 48 7e bd
       0.65789837 -0.43915078 0.25715652 -0.06208057
000120 84 66 1d be 11 72 91 3d 49 50 06 3d cc 06 c6 3e
       -0.15371138 0.071018346 0.03279141 0.3867706
000130 71 0e f2 3d 11 f0 d6 be 9f aa 2d bf bd f1 10 3e
       0.11819161 -0.4198003 -0.6783847 0.14154716
000140 b2 34 b7 bc 65 73 06 3e fa 1d 8b bc cb 60 96 be
       -0.022363994 0.13129957 -0.016982067 -0.29370722
000150 75 f7 d9 bd f9 9b cc 3e f8 94 83 bc 60 88 a1 be
       -0.10642902 0.39962748 -0.016062245 -0.31549358
000160 0f 1f 60 be 8d 7d f4 bd 13 21 63 3e 9a fb 36 3d
       -0.21886848 -0.119380094 0.22180586 0.04467354
000170 76 48 de 3c c3 8a 75 3e d1 cd e5 bd b3 19 24 3e
       0.027134161 0.23978715 -0.11220897 0.16025428
000180 70 ed 98 3d 72 43 fa 3e 92 b2 c4 3e 55 ef 51 3f
       0.074671626 0.48879582 0.38417488 0.82005817
000190 f5 54 c7 bd 02 28 1c 3e 37 24 10 3e e3 db 72 be
       -0.09733001 0.15249637 0.14076315 -0.23716693
0001a0 5f c0 d0 bd 89 7e 14 bf 3b 0a 03 be 47 0e f3 3d
       -0.10192942 -0.5800558 -0.12796871 0.118679576
0001b0 0c 61 dc bd 0c 06 dc be 7a 68 22 be b1 ed ac be
       -0.10760698 -0.42973363 -0.15860167 -0.33775094
0001c0 4c 21 72 3d c1 e8 b5 bd 8b 79 04 3d a0 59 91 3d
       0.059113786 -0.08882285 0.032342475 0.07097173
0001d0 68 6c d7 bd 25 e1 54 bd b6 c8 0a 3d f4 45 36 3e
       -0.10518724 -0.051972527 0.03388282 0.17800122
0001e0 53 55 32 bc a9 53 dc 3d a1 8c a8 3c 01 fe b6 3d
       -0.010884601 0.107581444 0.02057487 0.08935166
0001f0 5d fc 4d bd b0 10 f1 3d 5b 18 4f 3e 0e ce 2b 3e
       -0.0502895 0.11770761 0.20224135 0.16777822
000200 47 94 22 bf 2e 0c 93 bd 2f 95 3b 3c 56 3d eb bd
       -0.63507503 -0.071800575 0.011449142 -0.11486308
000210 38 8c d5 be f8 78 cf 3d 53 db 5d 3e 6d d0 c0 3c
       -0.4170854 0.10130495 0.21665697 0.023536885
000220 3a 45 d4 3d d6 bb 63 be 50 32 ca bd a5 44 a5 3d
       0.103647664 -0.22239622 -0.098728776 0.080697335
000230 fc 41 07 3e b0 03 fc 3d 4a 04 74 be 7a b0 b3 3e
       0.13208765 0.12305391 -0.23829761 0.35095578
000240 85 18 94 be 11 b7 b7 bd 11 3e 56 be a2 8e aa bd
       -0.28924957 -0.08970464 -0.20922114 -0.08327986
000250 7e 94 a5 3e 92 91 a9 bd 35 f3 c4 bb c9 e2 e1 3d
       0.32339853 -0.082797185 -0.006010438 0.11029584
000260 f3 78 e4 bd 14 21 3c be 2e 71 ef bd 64 e3 30 3d
       -0.11155882 -0.18371993 -0.11691509 0.043185607
000270 e6 7d 6d 3e 7a 39 64 3e 06 78 a0 3e e3 b0 e1 bc
       0.23192558 0.2228755 0.3134157 -0.027550166
000280 08 43 24 3d 47 c7 af 3d 2e e0 57 be 21 3d bc be
       0.04010299 0.08582931 -0.21081612 -0.36765388
000290 f9 2c c8 3d 61 90 47 3d 48 f1 83 3d b6 1c c0 3d
       0.09774203 0.048721675 0.06442505 0.09380476
0002a0 df fa a2 3c 86 13 3d bf cd 6d 50 3e b5 09 2b be
       0.019895015 -0.73857915 0.20354386 -0.16702922
0002b0 74 b6 9d be 96 6b 8c be 1f 05 eb 3d d8 97 81 3d
       -0.30803263 -0.27425832 0.11475586 0.0632779
0002c0 9b 42 e5 3a 61 8e b5 be e8 2a 58 be 04 40 fe be
       0.0017491163 -0.3546019 -0.21110117 -0.49658215
0002d0 3b 9d 94 3d 06 36 02 be 7f 2b 6c 3e c1 5a 06 3f
       0.07256552 -0.12715921 0.23063467 0.5248223
0002e0 d5 2f 23 bd 01 f8 38 3f 86 c3 41 3e 2e 17 1f bd
       -0.039840538 0.72253424 0.18922243 -0.038840465
0002f0 f2 9c 80 3e 56 df 70 3c 05 76 1a 3e 86 53 ad 3d
       0.2511974 0.014701685 0.15084083 0.084631965
000300 75 bd cd 3b 29 47 82 3e c1 be f8 bd 55 39 6d be
       0.0062786886 0.25444916 -0.121457584 -0.23166402
000310 c4 81 2e be 16 39 21 be e7 a7 24 3e 2e 4a 33 3e
       -0.17041689 -0.15744433 0.16079675 0.17508766
000320 10 d5 36 3b a3 cf 53 3e 44 fc 45 3e 9f 98 13 bd
       0.0027897991 0.20684676 0.19334513 -0.036034223
000330 e4 52 07 be 18 72 14 be 12 02 90 bd 8a be a3 3d
       -0.13215214 -0.14496648 -0.07031645 0.07995327
000340 09 73 fe 3c 73 c2 b4 3e e9 91 5d bc e5 43 d8 bb
       0.031060712 0.35304603 -0.013523557 -0.0065998905
000350 53 ff b6 3e b2 98 7d be fa 7c b5 3d bd 05 50 bb
       0.35741672 -0.2476528 0.08861728 -0.0031741702
000360 3c 89 23 3e fc 7f 15 bd 71 d8 44 bf 5b 59 72 3d
       0.1597032 -0.03649901 -0.76892763 0.059167247
000370 93 15 21 be ab 9a 43 3d 7b 11 1c be 98 fe bc 3c
       -0.15730886 0.047754925 -0.15241043 0.023070619
000380 e5 16 2a bc 8a 69 19 3d de 81 45 bd 22 e8 41 3c
       -0.010381435 0.037454166 -0.048219554 0.01183513
000390 39 a6 8c 3d e2 95 af bc 47 58 0c be da 36 59 3e
       0.06867642 -0.021433774 -0.1370555 0.2121233
0003a0 e2 59 dc bd 0a 79 cf 3c 1b 8f 25 3e 32 43 a5 3e
       -0.10759331 0.02532627 0.16167872 0.32277828
0003b0 60 57 a2 be f3 6a 28 bd e7 b9 5d 3e 04 a8 29 be
       -0.31707287 -0.04111762 0.21652947 -0.16567999
0003c0 9f 87 00 bf fd 5c 65 be f9 9e a7 bd a2 0e 9b bd
       -0.5020694 -0.22398753 -0.081846185 -0.0757115
0003d0 ba 40 e8 be 43 b4 1f bd d2 f6 fb 3d b3 41 c4 be
       -0.45361882 -0.03899027 0.123029366 -0.38331375
0003e0 0a d8 0f 3e 71 8a 2f bd cc 7f 6f 3e 02 79 1a be
       0.14047256 -0.042856637 0.23388594 -0.15085223
0003f0 4b fd 55 be 4f c1 41 be dd 60 04 be f9 6c 83 3d
       -0.20897405 -0.18921398 -0.12927575 0.06417269

network_body._body_endoder.seq_layers.0.bias f4 [128]
000000 00 00 00 00 00 00 00 00 00 00 00 00 00 00 00 00
       0.0 0.0 0.0 0.0
000010 00 00 00 00 00 00 00 00 00 00 00 00 00 00 00 00
       0.0 0.0 0.0 0.0
000020 00 00 00 00 00 00 00 00 00 00 00 00 00 00 00 00
       0.0 0.0 0.0 0.0
000030 00 00 00 00 00 00 00 00 00 00 00 00 00 00 00 00
       0.0 0.0 0.0 0.0
000040 00 00 00 00 00 00 00 00 00 00 00 00 00 00 00 00
       0.0 0.0 0.0 0.0
000050 00 00 00 00 00 00 00 00 00 00 00 00 00 00 00 00
       0.0 0.0 0.0 0.0
000060 00 00 00 00 00 00 00 00 00 00 00 00 00 00 00 00
       0.0 0.0 0.0 0.0
000070 00 00 00 00 00 00 00 00 00 00 00 00 00 00 00 00
       0.0 0.0 0.0 0.0
000080 00 00 00 00 00 00 00 00 00 00 00 00 00 00 00 00
       0.0 0.0 0.0 0.0
000090 00 00 00 00 00 00 00 00 00 00 00 00 00 00 00 00
       0.0 0.0 0.0 0.0
0000a0 00 00 00 00 00 00 00 00 00 00 00 00 00 00 00 00
       0.0 0.0 0.0 0.0
0000b0 00 00 00 00 00 00 00 00 00 00 00 00 00 00 00 00
       0.0 0.0 0.0 0.0
0000c0 00 00 00 00 00 00 00 00 00 00 00 00 00 00 00 00
       0.0 0.0 0.0 0.0
0000d0 00 00 00 00 00 00 00 00 00 00 00 00 00 00 00 00
       0.0 0.0 0.0 0.0
0000e0 00 00 00 00 00 00 00 00 00 00 00 00 00 00 00 00
       0.0 0.0 0.0 0.0
0000f0 00 00 00 00 00 00 00 00 00 00 00 00 00 00 00 00
       0.0 0.0 0.0 0.0
000100 00 00 00 00 00 00 00 00 00 00 00 00 00 00 00 00
       0.0 0.0 0.0 0.0
000110 00 00 00 00 00 00 00 00 00 00 00 00 00 00 00 00
       0.0 0.0 0.0 0.0
000120 00 00 00 00 00 00 00 00 00 00 00 00 00 00 00 00
       0.0 0.0 0.0 0.0
000130 00 00 00 00 00 00 00 00 00 00 00 00 00 00 00 00
       0.0 0.0 0.0 0.0
000140 00 00 00 00 00 00 00 00 00 00 00 00 00 00 00 00
       0.0 0.0 0.0 0.0
000150 00 00 00 00 00 00 00 00 00 00 00 00 00 00 00 00
       0.0 0.0 0.0 0.0
000160 00 00 00 00 00 00 00 00 00 00 00 00 00 00 00 00
       0.0 0.0 0.0 0.0
000170 00 00 00 00 00 00 00 00 00 00 00 00 00 00 00 00
       0.0 0.0 0.0 0.0
000180 00 00 00 00 00 00 00 00 00 00 00 00 00 00 00 00
       0.0 0.0 0.0 0.0
000190 00 00 00 00 00 00 00 00 00 00 00 00 00 00 00 00
       0.0 0.0 0.0 0.0
0001a0 00 00 00 00 00 00 00 00 00 00 00 00 00 00 00 00
       0.0 0.0 0.0 0.0
0001b0 00 00 00 00 00 00 00 00 00 00 00 00 00 00 00 00
       0.0 0.0 0.0 0.0
0001c0 00 00 00 00 00 00 00 00 00 00 00 00 00 00 00 00
       0.0 0.0 0.0 0.0
0001d0 00 00 00 00 00 00 00 00 00 00 00 00 00 00 00 00
       0.0 0.0 0.0 0.0
0001e0 00 00 00 00 00 00 00 00 00 00 00 00 00 00 00 00
       0.0 0.0 0.0 0.0
0001f0 00 00 00 00 00 00 00 00 00 00 00 00 00 00 00 00
       0.0 0.0 0.0 0.0

network_body._body_endoder.seq_layers.2.weight f4 [128, 128]
000000 5b 54 44 be c5 8c ed 3d 09 a0 e9 3d fa 7e 02 be
       -0.19172804 0.11599115 0.114074774 -0.1274375
000010 9e 9e 03 be 4a f4 3e bd 71 5d 20 bd 52 96 ce bd
       -0.12853476 -0.04661969 -0.039151613 -0.10087265
000020 3a d8 3a bd 93 9e e1 3d d9 ca ae 3b 16 fb 14 bd
       -0.045616366 0.11016574 0.00533424 -0.036372267
000030 3a 86 52 3e cd 7a 6b bd a2 17 0d 3d 7f f6 14 be
       0.20559016 -0.05749016 0.034446366 -0.14547156
000040 ec c3 c0 3d 6a 17 86 bc 98 93 10 bc 51 f7 52 bd
       0.09412369 -0.016368587 -0.008824252 -0.05150539
000050 19 b8 e9 3d bd 82 c1 bc 05 9d 8a bd 29 fd 89 3d
       0.11412067 -0.023621911 -0.0676823 0.067377396
000060 24 4d de bc 53 df 0a bd ed dd 08 3e a8 89 59 bd
       -0.027136393 -0.033904385 0.13365908 -0.053109795
000070 33 27 a5 bc c5 66 55 bd a4 c0 28 3d c6 eb 8b 3c
       -0.020160293 -0.05209996 0.04119934 0.017080199
000080 77 9d fd bd 19 4d f2 bd 2b 19 78 3b 8b 8b 08 3e
       -0.1238355 -0.118311115 0.0037856798 0.13334481
000090 92 7b 5a 3d 24 f5 4d 3d 98 dd 99 3d fa fb eb bd
       0.053340502 0.050282612 0.07512969 -0.1152267
0000a0 49 4c 09 be 74 b0 9e 3c 6f a9 b5 be 21 8d af ba
       -0.13408007 0.019371249 -0.3548083 -0.00133935
0000b0 a8 eb 16 be e9 06 24 bd b4 96 4e 3d d2 81 e4 3d
       -0.14738333 -0.040045653 0.05043669 0.11157574
0000c0 72 de 97 3d 4a 72 6c bd af da 91 3d 87 2f 39 3e
       0.07415475 -0.057726182 0.07121789 0.18084536
0000d0 05 72 72 3d 75 91 f8 3c 10 aa dd bc d3 b4 8a bc
       0.05919077 0.030342797 -0.027058631 -0.016931927
0000e0 c6 2d 39 bc 54 98 fb bd 25 a8 27 be d6 28 28 3d
       -0.011302417 -0.12284914 -0.16372736 0.04105457
0000f0 5f 0f b1 3b 92 f2 db 3d a5 79 ab bd 2e de 21 3d
       0.0054034437 0.10739626 -0.08372811 0.039518528
000100 2f 40 ef bd cc e1 14 3d 1e 64 b0 bd d9 13 07 be
       -0.11682164 0.03634815 -0.08612846 -0.13191165
000110 86 1f 32 3c 18 f2 95 b9 85 4b 08 bd 85 5e 56 3d
       0.010871774 -0.00028599869 -0.033275146 0.052336235
000120 17 17 ad 3b 23 f2 15 3e c7 25 86 3d 09 27 50 bd
       0.0052822935 0.14643149 0.06550174 -0.050818477
000130 9b cd 26 bd d9 c1 24 3d fa 34 30 3e 6a c6 c9 3c
       -0.040723424 0.04022393 0.17207709 0.024630744
000140 d9 93 93 3d c4 8e 3d bc 5a c2 3c be af 0f 24 bd
       0.07205934 -0.0115696825 -0.18433514 -0.04005402
000150 75 ce 0d 3e 73 45 b4 3c 62 99 ea bc bd 91 42 3d
       0.13848288 0.022005772 -0.028637592 0.047502268
000160 44 db b9 bd f7 a5 ef 39 db 24 b1 3c a4 c5 d9 3c
       -0.09075025 0.00045709286 0.02162402 0.0265835
000170 ce 8f 89 bd 3f ce 04 be 46 2e 9e 3c 83 7b a9 bd
       -0.06716882 -0.12969302 0.019309174 -0.08275511
000180 6b b2 e4 3a bf cd ca bd b9 09 dc bd 84 ad 36 3c
       0.0017448192 -0.09902524 -0.10744042 0.011149768
000190 de bb 9a ba e6 96 fc bc 59 3f 3b 3c 98 b3 1a 3e
       -0.0011805256 -0.030833673 0.0114286775 0.15107572
0001a0 ab 9c cc 3d 2c ea 99 bc 15 99 9d bb ee 6a d0 bd
       0.099908195 -0.01878842 -0.0048095086 -0.10176645
0001b0 b6 d9 2f 3c 72 99 a0 bc ee e0 28 3e d1 3b 31 bd
       0.010733059 -0.019604418 0.16492054 -0.043269936
0001c0 ff 9d 87 3d e7 13 91 3d 61 b9 e3 3c 2e 1c 34 3c
       0.06621932 0.07083874 0.027798356 0.010993047
0001d0 ae c9 1a 3d 19 13 c8 3d 73 53 c6 3c 1b 37 12 be
       0.037789993 0.097692676 0.024209714 -0.14278834
0001e0 fa 26 0d bd 38 3b df bd 0a 93 86 be 7a 6a fb bc
       -0.034461 -0.10899967 -0.26284057 -0.03069042
0001f0 d9 52 be 3c a7 f3 36 3d b5 93 44 3d b0 80 9e 3c
       0.023232864 0.04466596 0.047992427 0.019348472
000200 b4 22 16 bc dd f6 0f 3d 70 6a 0f be 96 0d 98 bd
       -0.009163547 0.035147537 -0.14005446 -0.07424466
000210 22 2a 36 bb 9c ab fb 3d 32 e2 03 bd 83 38 47 bd
       -0.002779611 0.12288591 -0.03219814 -0.04863788
000220 c2 44 98 3d 49 8c 1b bd 88 b0 67 3d 6c 64 38 bd
       0.074349895 -0.037975583 0.056564838 -0.045017645
000230 87 bf 1c 3e 13 55 1e bd 62 52 9b bc c4 d6 68 bd
       0.15307437 -0.03865535 -0.018960182 -0.05684544
000240 36 b2 d8 bd fe ce 5d bc aa cf 7c bd b6 cb e9 3c
       -0.10580866 -0.01353812 -0.06172148 0.02853952
000250 0a 78 6d 3e fb 7f dd 3d b0 c7 bf 3d f7 ee 0d 3e
       0.23190323 0.10815426 0.09364259 0.13860689
000260 06 45 97 3d 5f 7c d7 3d bb ae 65 3c 54 48 5a 3d
       0.07386212 0.10521769 0.01401871 0.053291634
000270 c5 7a cb 3d 06 df 16 3d c0 c1 70 bd 47 66 4f be
       0.09935526 0.036833785 -0.058778524 -0.2025386
000280 f7 32 84 bd 91 92 4f 3d 4d c2 cd bc 96 8e 4c bd
       -0.06455033 0.050676886 -0.025117064 -0.049940668
000290 f1 da af 3c 1d 77 98 3d fb 0f 37 be b7 cb 7d bd
       0.021466704 0.07444594 -0.1787719 -0.061961856
0002a0 1a cd b0 bd 8f c5 03 3c f4 22 4b bd bd c6 4e be
       -0.0863287 0.008042707 -0.04959388 -0.20193
0002b0 ff fc 26 bd e0 e1 70 3b a0 c6 13 3c c4 c4 3d 3c
       -0.04076862 0.0036755726 0.009019524 0.011582557
0002c0 5f f7 77 3d f0 ef 3f 3d 93 b9 a2 ba 09 d8 c6 bc
       0.060538646 0.04685968 -0.0012414925 -0.024272935
0002d0 f0 d1 0a be 19 f8 dc bc c5 2c 01 be 9a b1 e4 bc
       -0.13556647 -0.026973771 -0.12614734 -0.027916718
0002e0 6c 82 2a bd 78 c3 14 3e 82 6c 81 bd c3 37 65 3d
       -0.041628286 0.1452769 -0.06319524 0.05596138
0002f0 d6 15 19 3e a6 ca 25 3e 72 9e 69 bd d2 43 fd bc
       0.14949736 0.16190585 -0.05703587 -0.030916128
000300 17 d3 a1 bc 4f 76 1e bd 38 9e 9b 3d 18 8b 31 3e
       -0.019753976 -0.038687047 0.07598537 0.17338216
000310 46 f2 87 3d d9 8d 71 bd ad 52 00 be 5d 02 46 bd
       0.06638007 -0.058973167 -0.12531538 -0.048342098
000320 ba 8d 1d 3d f6 ae 16 3e 22 e8 bb 3c bb 6b 82 bd
       0.03846524 0.1471518 0.022937838 -0.06368204
000330 0d 6c 83 bd f8 52 87 bb 04 5f 5f 3d 02 9b c4 3d
       -0.064170934 -0.0041297637 0.054533973 0.09599878
000340 c3 d1 b9 bd 53 36 c7 3d b7 2b 18 3c 85 8a af 3d
       -0.09073212 0.097271584 0.009287766 0.085713424
000350 a7 6a 3a 3d 1a 43 b5 3c de e7 ff 3c da 47 95 bc
       0.045511868 0.022126723 0.031238493 -0.018222738
000360 8d 54 0b 3e c6 3e 0d 3b 7e ea fe bd 87 fa 03 bd
       0.13606472 0.0021552308 -0.124470696 -0.032221343
000370 e0 49 a2 3d f3 2c 80 bb fa bb 44 3d 7b f9 34 3d
       0.07924247 -0.0039116084 0.04803083 0.044183236
000380 70 94 b4 3d ca 41 af bd d2 b8 ad 3b ee 0c 53 3c
       0.08817375 -0.0855747 0.0053015733 0.012881501
000390 38 f8 a9 3c 75 fb 66 3d 1d f8 0c 3d 5a 7a 7a 3d
       0.020748243 0.05639215 0.034416307 0.06115184
0003a0 23 c3 43 3b 28 12 9c 3d 18 c1 91 3d ef 6e 8c bd
       0.002987095 0.076206505 0.07116908 -0.068570964
0003b0 1d 1b d2 bd fc d1 ea bd 61 3c 37 3b b3 7a 23 be
       -0.10259078 -0.114658326 0.0027959573 -0.15964775
0003c0 6b 15 60 3d 02 66 4d 3d 45 16 73 3d 17 3a 34 be
       0.054707926 0.05014611 0.05934741 -0.17600285
0003d0 a2 e7 4a 3b ab d3 a1 bd ff 73 fa bd 2f a6 e5 3d
       0.0030960818 -0.079017006 -0.12229156 0.11213338
0003e0 f5 f8 bb bd ef 14 63 3c ed 8e 9e bd f4 ea e5 bd
       -0.09178344 0.013859971 -0.07742105 -0.112264544
0003f0 75 60 d2 bc ea 14 22 3d 5e 36 16 bd 21 a0 88 bd
       -0.02568076 0.039570726 -0.036672942 -0.06671167

network_body._body_endoder.seq_layers.2.bias f4 [128]
000000 00 00 00 00 00 00 00 00 00 00 00 00 00 00 00 00
       0.0 0.0 0.0 0.0
000010 00 00 00 00 00 00 00 00 00 00 00 00 00 00 00 00
       0.0 0.0 0.0 0.0
000020 00 00 00 00 00 00 00 00 00 00 00 00 00 00 00 00
       0.0 0.0 0.0 0.0
000030 00 00 00 00 00 00 00 00 00 00 00 00 00 00 00 00
       0.0 0.0 0.0 0.0
000040 00 00 00 00 00 00 00 00 00 00 00 00 00 00 00 00
       0.0 0.0 0.0 0.0
000050 00 00 00 00 00 00 00 00 00 00 00 00 00 00 00 00
       0.0 0.0 0.0 0.0
000060 00 00 00 00 00 00 00 00 00 00 00 00 00 00 00 00
       0.0 0.0 0.0 0.0
000070 00 00 00 00 00 00 00 00 00 00 00 00 00 00 00 00
       0.0 0.0 0.0 0.0
000080 00 00 00 00 00 00 00 00 00 00 00 00 00 00 00 00
       0.0 0.0 0.0 0.0
000090 00 00 00 00 00 00 00 00 00 00 00 00 00 00 00 00
       0.0 0.0 0.0 0.0
0000a0 00 00 00 00 00 00 00 00 00 00 00 00 00 00 00 00
       0.0 0.0 0.0 0.0
0000b0 00 00 00 00 00 00 00 00 00 00 00 00 00 00 00 00
       0.0 0.0 0.0 0.0
0000c0 00 00 00 00 00 00 00 00 00 00 00 00 00 00 00 00
       0.0 0.0 0.0 0.0
0000d0 00 00 00 00 00 00 00 00 00 00 00 00 00 00 00 00
       0.0 0.0 0.0 0.0
0000e0 00 00 00 00 00 00 00 00 00 00 00 00 00 00 00 00
       0.0 0.0 0.0 0.0
0000f0 00 00 00 00 00 00 00 00 00 00 00 00 00 00 00 00
       0.0 0.0 0.0 0.0
000100 00 00 00 00 00 00 00 00 00 00 00 00 00 00 00 00
       0.0 0.0 0.0 0.0
000110 00 00 00 00 00 00 00 00 00 00 00 00 00 00 00 00
       0.0 0.0 0.0 0.0
000120 00 00 00 00 00 00 00 00 00 00 00 00 00 00 00 00
       0.0 0.0 0.0 0.0
000130 00 00 00 00 00 00 00 00 00 00 00 00 00 00 00 00
       0.0 0.0 0.0 0.0
000140 00 00 00 00 00 00 00 00 00 00 00 00 00 00 00 00
       0.0 0.0 0.0 0.0
000150 00 00 00 00 00 00 00 00 00 00 00 00 00 00 00 00
       0.0 0.0 0.0 0.0
000160 00 00 00 00 00 00 00 00 00 00 00 00 00 00 00 00
       0.0 0.0 0.0 0.0
000170 00 00 00 00 00 00 00 00 00 00 00 00 00 00 00 00
       0.0 0.0 0.0 0.0
000180 00 00 00 00 00 00 00 00 00 00 00 00 00 00 00 00
       0.0 0.0 0.0 0.0
000190 00 00 00 00 00 00 00 00 00 00 00 00 00 00 00 00
       0.0 0.0 0.0 0.0
0001a0 00 00 00 00 00 00 00 00 00 00 00 00 00 00 00 00
       0.0 0.0 0.0 0.0
0001b0 00 00 00 00 00 00 00 00 00 00 00 00 00 00 00 00
       0.0 0.0 0.0 0.0
0001c0 00 00 00 00 00 00 00 00 00 00 00 00 00 00 00 00
       0.0 0.0 0.0 0.0
0001d0 00 00 00 00 00 00 00 00 00 00 00 00 00 00 00 00
       0.0 0.0 0.0 0.0
0001e0 00 00 00 00 00 00 00 00 00 00 00 00 00 00 00 00
       0.0 0.0 0.0 0.0
0001f0 00 00 00 00 00 00 00 00 00 00 00 00 00 00 00 00
       0.0 0.0 0.0 0.0

action_model._continuous_distribution.log_sigma f4 [1, 2]
000000 00 00 00 00 00 00 00 00
       0.0 0.0

action_model._continuous_distribution.mu.weight f4 [2, 128]
000000 67 7a f0 bc 0b b2 8d 3c e0 7d 6f 3c 52 68 cd bc
       -0.029355241 0.017296812 0.014617413 -0.025074158
000010 bf fa d5 b9 25 f7 97 39 8f e0 a9 3a ef dc 8f 3b
       -0.00040813346 0.000289851 0.00129606 0.004390351
000020 e3 61 69 bc 33 0f 28 3b d7 5f 21 3d 06 96 bb 3c
       -0.014244529 0.0025643825 0.03939804 0.022898685
000030 29 6c 2d bd d2 5e 06 3d 59 14 19 3c 6d e1 df 3c
       -0.042339478 0.03280527 0.00934323 0.027329171
000040 6b 86 b4 bb 57 a4 cc ba 3d 5f b1 bc 8d 1a dd bc
       -0.005509188 -0.0015612942 -0.021651858 -0.0269902
000050 22 d8 67 3a c7 54 43 3c aa 2c e0 bc c7 9f 0e bd
       0.0008844157 0.011922068 -0.027365047 -0.034820344
000060 31 38 b3 3a 77 af a7 bb 7d 34 92 bc 63 7a 83 3c
       0.0013673363 -0.0051173526 -0.017847294 0.01604957
000070 42 36 f8 bc bd 0a df bc 2a aa b6 bb 20 14 24 bb
       -0.03029931 -0.0272268 -0.0055744844 -0.002503641
000080 7b 3f 47 3c 2f ce 69 bb 6b 07 a9 bc e7 e0 52 3b
       0.012161131 -0.0035675874 -0.02063342 0.003217751
000090 af 11 92 bc a2 7f ea 3b c3 6c 1f bc 3b ed 84 bb
       -0.017830698 0.0071563283 -0.009730521 -0.0040566004
0000a0 00 72 d5 bc c8 47 e1 bc 63 f8 25 bd 8f b7 c3 3a
       -0.026055336 -0.027500048 -0.040520083 0.0014932024
0000b0 02 2f 9d 3c 68 47 0b ba 53 cc 34 3d 3b df 17 3c
       0.019187454 -0.00053130696 0.04414017 0.009269531
0000c0 58 d6 42 3d bf 6f 80 3c 4e 88 49 bc 3e f9 3f 3b
       0.047567695 0.015678285 -0.012300564 0.0029292847
0000d0 8b 3a 7d bc df b5 db 3c 40 12 e6 bb d4 31 b5 bb
       -0.015455852 0.026820121 -0.0070212185 -0.0055296216
0000e0 62 23 5c 3c f2 99 f4 3c 59 a4 26 bc 3f 50 84 bc
       0.01343617 0.029858563 -0.0101710195 -0.016151546
0000f0 42 1d b6 3b 40 b1 a0 bc b2 45 9a bc 7b 45 04 bd
       0.005557687 -0.01961577 -0.018832061 -0.032292824
000100 f3 9d 29 bc 18 8c e9 3b ae 1c 95 bc c7 46 12 3c
       -0.010352599 0.007127296 -0.018202152 0.008928007
000110 93 22 e9 bc f3 a2 6d bc 07 fb bc 3b a6 cd c5 ba
       -0.02845887 -0.014504182 0.0057672295 -0.0015091195
000120 f7 9b 54 38 8e e3 ad bc 2d 73 56 ba dd 45 1a 3c
       5.0689992e-05 -0.02122667 -0.00081806147 0.009416071
000130 13 70 88 bc 04 1c 9a 3c 0f 58 ed bc c0 c8 03 bc
       -0.016655004 0.018812187 -0.028972654 -0.008043468
000140 07 23 63 3a 27 a7 a3 3b b1 a8 a4 bb 19 d3 9a bc
       0.0008664582 0.0049942913 -0.0050249924 -0.018899487
000150 4d ba 1e bc 0d 08 f4 bc 3e a6 9f bc 16 f2 9e 3b
       -0.009687972 -0.029788995 -0.01948845 0.0048506362
000160 53 b8 80 bb 25 34 a2 bc 1a ea d3 bb bb a2 51 ba
       -0.003928223 -0.019800255 -0.006467116 -0.0007996966
000170 ab 2d 83 bc 8f d6 2e bc 5f d2 f2 bc 7f 92 45 bb
       -0.016012987 -0.010671272 -0.029641328 -0.0030147133
000180 88 1a 62 bc 0b f6 bd 3b 0d 9d d1 3c ec e8 9d 3c
       -0.013800271 0.005797153 0.025587583 0.019276105
000190 c8 69 f9 bc b7 f8 5e bc 73 45 8f b9 fa 41 cc bb
       -0.030445948 -0.013609103 -0.0002732683 -0.006233451
0001a0 05 cb fc 3b 53 41 a6 bc 30 d5 a7 3c 1d 79 f2 37
       0.0077146315 -0.02029482 0.020487398 2.8905046e-05
0001b0 68 82 ee bc b9 71 93 3c a3 34 92 3c d4 32 8c bc
       -0.029114917 0.017998563 0.017847365 -0.01711408
0001c0 b4 ac 14 3d c7 b8 89 bb 41 52 06 bd 63 60 e2 3b
       0.036297515 -0.0042029354 -0.032793287 0.006908463
0001d0 4f a1 af bc 63 71 ab bc 26 c0 ae bc c3 3e f4 3c
       -0.021439223 -0.02092809 -0.021331858 0.029815083
0001e0 f7 23 53 3b 47 e2 3e bb 77 be 43 bc f5 b7 66 bb
       0.0032217482 -0.002912657 -0.011947266 -0.0035204862
0001f0 f8 7e ef 3c bf 57 bc bb 81 0c 43 3c 33 c5 de bb
       0.029235348 -0.005747765 0.011904837 -0.0067984103
000200 e8 b0 b4 ba 9f 31 49 3d 49 b7 bc bc 4f d8 01 bd
       -0.0013785632 0.049119588 -0.023036616 -0.03170043
000210 4f ae ed 3b 71 77 1f 3b e3 bf b8 3c b8 3b c6 3b
       0.007253445 0.0024332667 0.022552436 0.0060495995
000220 d8 0f 23 bb a3 bb b1 bc 25 dc bf bb 0f 25 57 bc
       -0.002488127 -0.021695917 -0.0058551007 -0.013131394
000230 5a fa 1f 3d 0f 07 16 bc 4e d8 01 bc 7b e6 2e bb
       0.039057113 -0.009156956 -0.007925106 -0.002668767
000240 bf 54 52 bb c7 1a 04 bd 93 13 91 bb ef b7 20 3b
       -0.003209397 -0.0322521 -0.0044273823 0.0024523695
000250 e0 56 59 bc 2f d0 26 3c 98 53 86 bc 73 20 8e bc
       -0.0132653415 0.010181471 -0.016397282 -0.017349457
000260 1c 52 1d 3c 98 71 c1 bc 6b 3d cd 39 63 88 3b bc
       0.009602096 -0.023613736 0.00039146407 -0.011446091
000270 3e 35 04 bd bf 2d 03 bc a0 d9 5d 3b 74 16 13 bc
       -0.03227734 -0.008006512 0.0033851638 -0.008977521
000280 8c cd 1a 3c dc 57 bd bc 9d 96 fb 3a 05 94 67 3c
       0.00944842 -0.023113184 0.0019194667 0.014134412
000290 a8 56 1d bb fa 90 30 3d 10 36 11 bc a3 ca a5 38
       -0.002400795 0.04310701 -0.008862987 7.905557e-05
0002a0 69 a0 8b 3b 77 db a5 bb 20 e0 18 3d eb c5 f2 3b
       0.0042610657 -0.0050615626 0.037323117 0.0074088476
0002b0 b0 ef 78 3b 76 d3 32 3c 23 a3 d2 bb 8f 07 81 3c
       0.0037984662 0.010914674 -0.006428139 0.015750675
0002c0 fd 5e 58 bc 5a 0f 74 3c f2 01 db 3b 9f f9 5c 3c
       -0.013206241 0.014896238 0.0066835815 0.013487249
0002d0 63 06 84 3c 6b 6e 89 3c c3 a5 df 3c 33 74 93 bc
       0.016116327 0.016776284 0.027300721 -0.017999744
0002e0 1f ed a5 3c a5 c3 74 3c 8a 83 89 3b 9d f0 fd bb
       0.02025467 0.014939223 0.004196589 -0.0077496306
0002f0 cd d6 15 3c 32 31 b7 3b b7 d6 a1 bb 7b 1d 3d 3c
       0.009145451 0.0055905813 -0.004938926 0.011542673
000300 ce 89 b9 3c 81 e6 84 bc 35 a7 d5 3b d0 b2 38 bc
       0.022648718 -0.016223194 0.006520177 -0.011273101
000310 ae b0 3c bc 35 62 b6 3a ce dc 8b 3b 66 99 0c 3c
       -0.011516733 0.0013914766 0.0042682653 0.008581495
000320 73 6e 98 bb fd cf 6f bc 37 27 95 3c 50 ec 3d bc
       -0.0046518384 -0.014636991 0.018207176 -0.011591986
000330 cc f3 4a bc 37 2e 69 bc 17 ed 26 3d 4b d4 0e bd
       -0.012387227 -0.01423221 0.04075345 -0.034870427
000340 2b 3e 8b bc e0 f1 f2 3c ba c7 b7 3c 03 72 50 3c
       -0.016997417 0.02965635 0.022434104 0.012722495
000350 75 b7 03 3b f0 fb 65 bc af c3 4c 3b 66 50 a6 3b
       0.0020098363 -0.014037117 0.0031244566 0.005075502
000360 3b 3f 5f 3c 27 b8 50 bd 6b 00 4a 3c 02 f1 6c ba
       0.013625915 -0.05095687 0.012329201 -0.00090385985
000370 73 c2 ab bc 57 8b 42 bc da c4 c0 3c fc cb a9 bc
       -0.020966744 -0.0118740415 0.023531366 -0.02072715
000380 63 01 92 3b aa b0 bf 3c 6e ad 41 bb ce 71 91 bc
       0.0044557317 0.02339967 -0.0029552835 -0.017754462
000390 71 9f 03 bd 8b 4a f5 3c 57 3e 6d bb cb f7 ec 3b
       -0.032134477 0.029942771 -0.0036200488 0.0072316877
0003a0 9a 08 c6 3c e2 e0 78 bc 94 71 2f bb cb 06 6f 3c
       0.024174023 -0.015190335 -0.0026770579 0.014589022
0003b0 69 fb 2c 3c 7b 74 2c bc f0 46 b9 3b bb 90 11 3b
       0.010557988 -0.010525818 0.0056542084 0.002221151
0003c0 c4 1b ad bc f7 2d 3a bb 11 d4 8b bc a2 5b 16 3b
       -0.021131404 -0.0028408745 -0.017068895 0.00229428
0003d0 2f a7 ee 3c 75 c8 8b bc 53 1a 4c 3c c7 02 4a bc
       0.029132454 -0.017063359 0.012457448 -0.012329764
0003e0 6e ec c6 bc 33 35 3a 3c f6 d0 24 bc fa a5 b1 bc
       -0.02428266 0.011365223 -0.010059586 -0.02168559
0003f0 ec 37 a2 3c d0 7a 8a bc cf 46 93 bc 1f f4 7f ba
       0.019802056 -0.016904265 -0.0179781 -0.0009763855

action_model._continuous_distribution.mu.bias f4 [2]
000000 00 00 00 00 00 00 00 00
       0.0 0.0

action_model._discrete_distribution.branches.0.weight f4 [1, 128]
000000 e3 ee a3 bb 72 6a eb 3b 4d 33 83 bc 3f c0 d3 3b
       -0.0050028428 0.00718432 -0.016015673 0.0064621265
000010 aa 4b 00 3c c6 a2 9d bc ef 0b db 3b 17 a1 bc bc
       0.00783054 -0.019242655 0.006684772 -0.023026032
000020 c6 c4 80 3c 3b 28 0a 3b 4b cf 50 3a b3 e6 86 3b
       0.015718829 0.0021081108 0.00079654594 0.004116857
000030 a5 2e 34 bc 7f 6b 8f 3b c9 3e 0c 3b eb ec a5 3b
       -0.010997449 0.004376828 0.0021399728 0.005063643
000040 8b 0b 5d bc 0f f5 4a ba 0b d6 75 bc ce 25 16 3b
       -0.013491522 -0.0007742205 -0.015004645 0.0022910717
000050 aa 97 34 3b f0 35 4d 3b bf b2 ca bb b2 c7 d3 bb
       0.002755622 0.0031312667 -0.006185859 -0.0064630145
000060 30 d0 54 39 63 ab 2c bc a7 a4 95 bb 28 2c 88 ba
       0.00020295451 -0.010538909 -0.004566747 -0.0010389136
000070 4e 4a 0d 3c eb 11 55 bc 1c ac 45 3b eb 5a 6a bb
       0.008623673 -0.01300476 0.00301624 -0.0035759758
000080 82 fe ce 3b 86 1c 02 3a 7a dc 90 3b 47 bc cc 3a
       0.006316961 0.0004963357 0.004420814 0.0015620076
000090 ca 48 d8 3b be 02 44 3b 94 a8 8d 3b 3a 05 34 bc
       0.006600474 0.002990886 0.0043230746 -0.010987574
0000a0 db ac 61 bb 78 ff e6 3b bf 2e 4b bc 05 ad ec b9
       -0.0034435305 0.007049497 -0.012401282 -0.00045142337
0000b0 34 bb a2 bb 3f f5 2c bc 95 e3 41 3b df 25 2c bb
       -0.004966164 -0.010556518 0.0029585112 -0.002626769
0000c0 9c 1b 93 3c dd cd 57 bc 7a 6c 08 3b f2 bd 8e b9
       0.017957501 -0.01317164 0.002081661 -0.0002722587
0000d0 b0 05 46 bc b0 71 26 bc ed be ef 39 f3 a8 48 bb
       -0.012086317 -0.010158941 0.00045727883 -0.003061828
0000e0 ab 27 06 bb c4 75 b9 3b ab 2a a0 bc 8e 84 92 3c
       -0.0020470421 0.0056597907 -0.019551596 0.017885473
0000f0 74 ac 83 3c 83 35 15 3b 1b fc 17 bc 48 7f ee 39
       0.016073443 0.0022767491 -0.009276415 0.0004548973
000100 a5 22 be bb e3 16 10 3b 87 7d 57 bc b5 57 7b 3b
       -0.00580247 0.0021986298 -0.013152487 0.0038351838
000110 35 65 06 bc 08 34 cf bb ba c0 7d bc 0f 50 98 3b
       -0.008202841 -0.0063233413 -0.015487844 0.0046482156
000120 ed ec 4c bc c2 b2 3b 3b 79 e3 b4 bb 43 a4 f3 bb
       -0.012507659 0.0028640484 -0.005520281 -0.007435353
000130 e7 9f a2 bb dc 18 b5 3b db 55 29 bb 14 97 1b bc
       -0.0049629095 0.005526645 -0.0025838527 -0.009496469
000140 f7 ac bf 3a 40 f1 40 bb 95 fc 54 3a 73 a5 3b bc
       0.0014623691 -0.0029440671 0.0008124796 -0.01145302
000150 09 64 92 bc f8 01 05 3c 6c 63 93 bb 47 02 b7 3c
       -0.017869966 0.008118145 -0.004497936 0.022339953
000160 e0 d8 3c bb 87 eb eb bb b0 a5 fc bb 6b 75 54 bc
       -0.002881579 -0.007199708 -0.007710181 -0.012967448
000170 93 28 9c bb 07 3e 00 3c a5 ac aa bb b0 76 36 bc
       -0.004765579 0.0078272885 -0.005208569 -0.011136696
000180 b4 ac bd 3c e2 12 2f 3a 0f f2 b0 bb e0 5f 16 3b
       0.02315364 0.0006678534 -0.0053999494 0.002294533
000190 e2 26 07 bc 24 a2 24 3b e3 85 7f bb 67 33 72 3c
       -0.0082490165 0.0025121057 -0.0038989715 0.014782763
0001a0 4d e4 df bb 7d 93 d4 bb c6 44 97 3c 5a 42 d2 3a
       -0.0068326355 -0.0064873085 0.01846541 0.0016041503
0001b0 07 25 1a 3c ca 9f 58 bc 83 69 8d bb 05 94 54 bb
       0.009408242 -0.01322169 -0.0043155565 -0.003243686
0001c0 48 1d 6a 3c 8f b0 fe 3b 7c 51 9b 3b 45 2c 08 bc
       0.014289208 0.0077725123 0.0047399383 -0.008311336
0001d0 c0 b8 25 3c ab e3 a0 ba 2a 4b 68 3c 0f 15 98 bb
       0.010114849 -0.0012274882 0.014178077 -0.0046411823
0001e0 73 32 29 bb 92 23 28 bc 06 5e 97 3b 92 7b 55 b9
       -0.0025817424 -0.010262387 0.0046193628 -0.00020359296
0001f0 ca 23 07 bb d3 22 39 bc c8 24 a5 3b dd 05 ac bb
       -0.0020620697 -0.011299807 0.005039785 -0.0052497224

network_body._body_endoder.seq_layers.0.weight f4 [128, 19]
000000 5f 69 02 be 22 52 09 3e bd 51 01 be c4 a2 82 be
       -0.12735508 0.13410237 -0.12628837 -0.25514805
000010 e6 2e 8b 3e 0e df 30 3e 34 21 24 3e 38 44 f1 bd
       0.27184218 0.17272589 0.16028291 -0.1178059
000020 a4 70 85 3e 6b d9 41 be c2 a7 96 3e dc b4 d7 3d
       0.260625 -0.18930595 0.29424864 0.10532543
000030 2b 6b c6 be 95 e0 85 be bb ff 5a be 05 d3 52 3e
       -0.38753638 -0.26147905 -0.21386616 0.2058831
000040 24 80 60 be 29 c3 bf be 2a e2 c4 3e 27 67 80 3e
       -0.21923882 -0.37453583 0.384538 0.250787
000050 fd 26 64 bd 7e 14 02 bc b5 b9 85 3e bd 62 3b 3d
       -0.055701245 -0.007939456 0.26118246 0.04574846
000060 da b6 8c 3d f9 8c 1b be 93 cf 8e be 4d d8 9a be
       0.06870814 -0.15190496 -0.27892742 -0.3024315
000070 5c 57 26 bc 41 c6 92 be 8b f3 40 3e 66 b6 5f be
       -0.010152664 -0.2866688 0.18842904 -0.21846923
000080 61 b2 41 bd dd 72 5b 3b 9c eb 32 3c 31 07 28 3e
       -0.047289256 0.0033485212 0.010920431 0.16408993
000090 35 24 37 be b7 1e ee bc 2c 04 dd 3d 62 37 18 be
       -0.17884906 -0.02906738 0.10791811 -0.14864877
0000a0 ff 39 94 be c7 12 aa 3c 4b 88 35 3a a4 1c 91 3e
       -0.28950498 0.020760907 0.0006924911 0.28342164
0000b0 27 69 bc be 43 39 c7 be 49 88 10 bf 98 35 6b bd
       -0.36798975 -0.38910875 -0.56457955 -0.057424158
0000c0 cd 4b 07 be bb a0 89 be b0 47 97 3e bb 88 84 3d
       -0.1321251 -0.2688044 0.2954688 0.06471392
0000d0 a7 4f e3 3c c6 34 5f be 51 78 80 3e 70 35 71 3e
       0.027747942 -0.21797475 0.25091794 0.23555541
0000e0 ec 85 8f 3e 58 5d a5 be ac a7 c4 bd 9f c9 ee bd
       0.28031862 -0.32297778 -0.09602293 -0.1165955
0000f0 39 a6 aa 3d 7f 25 54 3e f5 0e 03 3e 17 59 8a bd
       0.08332486 0.20717429 0.12798674 -0.06755274
000100 05 c7 d6 3e 03 14 ce bd 7b 00 f0 be bf 8b cc 3d
       0.41948715 -0.10062411 -0.46875367 0.09987592
000110 88 bf c3 3b f0 b2 88 be fb b8 52 3e 11 fd d1 be
       0.00597376 -0.26699018 0.20578377 -0.41013387
000120 7b 24 31 be 47 dc e0 bd cc e4 67 be be 02 ab 3e
       -0.17299072 -0.109795146 -0.22645873 0.3340053
000130 71 3e 02 be 59 05 c2 3e 31 ef 28 3b 7a e4 bb 3e
       -0.12719132 0.37894705 0.0025777335 0.3669775
000140 09 74 18 bd ae bc 1f 3d b3 4e 91 bd 73 51 88 3e
       -0.037220035 0.0389983 -0.07095089 0.2662464
000150 57 ea 0d 3e e8 70 97 3e 3a e5 bf be 6a d2 68 3d
       0.13858925 0.29578328 -0.37479573 0.05684129
000160 b0 55 64 be 74 b6 03 3e d8 bb 82 3d de 43 73 3d
       -0.22298312 0.12862569 0.063834846 0.059390895
000170 15 ea 3d be 6d c2 84 be 8d 8e 01 3e fd 9c a7 bc
       -0.18546326 -0.25929585 0.12652035 -0.0204606
000180 fb 63 93 be b0 92 e9 bb 3e b6 b7 bd 74 e0 88 be
       -0.28787217 -0.007128082 -0.08970307 -0.26733744
000190 da 9d 71 3e be a5 e7 3e bc 9d 37 3e 66 8d 55 3e
       0.23595372 0.4524364 0.17931265 0.2085472
0001a0 21 aa d1 3c e5 92 34 be 0c b7 67 3e 31 33 c6 3e
       0.02559382 -0.17634161 0.2262842 0.3871093
0001b0 93 df 42 3e 98 73 a4 bd 9f 6d 85 be fa 87 16 be
       0.190306 -0.0802986 -0.26060197 -0.14700308
0001c0 21 3e 80 bd 7b 92 b2 3e 6b 92 34 bc 4f 68 e3 be
       -0.0626185 0.3487738 -0.011021237 -0.4441552
0001d0 e9 6c b2 be b7 01 a2 3c 80 60 b1 bc c7 32 57 3e
       -0.34848717 0.019776208 -0.02165246 0.21015464
0001e0 a9 d0 9e bd 72 72 1c 3d db 20 8f be fc d0 6f be
       -0.077546425 0.03819508 -0.27954754 -0.23419565
0001f0 54 69 70 3e 91 ba 6d 3d 7d b8 2f 3e 0e 1e 3b be
       0.2347768 0.05803925 0.1716022 -0.18273184
000200 26 1c fe 3d de d5 f6 be f3 77 9e be 21 f2 7f be
       0.12407713 -0.48210043 -0.3095089 -0.24994709
000210 02 11 05 be a0 b6 bb be 66 4f 1c be 4f a6 1c 3c
       -0.12994769 -0.3666277 -0.15264663 0.009561135
000220 e7 13 13 3e a5 75 46 be 51 a7 d7 be 25 fe db bd
       0.14363061 -0.19380815 -0.4211984 -0.107418336
000230 48 2d 87 be a8 1e a3 3d 3f dc 27 3d 4e a8 e9 bd
       -0.26401734 0.079648316 0.040981527 -0.11409055
000240 f9 65 69 3e 2e f0 7d be 40 98 0b 3e 89 c1 14 be
       0.22792806 -0.24798653 0.13632298 -0.14526953
000250 1a 97 1b 3e 1d dc cd 3c 8d c7 84 be 11 fd 2f 3c
       0.1519436 0.025129372 -0.25933495 0.010741488
000260 df c8 be be 85 44 98 3e 0d a9 f9 be b3 74 da bd
       -0.37262627 0.29739776 -0.48761788 -0.1066679
000270 cd 8a 72 be b5 80 af 3d ed 04 51 bf 4f e3 8a be
       -0.23685761 0.08569471 -0.8164814 -0.27126548
000280 f6 b6 90 bd 57 26 95 3d 4b 1d 47 3d 8b db 6f 3e
       -0.07066147 0.07282703 0.04861192 0.23423593
000290 89 29 8d bd 0a 03 ee bd 0e b8 15 be d1 a6 72 3d
       -0.06892688 -0.116216734 -0.14620993 0.05924112
0002a0 4a b9 e5 bc c6 a0 99 be 97 7b 2c 3c e5 5f 01 3e
       -0.028042454 -0.30005473 0.010527513 0.12634237
0002b0 27 f8 80 be 63 ee 0f be 5c 61 4c be c0 75 b5 3d
       -0.25189325 -0.14055781 -0.19959015 0.0886035
0002c0 06 02 37 bd fb 98 af be 48 a8 10 3e 69 38 a4 be
       -0.044679664 -0.34296402 0.14126694 -0.32074288
0002d0 47 4f 0d be 5c e5 3c be 21 7a 94 bc 48 da ea be
       -0.13799773 -0.18446869 -0.018124642 -0.4586966
0002e0 00 ef 15 3e 02 55 ae 3d 61 89 dd be a1 81 90 be
       0.14641953 0.08512308 -0.43268874 -0.282239
0002f0 d7 9a d8 3a 28 9d c5 3d 59 6d f5 3d f0 64 a3 3b
       0.0016525638 0.09649116 0.11983747 0.004986398
000300 23 94 14 3e c4 da 11 be ab dd d8 3c 46 77 40 3e
       0.14509635 -0.14243609 0.026472887 0.18795499
000310 ab 52 96 3d dd 59 df bd d1 52 1b 3f 35 06 aa 3e
       0.073399864 -0.10905812 0.6067324 0.3320786
000320 05 0a e4 3c 2c a0 54 3e fd 2d 4d 3d f7 5e 3a bc
       0.027836809 0.20764226 0.050092686 -0.01137518
000330 58 eb 05 3c 0e 13 00 be 4b c3 10 be 11 2c 07 3e
       0.008173786 -0.12507269 -0.14136998 0.13200404
000340 7f 73 7b 3d 81 a0 90 3d 8d 89 cc 3e b6 1c 3a 3e
       0.061389443 0.07061864 0.39948693 0.18175015
000350 19 d9 b2 bd 4f 3b bd be 7a 16 9a be 67 cf 67 3d
       -0.08732814 -0.3695931 -0.30095273 0.05659428
000360 b1 ed 14 bd 91 2f 1a be 1c 4a b5 3e 53 73 23 3e
       -0.036359493 -0.15057208 0.35408103 0.15961961
000370 ef 6a 2c be 19 a5 36 3e 59 59 2f 3c 85 38 d6 be
       -0.16837667 0.17836417 0.0107024545 -0.41839996
000380 78 c2 85 3e b4 5a d6 be 3e e9 3c be 0a 24 48 3e
       0.2612493 -0.41866076 -0.1844835 0.19544998
000390 28 c9 3d 3e ab c4 c8 be 29 7c a7 bd f1 7f 4b 3e
       0.18533766 -0.39212546 -0.081779785 0.19873025
0003a0 4e 0e f3 bd 94 06 a3 bd ee a5 7a 3e 7c bd c5 bd
       -0.11867963 -0.07960239 0.2447736 -0.09655282
0003b0 01 c5 1f 3d 09 ac cb 3d bc 4a 08 3d 01 08 27 3c
       0.039006237 0.099449225 0.033274397 0.010194779
0003c0 2b cf 9f be 28 77 8b be f6 97 90 be d4 98 93 3e
       -0.31212744 -0.27239347 -0.28240937 0.28827536
0003d0 bb b9 04 be c9 a8 57 be ba 27 01 3e 34 02 f7 3d
       -0.12961476 -0.2106048 0.1261281 0.12060967
0003e0 16 7c 31 3e 96 56 25 3c 4d 4a d7 bd 1d 91 03 3e
       0.17332491 0.0100914445 -0.105122186 0.12848325
0003f0 82 66 9a be 54 e7 bc 3e 88 23 8c be a7 ca 3e be
       -0.30156332 0.3689524 -0.27370858 -0.18631993

network_body._body_endoder.seq_layers.0.bias f4 [128]
000000 00 00 00 00 00 00 00 00 00 00 00 00 00 00 00 00
       0.0 0.0 0.0 0.0
000010 00 00 00 00 00 00 00 00 00 00 00 00 00 00 00 00
       0.0 0.0 0.0 0.0
000020 00 00 00 00 00 00 00 00 00 00 00 00 00 00 00 00
       0.0 0.0 0.0 0.0
000030 00 00 00 00 00 00 00 00 00 00 00 00 00 00 00 00
       0.0 0.0 0.0 0.0
000040 00 00 00 00 00 00 00 00 00 00 00 00 00 00 00 00
       0.0 0.0 0.0 0.0
000050 00 00 00 00 00 00 00 00 00 00 00 00 00 00 00 00
       0.0 0.0 0.0 0.0
000060 00 00 00 00 00 00 00 00 00 00 00 00 00 00 00 00
       0.0 0.0 0.0 0.0
000070 00 00 00 00 00 00 00 00 00 00 00 00 00 00 00 00
       0.0 0.0 0.0 0.0
000080 00 00 00 00 00 00 00 00 00 00 00 00 00 00 00 00
       0.0 0.0 0.0 0.0
000090 00 00 00 00 00 00 00 00 00 00 00 00 00 00 00 00
       0.0 0.0 0.0 0.0
0000a0 00 00 00 00 00 00 00 00 00 00 00 00 00 00 00 00
       0.0 0.0 0.0 0.0
0000b0 00 00 00 00 00 00 00 00 00 00 00 00 00 00 00 00
       0.0 0.0 0.0 0.0
0000c0 00 00 00 00 00 00 00 00 00 00 00 00 00 00 00 00
       0.0 0.0 0.0 0.0
0000d0 00 00 00 00 00 00 00 00 00 00 00 00 00 00 00 00
       0.0 0.0 0.0 0.0
0000e0 00 00 00 00 00 00 00 00 00 00 00 00 00 00 00 00
       0.0 0.0 0.0 0.0
0000f0 00 00 00 00 00 00 00 00 00 00 00 00 00 00 00 00
       0.0 0.0 0.0 0.0
000100 00 00 00 00 00 00 00 00 00 00 00 00 00 00 00 00
       0.0 0.0 0.0 0.0
000110 00 00 00 00 00 00 00 00 00 00 00 00 00 00 00 00
       0.0 0.0 0.0 0.0
000120 00 00 00 00 00 00 00 00 00 00 00 00 00 00 00 00
       0.0 0.0 0.0 0.0
000130 00 00 00 00 00 00 00 00 00 00 00 00 00 00 00 00
       0.0 0.0 0.0 0.0
000140 00 00 00 00 00 00 00 00 00 00 00 00 00 00 00 00
       0.0 0.0 0.0 0.0
000150 00 00 00 00 00 00 00 00 00 00 00 00 00 00 00 00
       0.0 0.0 0.0 0.0
000160 00 00 00 00 00 00 00 00 00 00 00 00 00 00 00 00
       0.0 0.0 0.0 0.0
000170 00 00 00 00 00 00 00 00 00 00 00 00 00 00 00 00
       0.0 0.0 0.0 0.0
000180 00 00 00 00 00 00 00 00 00 00 00 00 00 00 00 00
       0.0 0.0 0.0 0.0
000190 00 00 00 00 00 00 00 00 00 00 00 00 00 00 00 00
       0.0 0.0 0.0 0.0
0001a0 00 00 00 00 00 00 00 00 00 00 00 00 00 00 00 00
       0.0 0.0 0.0 0.0
0001b0 00 00 00 00 00 00 00 00 00 00 00 00 00 00 00 00
       0.0 0.0 0.0 0.0
0001c0 00 00 00 00 00 00 00 00 00 00 00 00 00 00 00 00
       0.0 0.0 0.0 0.0
0001d0 00 00 00 00 00 00 00 00 00 00 00 00 00 00 00 00
       0.0 0.0 0.0 0.0
0001e0 00 00 00 00 00 00 00 00 00 00 00 00 00 00 00 00
       0.0 0.0 0.0 0.0
0001f0 00 00 00 00 00 00 00 00 00 00 00 00 00 00 00 00
       0.0 0.0 0.0 0.0

network_body._body_endoder.seq_layers.2.weight f4 [128, 128]
000000 4b 35 f0 39 80 ee 7d 3d e1 c8 19 3d af e5 dc bd
       0.00045816074 0.06199503 0.03754509 -0.10785996
000010 4e 65 1e bc 0c e4 32 bc 83 79 05 be 11 4f 48 3e
       -0.009667708 -0.010918628 -0.13034634 0.19561411
000020 f7 66 8d bd 5b e1 0d be db ad 51 3d 3f d7 1a bc
       -0.069044046 -0.13855498 0.051191192 -0.009450733
000030 06 77 6d bc 86 ce bf bd b8 2e 30 bd 5e 40 58 3e
       -0.014493709 -0.09365563 -0.043013304 0.21118304
000040 c4 09 c8 3c cf 2d 8d bd af c5 5a 3d 2f c9 d1 bd
       0.02441872 -0.06893503 0.053411182 -0.10243451
000050 39 1b 37 3e 9f f7 8d 3a d3 c5 4f ba b8 85 37 3d
       0.17881478 0.0010831243 -0.00079259014 0.04480526
000060 59 9d b7 bc 8c 86 16 3d ff 7a 9d bd 2a c1 e7 3d
       -0.022413896 0.036749408 -0.07689475 0.1131614
000070 d3 58 95 3c ca 8a 65 bc dc 5a 87 3d 7b 29 ad bd
       0.018230831 -0.014010141 0.06609127 -0.084551774
000080 49 73 59 bd 00 c2 85 3a 5e 62 f8 3d 28 7d 4c bd
       -0.05308846 0.0010204911 0.12128137 -0.049924046
000090 b1 19 b5 bd d3 b0 99 3c 52 90 69 bd 56 f8 91 bc
       -0.08842791 0.018761074 -0.0570224 -0.017818611
0000a0 76 9b ee bd 3e e1 ff 3d 70 8d 35 bd 1a 71 d3 3b
       -0.116507456 0.124941334 -0.04432434 0.0064526917
0000b0 3f 37 2a bc 4a b2 d9 bd 27 c9 0a 3e 2c 89 05 be
       -0.010389148 -0.10629709 0.13553296 -0.13040608
0000c0 3d 98 2a 3e f7 e0 3d 3e 05 25 1e be fd b5 86 bd
       0.16659637 0.18542849 -0.1544381 -0.0657768
0000d0 8c d3 ab bd fd 66 70 be aa f3 c9 bc 6a bc ee bd
       -0.08389959 -0.23476787 -0.02465232 -0.11657031
0000e0 34 e4 84 bd 8a 1b 95 bb 9a 0c d0 3d df 18 04 3c
       -0.06488839 -0.004550402 0.101586536 0.00806257
0000f0 84 d4 3c bc 10 cf 77 3d ff b9 49 bd f4 23 39 ba
       -0.011525277 0.060500205 -0.049249645 -0.00070625474
000100 30 20 ec bd e0 7a ae bc 1a 21 a5 bd f9 8b c8 bc
       -0.11529577 -0.021298826 -0.08062954 -0.024480807
000110 7b 0d b8 bd c1 0c 5f bd 5f 71 a3 3c a1 3b 5c bd
       -0.08986946 -0.054455522 0.01995152 -0.053767804
000120 fe 66 01 be e6 3e b6 bd d6 0d d9 bd 16 64 ad 3d
       -0.12636945 -0.08898716 -0.10598342 0.084663555
000130 a8 0e 5b 3c 35 fa f4 3d 40 ab 3d 3d ea 25 e6 bc
       0.013370194 0.11961786 0.046305895 -0.02809425
000140 d4 c8 41 3d a3 9c ff bc d4 21 c5 bd 83 06 19 3d
       0.047310665 -0.03120262 -0.09625593 0.037359726
000150 aa db 0a be 7b 19 0d be 3e cc 24 bb a8 d2 44 3d
       -0.13560358 -0.13779251 -0.0025146152 0.04805246
000160 b7 ba 5c bc 2c 41 d0 bd 14 e0 81 3d 07 eb f7 3b
       -0.013472251 -0.101686805 0.06341568 0.0075658592
000170 47 be 30 3d 41 00 88 3d cc ee da bd 59 38 cb 3c
       0.043150213 0.066406734 -0.10690078 0.024807142
000180 11 51 1b 3d 3b e4 14 3c c8 a6 08 bd e2 c7 01 be
       0.037919108 0.0090876175 -0.03336218 -0.12673905
000190 8b f0 ef 3c fe f6 b4 3d 7b 39 3a bc ce 3b 4a 3d
       0.029289505 0.088361725 -0.0113662435 0.04937344
0001a0 e6 37 7d bd 70 97 dd bd 04 63 ed bc f9 ef 45 bd
       -0.061820887 -0.108199 -0.028977878 -0.04832456
0001b0 b3 48 86 be 83 79 04 bc e3 e6 91 3c 62 8a 4c bc
       -0.2622734 -0.008085611 0.01781029 -0.012484165
0001c0 8a 51 a1 bc f6 1b 8a 3d c2 04 bb 3c c2 d3 f9 3d
       -0.019692201 0.067436144 0.022829417 0.12198593
0001d0 73 d6 13 3e f3 08 9f 3d 18 67 3d 3e e4 a4 16 3e
       0.14437275 0.07765379 0.18496358 0.14711338
0001e0 61 6d e9 3d b1 e1 01 3d 68 1f c8 3b d6 bf 88 3c
       0.113978155 0.031709377 0.0061072595 0.016693037
0001f0 55 f5 4d bd 40 90 46 ba 76 02 d5 3d b2 bb a0 3d
       -0.050282795 -0.00075745955 0.1040086 0.078483
000200 80 a6 c0 bc e7 c3 ad 3d 07 f3 55 bd 9d 1e 0b 3e
       -0.023516893 0.08484631 -0.052233722 0.13585897
000210 96 e1 7d 3d a9 8f 8a bc 17 e8 03 3e ad b7 26 bd
       0.061982714 -0.016914206 0.12881504 -0.04070251
000220 a2 c0 2a 3c 32 8a 00 3d da 9e 8e bd 90 28 bf 3d
       0.010421904 0.031381793 -0.06963892 0.093339086
000230 e6 01 0d bd 13 cf b0 3d ee d4 65 3c bb e8 a4 3d
       -0.03442564 0.08633246 0.014027817 0.08052202
000240 4f d3 bc bd 35 22 ac 3d a9 dc 82 bd 22 11 9d bc
       -0.092199914 0.08404962 -0.06389744 -0.019173209
000250 b3 ad 70 3d 7c 04 04 be 88 ab d5 bd 61 9a fc bd
       0.058759402 -0.12892336 -0.104331076 -0.12334133
000260 11 b4 66 3c 3a 77 bb bd b1 66 8f 3a 0c aa b1 3d
       0.014081017 -0.091536 0.0010940639 0.08675012
000270 6f 9e 58 3e 7e 0b 22 3c 09 5b 12 bd 84 75 09 3d
       0.21154188 0.009890435 -0.03573135 0.033559337
000280 99 e2 b1 bc 97 91 9f 3d 42 70 a9 bd 13 02 89 3b
       -0.021714495 0.07791441 -0.082733646 0.0041811555
000290 f5 4e 0d be fe c8 0f ba 6f 2e 13 bd d2 61 41 bb
       -0.13799651 -0.0005484967 -0.035932954 -0.0029507768
0002a0 b4 be 14 3d e3 1e b7 bc 8b 0c 20 be 5c bb 7d bd
       0.03631468 -0.022353595 -0.15629785 -0.061946258
0002b0 1f 69 0d bc fc 85 31 3e 5f 8a 1d 3d b6 65 9a 3c
       -0.00863102 0.17336267 0.03846204 0.018847328
0002c0 11 70 be 3d a1 62 4b bd 65 45 d9 bd 4b 58 29 3e
       0.09298719 -0.049654607 -0.10608939 0.16537587
0002d0 a3 74 57 bd ba 26 f3 bc 8e 34 b1 bd 0a 99 ce 3d
       -0.052601468 -0.029681552 -0.08652602 0.10087784
0002e0 42 21 0d be 8f 73 26 bd 94 98 2c 3c 49 75 80 bb
       -0.13782218 -0.04063755 0.010534424 -0.0039202315
0002f0 23 70 e3 3d c4 84 24 bc e6 a3 41 bd 63 72 d3 bd
       0.11105373 -0.010041419 -0.047275446 -0.10324552
000300 10 3a 10 bd b6 25 d8 3d 74 bc 80 3c f8 61 19 be
       -0.035211623 0.10554068 0.015714861 -0.14978778
000310 46 08 96 3d 7b 5b ff bb 42 1a 2a bc 65 1c 2b bd
       0.07325797 -0.0077928877 -0.010382237 -0.041775126
000320 a1 e0 8e 3d 8d 7b 8e 3d ea c4 a7 3c da 0a 9a 3d
       0.06976438 0.06957159 0.020479638 0.07521601
000330 4d 21 4b bc 06 73 40 bd e6 b1 80 3c 1e 3e d2 3c
       -0.012398076 -0.046984695 0.015709829 0.025664385
000340 f3 2c 1d be 59 cb f3 bd 65 d3 94 bd ac e8 94 3d
       -0.15349178 -0.1190402 -0.07266883 0.07270941
000350 13 82 9a 3c c3 e7 e4 3b e3 7f b2 bd fc 22 61 be
       0.018860852 0.006985636 -0.08715799 -0.21986002
000360 e7 08 d1 bd 9e fd ff 3c 60 54 0a 3c 76 05 da bc
       -0.10206776 0.031248864 0.008442968 -0.026613932
000370 47 2d 21 3e f7 ed de 3d b9 bc 2e 3d 26 a3 4a bd
       0.15739928 0.10885232 0.04266045 -0.049471997
000380 ac 8b 6a bc 20 fa d7 bc c9 4c d5 bc 9d 00 9c bd
       -0.014315527 -0.026364386 -0.02603759 -0.076173045
000390 08 3c 85 3d 14 98 67 3d 64 34 e9 bc 1d 9a dc 3d
       0.06505591 0.056541517 -0.028467365 0.10771582
0003a0 fb 84 ee bd 09 45 03 3e 63 e4 6c bd 73 72 3f be
       -0.11646458 0.12819304 -0.057834994 -0.18696003
0003b0 e1 be a1 bd 1a 54 cc bd 1f 7d 20 bd 93 96 24 bd
       -0.078977354 -0.099769786 -0.039181825 -0.04018266
0003c0 35 ce 1b 3d 6e 9f ee bd 5c df ae 3d ab 3c 17 be
       0.03803845 -0.116515025 0.08538696 -0.14769237
0003d0 6b bb 66 3d 81 b4 10 bc d5 cd b5 bd 2c df da 3d
       0.05633108 -0.008832098 -0.0887715 0.10687098
0003e0 be 36 7d 3c 08 ed 5e bc 0a 3e 09 be 43 0d 18 bd
       0.015454946 -0.013606317 -0.13402572 -0.037122022
0003f0 64 96 7e bd 4b b3 88 3d 82 6a 36 3a 7e df 6e 3d
       -0.062155142 0.066748224 0.000695862 0.058318608

network_body._body_endoder.seq_layers.2.bias f4 [128]
000000 00 00 00 00 00 00 00 00 00 00 00 00 00 00 00 00
       0.0 0.0 0.0 0.0
000010 00 00 00 00 00 00 00 00 00 00 00 00 00 00 00 00
       0.0 0.0 0.0 0.0
000020 00 00 00 00 00 00 00 00 00 00 00 00 00 00 00 00
       0.0 0.0 0.0 0.0
000030 00 00 00 00 00 00 00 00 00 00 00 00 00 00 00 00
       0.0 0.0 0.0 0.0
000040 00 00 00 00 00 00 00 00 00 00 00 00 00 00 00 00
       0.0 0.0 0.0 0.0
000050 00 00 00 00 00 00 00 00 00 00 00 00 00 00 00 00
       0.0 0.0 0.0 0.0
000060 00 00 00 00 00 00 00 00 00 00 00 00 00 00 00 00
       0.0 0.0 0.0 0.0
000070 00 00 00 00 00 00 00 00 00 00 00 00 00 00 00 00
       0.0 0.0 0.0 0.0
000080 00 00 00 00 00 00 00 00 00 00 00 00 00 00 00 00
       0.0 0.0 0.0 0.0
000090 00 00 00 00 00 00 00 00 00 00 00 00 00 00 00 00
       0.0 0.0 0.0 0.0
0000a0 00 00 00 00 00 00 00 00 00 00 00 00 00 00 00 00
       0.0 0.0 0.0 0.0
0000b0 00 00 00 00 00 00 00 00 00 00 00 00 00 00 00 00
       0.0 0.0 0.0 0.0
0000c0 00 00 00 00 00 00 00 00 00 00 00 00 00 00 00 00
       0.0 0.0 0.0 0.0
0000d0 00 00 00 00 00 00 00 00 00 00 00 00 00 00 00 00
       0.0 0.0 0.0 0.0
0000e0 00 00 00 00 00 00 00 00 00 00 00 00 00 00 00 00
       0.0 0.0 0.0 0.0
0000f0 00 00 00 00 00 00 00 00 00 00 00 00 00 00 00 00
       0.0 0.0 0.0 0.0
000100 00 00 00 00 00 00 00 00 00 00 00 00 00 00 00 00
       0.0 0.0 0.0 0.0
000110 00 00 00 00 00 00 00 00 00 00 00 00 00 00 00 00
       0.0 0.0 0.0 0.0
000120 00 00 00 00 00 00 00 00 00 00 00 00 00 00 00 00
       0.0 0.0 0.0 0.0
000130 00 00 00 00 00 00 00 00 00 00 00 00 00 00 00 00
       0.0 0.0 0.0 0.0
000140 00 00 00 00 00 00 00 00 00 00 00 00 00 00 00 00
       0.0 0.0 0.0 0.0
000150 00 00 00 00 00 00 00 00 00 00 00 00 00 00 00 00
       0.0 0.0 0.0 0.0
000160 00 00 00 00 00 00 00 00 00 00 00 00 00 00 00 00
       0.0 0.0 0.0 0.0
000170 00 00 00 00 00 00 00 00 00 00 00 00 00 00 00 00
       0.0 0.0 0.0 0.0
000180 00 00 00 00 00 00 00 00 00 00 00 00 00 00 00 00
       0.0 0.0 0.0 0.0
000190 00 00 00 00 00 00 00 00 00 00 00 00 00 00 00 00
       0.0 0.0 0.0 0.0
0001a0 00 00 00 00 00 00 00 00 00 00 00 00 00 00 00 00
       0.0 0.0 0.0 0.0
0001b0 00 00 00 00 00 00 00 00 00 00 00 00 00 00 00 00
       0.0 0.0 0.0 0.0
0001c0 00 00 00 00 00 00 00 00 00 00 00 00 00 00 00 00
       0.0 0.0 0.0 0.0
0001d0 00 00 00 00 00 00 00 00 00 00 00 00 00 00 00 00
       0.0 0.0 0.0 0.0
0001e0 00 00 00 00 00 00 00 00 00 00 00 00 00 00 00 00
       0.0 0.0 0.0 0.0
0001f0 00 00 00 00 00 00 00 00 00 00 00 00 00 00 00 00
       0.0 0.0 0.0 0.0
