results/test/Car_agent/Car_agent-11205.pt (torch, 497796 bytes, 39 tensors)

network_body._body_endoder.seq_layers.0.weight f4 [128, 23]
00000000: 8740 ab3e ac4c afbe e124 553e e712 c53d
00000010: 27b0 253f 576c 943c 8822 103e 1b98 953e
00000020: dd93 1a3e 0791 dabe c74f 9ebe 04b0 ddbd
00000030: a764 e03d 2761 60bb e2c1 8abe 88ad 14be
00000040: 8935 183e ad38 35be 16f1 1ebe 68aa 1bbb
00000050: 9b08 57be 3014 6b3e 6c5c 86be 18a7 c5bd
00000060: 5175 b63e 555e c23e 452a 983e bec1 10be
00000070: fb38 d33d e839 a53d 68b7 4fbe 2b0f 343e
00000080: ada2 963e de6d febd 2823 ac3d 5119 ffbd
00000090: 6618 16bd 5ad4 7a3c 6bf6 f4be 46ea 36be
000000a0: 5aa5 90be 67ad cabe 4199 413e a71d 193d
000000b0: b427 713e ef46 7fbd c0a9 32be aa18 c83d
000000c0: fa65 4a3e 1994 f23d d336 b3bb 58e2 70bd
000000d0: b16b ae3b 71be 203e ce68 1b3e 525c dc3d
000000e0: f7e9 a1be 2a14 1cbe 0983 c33d 7999 593d
000000f0: 54c9 74be ef8b 2dbb 0f64 1fbe e12f 8d3e
00000100: 7ecb a7be 556f 68bd 1b85 88be a93d 043e
00000110: 5f29 59bd 379c 063e fa73 af3e 0532 6a3e
00000120: bc8c 4c3e 3a14 fc3d f5b8 873d 92c6 5c3e
00000130: c92c b83c 92c5 623e 2d87 a8be 8cbf a5bd
00000140: df9d 80bd 88d4 e63e b491 6f3d e4f6 d23d
00000150: e6e6 ee3d fcc6 103e 83a0 443d 1f2a acbd
00000160: aece 8dbe d6f2 ff3d 7a37 953e 7e8e d13e
00000170: 5cf7 8b3d 5170 16be 26f1 433d b0c4 583c
00000180: 17c1 863d 8aeb 5fbe 7b97 14be a7f0 d23c
00000190: 1458 4bbb 41e9 43be 98fa cabd 88c8 37be
000001a0: 7489 183d 92d5 3f3e 61ae b53d fd51 3a3e
000001b0: ea5c f1bd 1e46 e63d f416 febb 66c1 b4bd
000001c0: 15b9 713e 9c53 043d 1129 1abe 06b1 7dbe
000001d0: 832b 1dbd 8f75 823d 173e cd3d 1e70 463e
000001e0: 3884 a4be ac20 17bd dc29 8a3e 0851 f2bd
000001f0: 7fde 10be 2d8e 2d3e 84f5 283e 2d3a a2bd
00000200: 9d3a c53e 1bb1 0dbe a2c2 223f 8823 f2bd
00000210: 20dc 0e3e 7c6e 09be 444a 90bd 7b71 a83d
00000220: 6e66 1fbe 8433 4fbd 5f7d 203e 325f 10bf
00000230: 15d1 c2bc b7c9 193c d15f f2bd dd9e 80bd
00000240: f34f 9ebd 0091 df3d e713 123e 7436 2f3c
00000250: 3d4e cf3e dca0 ff3d 4c2c b1be a94c 633e
00000260: 6dac 46be f3e8 d9be 1162 61be add0 47be
00000270: 9b15 bebd aaa0 e4bd 21d4 8f3d 201f b9bd
00000280: 1d8d 6e3e 8412 39bd 5657 68be af0a 6bbe
00000290: fc45 4bbe 16bd 9dbc eb52 32bd a993 c33e
000002a0: eaa6 753b 3e16 98be dd24 7bbe a3e5 9fbd
000002b0: d37d 58be 185f 1a3c 5acc 55be 0728 63bc
000002c0: ad22 143e 805a 823e c0b1 233e 50f2 87bc
000002d0: 79f8 bfbd 46e8 dcbd 4993 09be 0b2c 88bc
000002e0: 522c 3abd 99a6 adbd 3961 00bc 0b8d 683e
000002f0: 62fd d4be 3b33 573e 0c81 003e b2c5 3abe
00000300: 3195 503e 486d 813e c9ce 84bc d53c d3be
00000310: 9fca ddbe ec97 0cbd a984 7abd d75a f8ba
00000320: c15e 91bb dece 47be 438f 573e 354b c3bd
00000330: 2c76 6e3e b9f5 613e eebe 01be 0276 fdbe
00000340: 5c06 123e 0e89 993e 6a9c 893e 4ffd c53d
00000350: f8b5 033e 1b9b 113e cce4 443e 2d7c 07bd
00000360: edf2 b439 6e38 f9bd e88d 9ebe 3cdb 5c3d
00000370: 3fa1 f1bc a4d1 1ebe afab a5bd 86f5 683c
00000380: 9602 b33d 325a cebd a80e 043d fc20 14bf
00000390: c8c9 90be dcd7 f1bd 6f8e 78bd 42bf 1fbe
000003a0: 440b cf3d e8a9 13bd c0f9 bdbe 815a 21bd
000003b0: a26d 43bd 305e e53e 98c0 033e 8440 12be
000003c0: 1a69 f23d 803d 62be 6580 c2bd 5de0 1c3e
000003d0: 2c86 2abe 555d 14bd 126b d2bd b261 8dbd
000003e0: b8e0 93bd 3786 debe 9905 5cbe 00e1 04be
000003f0: 13de 57be 5dd5 613e 2ab1 963c 516d 96bd
0.33447668 -0.34238183 0.2081485 0.09622746 0.6472191 0.018118067 0.14075673 0.2921761
0.15095468 -0.42688772 -0.3092024 -0.10824588 0.10956698 -0.0034237595 -0.27101046 -0.14519322
0.14864172 -0.17697401 -0.15521654 -0.0023752693 -0.20999376 0.2295692 -0.26242387 -0.09651011
0.3563638 0.37962595 0.2971975 -0.14136407 0.103136025 0.08067685 -0.20284808 0.17583911
0.29420987 -0.12423299 0.08405143 -0.124560006 -0.036644362 0.015309418 -0.47844252 -0.17862806
-0.28251153 -0.3958542 0.18906118 0.037381794 0.23550302 -0.062323507 -0.17447567 0.09770329
0.19765463 0.11844654 -0.005469182 -0.05880961 0.0053228964 0.15697648 0.15176699 0.10759796
-0.31623814 -0.15242067 0.09546477 0.05312488 -0.23904926 -0.0026481112 -0.15565513 0.2757559
-0.3277244 -0.0567468 -0.2666405 0.12914146 -0.05301797 0.13145529 0.3426817 0.22870643
0.19975561 0.123085454 0.06627075 0.21560124 0.022482293 0.2214568 -0.3291563 -0.08093175
-0.062801115 0.45084023 0.058488563 0.10300997 0.11665134 0.14138407 0.04800464 -0.084064715
-0.27696747 0.12497489 0.29143888 0.40929025 0.068342894 -0.14691283 0.0478374 0.013230488
0.06579798 -0.21867195 -0.1451091 0.025749518 -0.003102784 -0.19131948 -0.09911078 -0.1794759
0.03724046 0.18733814 0.08871151 0.18195339 -0.117853 0.112438425 -0.007754201 -0.0882595
0.2360576 0.0323063 -0.15054728 -0.2477456 -0.038371574 0.06370079 0.10021608 0.19378707
-0.32132125 -0.036896393 0.2698506 -0.11831862 -0.14147376 0.16948767 0.16499907 -0.079212524
0.3852128 -0.13837092 0.63578236 -0.11823183 0.13951159 -0.13421053 -0.07045415 0.0822477
-0.15566418 -0.05058624 0.15672825 -0.56395257 -0.023781339 0.0093864715 -0.11834682 -0.06280301
-0.07730093 0.109163284 0.14265405 0.010694135 0.4048938 0.12481853 -0.34604108 0.22197212
-0.19401713 -0.4256054 -0.22010066 -0.19513197 -0.09281465 -0.11163457 0.07022882 -0.0903914
0.23296018 -0.045183674 -0.22689566 -0.22953294 -0.19850916 -0.019255202 -0.043536108 0.38198593
0.0037483522 -0.2970447 -0.24525781 -0.078074716 -0.21141748 0.009422086 -0.20878735 -0.013864524
0.14466353 0.2545967 0.15985775 -0.016595036 -0.09373564 -0.1078649 -0.13435091 -0.016622564
-0.045452423 -0.084790416 -0.00783568 0.22710054 -0.41599566 0.21015637 0.12549227 -0.18239477
0.20369412 0.25278687 -0.016211884 -0.4125735 -0.4331865 -0.03432457 -0.06116167 -0.0018947971
-0.0044363444 -0.19512507 0.21050744 -0.09535829 0.23287266 0.22066392 -0.1267049 -0.49504095
0.14260238 0.29987377 0.26877147 0.096674554 0.12862384 0.14219324 0.19227904 -0.033077408
0.0003451327 -0.12168966 -0.3096764 0.053920016 -0.029495833 -0.15509659 -0.08089387 0.014218694
0.087407276 -0.10075797 0.03224054 -0.5786283 -0.28278947 -0.1180875 -0.06068271 -0.15600303
0.101095706 -0.036050707 -0.37104607 -0.039392952 -0.047711976 0.44798422 0.12866437 -0.14282423
0.11836453 -0.22093773 -0.094971456 0.15319963 -0.16652745 -0.03622182 -0.10274328 -0.069033995
-0.07220596 -0.43461773 -0.2148651 -0.12976456 -0.21080808 0.22054048 0.018395025 -0.07345069

network_body._body_endoder.seq_layers.0.bias f4 [128]
00000000: 6469 033b 38f7 483b 06b8 afba 491d c4ba
00000010: 1c3c ebb9 4abc 5c3a 7bb7 4b3a ea3f 12ba
00000020: 14ae 443a 711e 8dba 921d 0db9 30d4 6e38
00000030: 9be9 133a 3104 7f39 5079 c138 dfe0 2dba
00000040: e001 1cba 5531 38b9 1f54 7b39 b713 923b
00000050: 63a0 02b9 0537 5c3a 89c7 82b9 83f4 7bba
00000060: b38d dab8 4f9a c5ba d457 adb9 5b35 153a
00000070: 642b fa38 b56f 3e3a b4f0 1238 2c3d 34b8
00000080: 2d14 353a 3a6b 0739 3786 fe39 05e6 3838
00000090: ba67 c33a 2784 a8ba ed4a 663a deaa a0ba
000000a0: 6b0a 38ba 9af2 70b9 22dc 8ab9 a0df 81b9
000000b0: 59fd 2a3a 4271 d9b9 e979 5aba 2487 4cb9
000000c0: 8cb1 00bb a857 b439 6de3 cd39 a543 01ba
000000d0: e1b9 2cba d0f6 ceb8 8c67 033a d532 8fba
000000e0: 1437 94b8 07f1 ceb9 d4f1 113b aae6 9739
000000f0: 7a0b fab9 b3ca 0bba 9bd2 f9b9 c2ce 603b
00000100: 241e a6b9 4963 7439 925e 83ba eb96 b3b9
00000110: 4e8f aeb9 da91 6dba c615 24b9 55e0 0e3a
00000120: 0173 85b9 cac7 06ba 4666 a53a e7ac 68ba
00000130: 4d22 4d3a 40fa 1d39 78cb e1b9 5a5d 8138
00000140: c460 f9b9 cdac 3abb a6e2 41bb a640 023a
00000150: 2808 e3b8 3bf0 4d37 c64b 99b9 7650 87ba
00000160: c3bf ba39 3a0d 88ba a7de 333b 5070 1db9
00000170: 96ee ad3a dfc4 9db9 f403 eeb8 f8a4 2fb8
00000180: 4cbc 8db9 44a8 bdba 2803 93bb 53a9 e4b9
00000190: c877 1bba b29c cab8 5c06 9d3a 94d4 ed3a
000001a0: d671 80ba cc8c d5b7 770b 48ba c375 7fb9
000001b0: 1275 90ba c363 d7b9 4ec3 ef38 2e3f 043a
000001c0: 2741 0c3b 8093 c138 38c5 8736 87cb d039
000001d0: d239 3fb8 cfcf e5ba 960b b6ba fad3 edb9
000001e0: 1496 5b3a a456 9e39 b91d e7b9 8372 b8b8
000001f0: 7e80 a137 da67 f5ba 71b9 7aba f433 5339
0.0020051831 0.0030664932 -0.0013406284 -0.0014962341 -0.00044867478 0.0008420391 0.0007771176 -0.0005578982
0.00075027463 -0.0010766519 -0.00013457824 5.6941237e-05 0.0005642415 0.00024320256 9.2255534e-05 -0.00066329347
-0.0005951207 -0.00017565985 0.00023968563 0.0044579166 -0.00012457515 0.00084005325 -0.00024944198 -0.0009611325
-0.000104214436 -0.0015075895 -0.00033062568 0.00056918495 0.00011929011 0.00072645704 3.5033285e-05 -4.2972315e-05
0.00069076085 0.00012914548 0.00048546653 4.408324e-05 0.0014908232 -0.0012856767 0.00087849685 -0.0012257954
-0.00070205954 -0.0002297856 -0.00026485423 -0.0002477141 0.0006522737 -0.0004147385 -0.0008334206 -0.000195053
-0.0019637076 0.00034397584 0.00039270092 -0.00049310393 -0.00065889774 -9.868818e-05 0.0005012683 -0.0010925183
-7.067449e-05 -0.0003947096 0.0022269385 0.00028972822 -0.00047692267 -0.0005332634 -0.00047649894 0.0034302925
-0.00031684444 0.0002330664 -0.0010022691 -0.00034253983 -0.00033294637 -0.0009062566 -0.0001564837 0.0005450298
-0.0002545342 -0.0005141465 0.0012618981 -0.0008875862 0.00078252406 0.00015065912 -0.0004306694 6.1685874e-05
-0.00047565077 -0.0028484345 -0.0029584556 0.000496874 -0.00010825723 1.2274885e-05 -0.0002923889 -0.0010323662
0.00035619558 -0.0010379918 0.0027445944 -0.00015014526 0.0013269957 -0.00030092054 -0.00011349461 -4.187689e-05
-0.00027033908 -0.0014469703 -0.0044864602 -0.00043613705 -0.00059306296 -9.6612974e-05 0.0011980045 0.0018145018
-0.0009799551 -2.5457142e-05 -0.0007631103 -0.00024362565 -0.0011021218 -0.00041082324 0.000114327864 0.0005044815
0.0021401139 9.230431e-05 4.046273e-06 0.0003982449 -4.5591798e-05 -0.0017533245 -0.0013888951 -0.00045362097
0.00083765504 0.0003020066 -0.00044081899 -8.795133e-05 1.925253e-05 -0.0018722967 -0.0009564376 0.00020141882

network_body._body_endoder.seq_layers.2.weight f4 [128, 128]
00000000: 751d b93c 3931 be3d 2e68 0c3c c5cb 183e
00000010: 6113 c43d 7e24 abbd e20d 543b 5ba5 80bc
00000020: e10d 53bd 9715 cbbd cce9 1c3d 320a 51bd
00000030: a070 3abd 0fbe af3d 2903 12be 9487 b53d
00000040: 1fcd 2c3e 3149 543d a8dd 293d e4be 923d
00000050: 718c 063b d644 a33d a90f 9339 eb73 4abe
00000060: 4d03 32bd b422 d73c 909d e13c 96d1 7dbc
00000070: b057 153d a524 083d b73b 82be a252 b9bd
00000080: dfea 853d 3a6d be3d ddb6 b73d 4ad1 563d
00000090: a86d 783c 4455 343d a756 f13d 0233 953d
000000a0: 0e74 4dbe e021 0b3e 77eb 71bd 7a1a cc3c
000000b0: 3c70 3cbe 4d2c 163e 5d86 cc3d 8298 0fbe
000000c0: 8612 5fbd 5539 6b3c 61b7 66be f91c 34be
000000d0: bd15 8cbe 7b86 4d3c c97e aebd ba6b 8cbd
000000e0: 3e4c 64bc cb66 6dbd 8db2 1cbe db89 923b
000000f0: d475 9ebd 8445 d33d 2599 d2bc d77a 443d
00000100: 0a13 09bc 2e0b 1bbe 2bbd 79be a0f5 b73d
00000110: 804e 0cbc 84ba fc3c a552 f23d 9724 76bd
00000120: 5943 b3bd 22c5 123d 48a7 5c3e 3cb1 983d
00000130: fe61 1bbe 37d5 3ebc dede 51bd 2d54 183d
00000140: 692e 233d 1cb6 a23d 94cc 933d 1fa4 763c
00000150: 224a 10bc 11b6 dcbc d243 6abd 6f4c a7bd
00000160: afcb d3bd ce88 dbbd 5e83 d2bc 4786 bfbd
00000170: ebab 473e 85a4 d43d 362d bebd 1c03 443d
00000180: ed24 efbd 4359 fcbb 0454 37bd 2b26 613d
00000190: df61 f93b f24e 9fbd 155f 8d3c decc 733d
000001a0: a956 1f3e 1a66 87bd ca40 86bd 8990 0c3d
000001b0: 1f5a 5a3d 8c07 183e 80f8 f63d a6e4 3fbd
000001c0: 76d6 fabc a481 bc3b da4c 35bd 6b90 e7bd
000001d0: 99f1 7d3d 3377 063d d32c 6cbe b8ba 633c
000001e0: f18a 823d aa17 51bd 671d dbbd 315c e0bd
000001f0: 1ee0 2d3d 5350 8c3d 40cd 9a3b caf2 263d
00000200: d99e cf3d 84ba 113e be44 083d e968 7a3d
00000210: bce1 303d 4ac8 203e e433 6f3c c127 93bd
00000220: 492e 63bc 32b6 11bd 8f92 a0bd 7aec d13d
00000230: 6436 f53d 7e75 f3bc 8a10 41bd 24b2 013e
00000240: 9da1 123e c776 8a3d 7a2d df3c 9d6b 133e
00000250: 44fc 003e df66 313e cfdd d83b fc2f e33c
00000260: afcf a93c 3e93 6d3d 07c0 52bc e0e2 353d
00000270: 1192 c0bb 7e6d 953c 1cfb 793d 3369 0a3e
00000280: 939c c73d 618a dfbc 5631 4ebe 1fb7 cebd
00000290: 1a70 323e ef49 4cbd f572 dbbd 30a5 12be
000002a0: 0bf9 763d 1f37 f3bd ebfe 4dbe 52b6 eabc
000002b0: 832f a43d 0b6b 2b3d 7462 c8bb aa30 73bd
000002c0: ecb1 aebd cf6c 853c 0e07 b1bd 8221 f7bd
000002d0: ee86 f13c e1d6 0b3d ef4e 1e3e 2f70 513e
000002e0: 69df 3ebe afb2 c2bc 1997 6cbd aa23 09bd
000002f0: 8977 29bd 373b 563d 0bea 553c 3aec c7bc
00000300: bcbb 6a3c f703 b9bd c59a 523c c356 e4bd
00000310: 0174 8e3e 226a 753d 1ea8 c8bd a8c6 c6bd
00000320: 1d4b 093e 06f5 e13d 3af0 f43c 4dad d13d
00000330: c55d 733d 7c4a b13d 450c a0bd 0baf 9bbd
00000340: 347a b8bd 38e0 ec3c 5e29 fb3b 8656 713d
00000350: f1e6 9f3a 3251 273e 0f12 d6bd df5c 1dba
00000360: 42ea 0b3e 8f4e 85bd 50cc e6bc 7e16 f1bc
00000370: 990b 133e 70b1 ce3d de38 a73d 06b9 90bd
00000380: efbb 533e 65fd ad3d cd03 2abd 50b1 97bd
00000390: df53 94bb 0148 44bd 4a78 333d 708f e93d
000003a0: 83ee 1e3b aad6 643d a05a 16be 064c 8abc
000003b0: c664 813d 74ba f93c f5b0 863c 53ec 46bd
000003c0: cc60 5e3d e7bd 533c 013a ce3d d4f3 96bc
000003d0: 33cc 123d 5fa0 0d3e 5fa0 afbd e6ad 00be
000003e0: c6d7 b93d cfce 3dbc 61f9 0bbe acb1 793d
000003f0: 5b33 6bbc ac8d 493d e718 4abe 0a53 ff3c
0.022597054 0.09286732 0.00856976 0.14921482 0.09574009 -0.0835657 0.0032356908 -0.015703848
-0.051526908 -0.09916227 0.038308904 -0.051035114 -0.045517564 0.08581173 -0.14259018 0.0886375
0.16875122 0.051827613 0.041471153 0.07165316 0.0020530487 0.07972114 0.00028049693 -0.19770782
-0.04346018 0.026261665 0.027540952 -0.015491864 0.03646058 0.033238072 -0.25436184 -0.09048964
0.06538939 0.09298177 0.08970425 0.052445687 0.015162863 0.044026628 0.11784106 0.072851196
-0.20063803 0.13587141 -0.059062447 0.024914969 -0.18402189 0.14665337 0.09986565 -0.14023021
-0.054461025 0.014356931 -0.22530891 -0.17589177 -0.27360335 0.01254427 -0.08520276 -0.06856485
-0.013934193 -0.05795936 -0.15302487 0.004472 -0.07737318 0.103159934 -0.02570779 0.04796871
-0.008366356 -0.15140983 -0.24388568 0.08982396 -0.008563638 0.030850656 0.118321694 -0.06009349
-0.0875308 0.03583253 0.21548188 0.0745568 -0.151741 -0.011647514 -0.051237933 0.03718965
0.039839182 0.07944891 0.072167546 0.015053778 -0.008806737 -0.026942285 -0.057193585 -0.081688754
-0.10341584 -0.10719453 -0.025697406 -0.09351783 0.19499175 0.10382942 -0.09285967 0.047854528
-0.11676965 -0.0077010705 -0.044757858 0.05496804 0.007610544 -0.077787295 0.017257253 0.05952155
0.15560402 -0.06611271 -0.06555326 0.034317527 0.053308602 0.14846629 0.12059116 -0.046848916
-0.030619841 0.005752759 -0.044262744 -0.113068424 0.061997984 0.03282852 -0.23063974 0.013899498
0.06374157 -0.05104796 -0.106989674 -0.10955084 0.042450063 0.06851258 0.0047241747 0.040758885
0.1013772 0.14231306 0.033268683 0.061135206 0.043184027 0.15701404 0.014599774 -0.07185317
-0.013866016 -0.035574146 -0.07840454 0.102501824 0.11973265 -0.02971911 -0.047134914 0.12665612
0.14319463 0.06760936 0.027243365 0.1439652 0.12596232 0.17324398 0.0066182385 0.027732842
0.020728914 0.05800175 -0.012863166 0.044405818 -0.0058767875 0.018240687 0.061030492 0.13516693
0.09746661 -0.027287664 -0.20136008 -0.10093521 0.17425576 -0.049875196 -0.10715286 -0.14320827
0.0602961 -0.11875748 -0.20116775 -0.02865139 0.08016875 0.04185013 -0.006115252 -0.05937258
-0.0853003 0.016287236 -0.08643924 -0.12066938 0.029483285 0.03414047 0.15459798 0.20452951
-0.18639912 -0.023766844 -0.057761285 -0.033481278 -0.041373763 0.052302565 0.0130562885 -0.024404634
0.014326986 -0.09033959 0.012854283 -0.11149361 0.2782288 0.05991567 -0.09797691 -0.097058594
0.1340756 0.11033063 0.029899705 0.102381326 0.059415597 0.08656785 -0.0781484 -0.07601746
-0.090076834 0.02891551 0.0076648435 0.058920406 0.0012199563 0.16339567 -0.10452663 -0.00060029136
0.13663581 -0.065091245 -0.028173596 -0.02942967 0.14359893 0.10092437 0.081651434 -0.070665404
0.2067716 0.08495597 -0.04150753 -0.074068666 -0.0045266 -0.04792023 0.04381589 0.11404312
0.002425105 0.055868782 -0.14683008 -0.016881954 0.06318049 0.030484416 0.016441802 -0.04856522
0.05429153 0.012923694 0.10069657 -0.018426813 0.03583927 0.13830708 -0.0857551 -0.12566337
0.09074359 -0.011584952 -0.13669349 0.060960457 -0.014355506 0.049207374 -0.19736062 0.031167526

network_body._body_endoder.seq_layers.2.bias f4 [128]
00000000: 723b 5cbb a278 4f3a 1b99 c239 1b7f c6b8
00000010: 4d30 fcb9 4cca c6b9 3038 6db9 076f 73ba
00000020: 3c81 2cbb f135 b2ba f075 2ebb 6015 18b9
00000030: 96f6 84ba c6b9 a33a 2dfe c9b9 0fa9 81bb
00000040: cecf abba 1bd5 35ba ee21 b4b9 8d2d 07ba
00000050: 0b39 07bb 40e0 bd36 d8d4 e23a cf8a 753a
00000060: 87b4 f739 f023 82ba 9d2e afba 782c 82ba
00000070: 2710 1fba 3d74 50ba a2ae 1fb8 1b39 23b9
00000080: 7e06 40bb 40fd 0fba d750 043b c00b 6b3a
00000090: 03d5 a7b9 607f c23a 5605 a639 255b 913b
000000a0: f624 193a 93f4 2b38 3645 13b9 bfce b8b7
000000b0: cb74 0f39 531f 1db9 1829 803b f0d4 13b8
000000c0: 006c 5a3a 01d0 a837 50d6 6cb9 8b92 8bb8
000000d0: f4aa 46ba a8b7 163a 54e0 3dba 6bdd 2aba
000000e0: 2d46 8b38 c33c 933b bed2 8eb7 519c 00b8
000000f0: 4865 8f39 a5ba 8638 8482 c7b9 227b b9b7
00000100: 0514 01bb 5391 91b9 7872 0bbb c70a 693a
00000110: 3279 e3ba 32c8 aeb9 e9fa 8f3a 1a77 2d39
00000120: ce66 bc37 4cf6 8bb8 03f3 9cba 2889 9438
00000130: 5aa2 ceb9 4647 5bb9 5b38 333b 8973 fb3a
00000140: e536 a93a 6fcc c139 5a85 34b8 0df0 9e39
00000150: 0bad 5ab9 412e ffb9 3152 153a 1599 8abb
00000160: c47b 64b9 0c4f f2ba 68f0 5939 2891 b73a
00000170: 0b1d 86ba caa0 1ab9 7b54 b5b9 cc46 5eb9
00000180: de7b 8b38 ae16 943b 8cc4 afb9 900d a9ba
00000190: ec66 1539 3596 07b9 918e 5bb8 1686 04ba
000001a0: 725e 973a c0bd 20ba 3691 6fb9 d028 8b37
000001b0: 44fd 6a3a ebee 85ba d504 b939 6816 453a
000001c0: 52a9 a939 a52b 663a c212 1bb9 bcf0 793b
000001d0: f0b4 f938 7b24 b0ba 8c2d e33a 0e1e 0638
000001e0: 67f9 653a 10ac 8cb9 ab0c 413a d6fc e439
000001f0: 39bd b4b8 8fc8 d53a 5664 2f3b c92a 0bb9
-0.0033604768 0.0007914399 0.00037116636 -9.465051e-05 -0.00048101172 -0.00037916226 -0.00022623013 -0.0009286259
-0.0026322147 -0.0013596398 -0.002662059 -0.00014503812 -0.0010144289 0.0012491278 -0.00038527083 -0.003956921
-0.0013108195 -0.0006936357 -0.00034357555 -0.0005156629 -0.0020633365 5.658745e-06 0.0017305864 0.00093666924
0.00047246015 -0.0009928923 -0.0013365332 -0.0009931466 -0.00060677755 -0.0007951891 -3.8071194e-05 -0.00015566165
-0.0029300745 -0.0005492754 0.0020189786 0.00089662895 -0.00032011428 0.0014838986 0.00031665963 0.004435914
0.00058419944 4.0997355e-05 -0.00014044796 -2.2030783e-05 0.00013681051 -0.00014984356 0.0039111488 -3.5245845e-05
0.00083321333 2.012402e-05 -0.00022586551 -6.655332e-05 -0.00075785746 0.0005749413 -0.00072432053 -0.0006517979
6.641108e-05 0.0044933273 -1.7025854e-05 -3.066316e-05 0.00027350546 6.424383e-05 -0.0003805348 -2.2111057e-05
-0.001969577 -0.0002776483 -0.0021277945 0.00088898506 -0.0017354845 -0.00033337023 0.0010984811 0.00016542934
2.2459219e-05 -6.673913e-05 -0.0011974279 7.082737e-05 -0.00039412343 -0.00020912019 0.0027346823 0.0019184212
0.0012910037 0.00036964144 -4.3039538e-05 0.0003031496 -0.00020854564 -0.00048671852 0.00056961464 -0.0042296746
-0.0002178988 -0.0018486693 0.00020784291 0.0014005052 -0.0010232044 -0.00014746483 -0.00034585953 -0.00021197944
6.6511086e-05 0.004519305 -0.0003352504 -0.0012897719 0.00014248089 -0.0001293056 -5.2346444e-05 -0.0005055381
0.0011548533 -0.00061317906 -0.00022846911 1.6589096e-05 0.0008964131 -0.0010218298 0.0003528955 0.00075182924
0.00032360345 0.0008780307 -0.0001478894 0.0038137874 0.000119069475 -0.0013438606 0.00173323 3.197608e-05
0.00087728206 -0.00026831077 0.00073642534 0.00043675926 -8.618314e-05 0.0016310381 0.0026762686 -0.00013272012

action_model._continuous_distribution.log_sigma f4 [1, 2]
00000000: c46a 00bb 2dcc 733a
-0.0019594887 0.0009300139

action_model._continuous_distribution.mu.weight f4 [2, 128]
00000000: 07d0 923c 5a54 b6bb d18e 543d 4422 583c
00000010: d1fe adb9 94e5 8f3c 9ae9 293c 183a dfbb
00000020: 8a21 05bb dd9e b4bc a342 06bd a6a9 7f3c
00000030: 4e00 893b 441f aabc c979 57bb 4380 47bd
00000040: 7e8d c2ba 2b9f 60bc 883b 19bc f862 cfbc
00000050: ba59 3bba 562f 8e3c 66e0 11b9 45ea 01bc
00000060: 0a4f 853c 34b5 13bd 6ae1 aabc 391a 7fbc
00000070: c289 78bc 9d02 923c f90c 6d3c f939 42bc
00000080: 215b f1bc ae9e 8fbc b60a 0d3d 1abf 133d
00000090: 616c 49bd 0f69 b63c 1c82 e23c 446c b63c
000000a0: 3e77 86bb d222 a9bc 25c9 0a3b 884c 9bba
000000b0: bef8 bfbb 8338 c83c ccd9 993c 111f 923c
000000c0: 915d 5abc 48ec 923c f99d 833b 92ae aebc
000000d0: c045 6b3c 51cb 883b 4d19 19bc 7f54 f83a
000000e0: a364 2fbc 857b 09bd 237b f8bc f886 f8bb
000000f0: a785 493c 4bb5 3e3c 36ef 05bc bac4 8fbb
00000100: 558b b6bb d8d7 963c 8ea3 10bd 525a 33bb
00000110: 3b5b f0bb 0d35 a73b 8bbf edbc afd4 093d
00000120: c84a 173d b2d1 af3c f756 663c 6144 c73c
00000130: 3d6b bbbb 27cf 61bc a378 e53c d669 6e3c
00000140: 29c3 4c3c d26d 1d3a edfe f23c 9840 173d
00000150: 192c d6bc fa91 4bbd 8c36 a03c 376b cebc
00000160: 3c60 023b a3ed dabc dd9f 0fbc 4f3e 46bc
00000170: 4f7d d4bb 62a5 33bc d3af e6bb 38a1 afbc
00000180: ce7d f0bc f201 383d bfb4 d139 9897 edbb
00000190: be2f a1ba 0065 4abb 4c43 74ba fed2 c9bc
000001a0: af1a ec3c 77db b03b 50fd 16bc ea4e af3c
000001b0: 7ef1 a3bc 0daa 68bd 6e98 28bc de3d d63c
000001c0: d627 8dbc dbce a8bc 4006 0fbd 9d52 303c
000001d0: f8a9 b63a d476 08bd f3df adbc a6fb 09bd
000001e0: 5248 88bb bdd0 da3c 845c 9abc fa73 b93c
000001f0: b559 dfbc b71d b8ba 8b19 bebb 357f 433c
00000200: 5b08 32bc 289a 75bd 32e3 593c e03b d53c
00000210: e8dd 91bc 9f51 173c 367e 6c3c c7f7 ef3b
00000220: 77d0 663c 9d03 30bc c508 e73b 3363 7b3c
00000230: 7983 a23c 7b8e fabc c42f cf39 3ed2 54bc
00000240: f271 3f3c b3f0 cd3c e35b 36bc c592 ecbb
00000250: c77f 0c3c 611e 063c c688 2dbc b965 47bc
00000260: 9f41 4cbc ec61 82bb 07ff 8f3c c698 6bba
00000270: 40a1 173d c64a 563c de87 723b 859a f0bb
00000280: 24a9 b73b 4fb7 bb3b 8cfb 9cbc 69c4 92bc
00000290: 97a5 663c 644b acbc c2ee 753c 3a62 5abc
000002a0: 9555 86bc 86b3 c5bb a89a b5bb 885c 593c
000002b0: 1a89 a2bc f1cd f83b 8d00 9dbc ce3d d63b
000002c0: f32f 80bc 4f09 383c 3bb3 4f3b ed60 a2bc
000002d0: ed93 0f3d a2ee c4bb 570b 4c3c 66f7 1dbc
000002e0: 0857 aebc 2c97 8b3b b81d a6bc 24ed 303c
000002f0: 2407 8aba 9b31 5ebc 4690 4e3b cb0b 30bb
00000300: 7a24 0b3c d132 113d 4066 c0bb 8adf dbbc
00000310: c700 fb3c 6e05 bcbc b9a2 f93c 4ad7 6f3a
00000320: 10a3 e8ba 2a02 ecba 8d50 11bc b210 a43b
00000330: da1f 483c aad4 7ebb c78a 61bc 5e6c ebbc
00000340: 2268 f13c bea1 03bc 753a 583b 2fc7 01bc
00000350: ce57 203b 5627 a4bc 531a babc ae29 8f3c
00000360: 2c3f 8b36 6d1f dcba a599 88bc e5f4 7bbc
00000370: 9c50 a9b9 1bcf b8bb 780e 9c3a 5f57 323c
00000380: e374 debc e110 b53b 56a8 85bb a6dc b9bc
00000390: 78f8 b9bc 49d3 e9bb c40c 0bbb e534 b53b
000003a0: 9577 51bc 0958 9e3c 258b 95bc 3bc2 a63c
000003b0: 0770 7ebc 8e7f 63bb 7f56 70bc 9cf2 5abc
000003c0: 4611 2bbd 755d 58bc ff86 92bc cec2 05bd
000003d0: c27f efbc f992 b5bb f97a 28bd b45b f6bc
000003e0: 24a3 1ebd 2650 81bb 3d5b babc 9a13 2bbc
000003f0: fceb ecbb b88c 22bc ad3b a23c bb76 383c
0.01792146 -0.0055642547 0.051894013 0.013191763 -0.00033186984 0.017565526 0.010370636 -0.0068123452
-0.002031418 -0.022048408 -0.032778393 0.015604412 0.0041809445 -0.020766862 -0.0032878986 -0.048706304
-0.0014843193 -0.013709824 -0.009352572 -0.025315747 -0.0007146854 0.017356556 -0.00013911873 -0.007929389
0.01627304 -0.03606148 -0.020859439 -0.015570217 -0.015169563 0.017823512 0.014468425 -0.011854642
-0.029462399 -0.017531719 0.034434043 0.03607092 -0.049175624 0.022266893 0.027649932 0.022268422
-0.0041035702 -0.020646486 0.002117702 -0.001184837 -0.00585851 0.02444101 0.018780611 0.01783708
-0.013327972 0.017934933 0.0040166345 -0.021323476 0.014359891 0.004174628 -0.009344411 0.001894608
-0.010705146 -0.033565063 -0.030332154 -0.007584449 0.012299932 0.011639903 -0.008174708 -0.0043874653
-0.005570809 0.01841347 -0.035312228 -0.0027367068 -0.0073350943 0.0051027597 -0.029021999 0.033650097
0.03693655 0.021462295 0.01405882 0.024324598 -0.005719571 -0.013782299 0.028011626 0.0145516
0.012497702 0.0006005439 0.029662574 0.036926836 -0.026144074 -0.04969976 0.01955726 -0.025197608
0.0019893786 -0.026724642 -0.008766142 -0.012099816 -0.0064846645 -0.010964723 -0.007040003 -0.02143918
-0.029356863 0.04492373 0.00039998253 -0.0072507374 -0.0012297553 -0.0030882955 -0.00093178893 -0.024636742
0.028821317 0.005397256 -0.009215668 0.021399934 -0.020012613 -0.056802798 -0.010290248 0.026152547
-0.01723091 -0.020606449 -0.03491807 0.010761884 0.0013936153 -0.03331645 -0.021224951 -0.033687256
-0.004159012 0.026710862 -0.018842943 0.02263831 -0.027264455 -0.0014046942 -0.005801385 0.011932184
-0.01086625 -0.059961468 0.0132987965 0.026029527 -0.017806008 0.009235769 0.014434388 0.0073232385
0.014087788 -0.010743049 0.007050606 0.015343475 0.019838082 -0.030585518 0.00039517705 -0.012989579
0.0116848815 0.025139188 -0.011130306 -0.0072196447 0.008575386 0.008185954 -0.010591691 -0.012170249
-0.012466817 -0.0039789584 0.017577661 -0.00089873036 0.037019014 0.013079351 0.0037007253 -0.007342639
0.00560488 0.005728639 -0.019162916 -0.017915921 0.014077566 -0.021032043 0.015010538 -0.013329083
-0.01639823 -0.0060333638 -0.005542118 0.01326669 -0.019840766 0.0075929095 -0.019165302 0.0065381294
-0.015647864 0.011232688 0.0031692523 -0.019821608 0.035053182 -0.0060098926 0.0124538755 -0.009641504
-0.021281734 0.0042599645 -0.020277843 0.010798726 -0.0010530693 -0.013561632 0.00315191 -0.0026862498
0.008492583 0.035448853 -0.005871564 -0.02683999 0.03064002 -0.022951808 0.0304731 0.0009149207
-0.0017748792 -0.0018006016 -0.008869302 0.005006873 0.012214625 -0.0038884082 -0.013765997 -0.028738197
0.0294686 -0.008034168 0.0032993827 -0.007921024 0.0024466398 -0.020038288 -0.02271763 0.01747593
4.149877e-06 -0.0016794034 -0.016674826 -0.015378212 -0.0003229425 -0.0056399233 0.0011906167 0.010885089
-0.027155345 0.0055256938 -0.004078905 -0.022688221 -0.022701487 -0.007135783 -0.0021217326 0.005529987
-0.012784858 0.019329088 -0.018254826 0.020356288 -0.015529639 -0.003471348 -0.01466906 -0.013363507
-0.04176452 -0.013205876 -0.017886637 -0.032656483 -0.029235724 -0.005541202 -0.0411329 -0.030073024
-0.0387298 -0.003946322 -0.022748584 -0.010441685 -0.00723028 -0.009921245 0.019803846 0.011258776

action_model._continuous_distribution.mu.bias f4 [2]
00000000: e9f9 8b39 6575 a2b8
0.00026698344 -7.7466284e-05

action_model._discrete_distribution.branches.0.weight f4 [1, 128]
00000000: 7861 96bb a229 1fbc b784 0aba 71aa 893c
00000010: a7ec 9d3b e233 b8bb 979d 1dbc 13ea 1f3c
00000020: b06d 2d3c c5da 023c 44d4 2ab9 c3db 5fbc
00000030: 0348 123b 13fc fbbb e902 103c 2b02 a8bb
00000040: ffe1 6f3c b76f 253c d58a a6bb be13 093c
00000050: d6c9 81b9 373e fa3b 3ace fa3b b7af cd3b
00000060: 5577 42bc 7324 8dbb a423 20bc 7b05 76bc
00000070: 59a7 a7bc 1ff4 0bbb ab32 bdbb 7e22 88bb
00000080: b842 4c3b 1dd5 2ebb 5bc6 e43b 5567 c93b
00000090: 4dc2 db3b 0f7c 533c ba37 b0bb 1d5e 6abc
000000a0: 9c3e c4bb bda4 91bc 9cda 3dbc c3fe b9bb
000000b0: 9441 8dbc b7d5 123b f70c fa3b 1dda 01bc
000000c0: f41a 8cbb 7732 34bc 509b d03b 25b2 e5bb
000000d0: 8d32 713a 424b ed3a 7658 b03a 4b7f fcbb
000000e0: 7769 99bb 13af a23a 4abf 8cbc 9023 e23b
000000f0: da58 813b 91c3 113c 60b3 4f3c e09b 56bc
00000100: 46de 8ebc 9d5b 793c 9772 49bc ef3c 5c3a
00000110: 95ef 64bb 7b34 163c 77f0 e1bb d6ef 3ebb
00000120: 1dde dc3b 632c 24bb 386e 273c 2a41 823c
00000130: 654a ccbb eb00 023c c7a1 0dbc 1019 753b
00000140: 3ac5 2e3c 1d58 41bc 8049 5aba 0f51 1a3c
00000150: bbb8 8f3b ca0f 55bc ae02 19bb 4522 3a3c
00000160: 70cc 58bb a7e3 573c bdff bb3b efa4 a73a
00000170: 353b 4e3c ca60 d238 e530 bdbb 9b58 423c
00000180: cd29 ebbb ef8f 94bb d7be 643b 4a77 51bc
00000190: 9883 6cbc 2ee0 0fbc be27 05bb d975 10bc
000001a0: ca56 e8bb e042 c9bc 8378 bfbb faf9 fdbb
000001b0: c3bb 4ebb 147a 233b 34b1 00bc d303 04bc
000001c0: 8f9d a13b 738d 83bb fbb4 d0bb f2c9 c5ba
000001d0: 671f 843b 7f41 083c cb8c f3bb 6f8d c3bb
000001e0: f817 a23b 53fd 10bc 1937 163b 59c9 a0bb
000001f0: 23d0 7fbc 4c2b 863c 2b98 a1ba 0681 c33b
-0.004589256 -0.009714516 -0.0005284058 0.016804906 0.004819471 -0.0056214193 -0.009620092 0.0097603975
0.010585234 0.007986729 -0.00016291538 -0.013663235 0.0022320754 -0.0076899617 0.008789756 -0.0051272116
0.014641284 0.010097436 -0.005082468 0.008366523 -0.00024755177 0.007636811 0.0076539787 0.0062770504
-0.011869271 -0.0043073236 -0.009774122 -0.015015955 -0.02046554 -0.0021355224 -0.0057738624 -0.0041545024
0.0031167697 -0.0026677318 0.0069816536 0.0061463513 0.006706512 0.012907996 -0.005377737 -0.014304665
-0.005988909 -0.017778749 -0.011587765 -0.005676122 -0.017243184 0.0022405216 0.00763094 -0.007925537
-0.004275674 -0.01099836 0.006366171 -0.007009762 0.0009200953 0.0018104094 0.0013454098 -0.007705604
-0.004681762 0.0012411795 -0.017181057 0.006901212 0.0039473595 0.008896724 0.012677044 -0.013098687
-0.017439973 0.015219596 -0.012295387 0.0008401414 -0.003493284 0.009167786 -0.0068951207 -0.0029134653
0.006740345 -0.002505087 0.010219149 0.015900213 -0.0062344545 0.007934789 -0.008644528 0.0037398972
0.01066714 -0.011800793 -0.00083269924 0.00941874 0.0043860353 -0.013004253 -0.0023347544 0.01136071
-0.0033080839 0.013176835 0.0057372735 0.0012790243 0.012587358 0.00010031609 -0.005773651 0.0118619455
-0.007176614 -0.00453376 0.0034903788 -0.012784788 -0.014435671 -0.008781476 -0.0020317878 -0.00881716
-0.007090424 -0.024568021 -0.0058432235 -0.007750747 -0.003154502 0.002494459 -0.0078547485 -0.008057552
0.0049321125 -0.004014665 -0.006369231 -0.0015090092 0.0040320638 0.008316397 -0.0074325553 -0.005967788
0.004946705 -0.00884946 0.0022921024 -0.004906815 -0.0156135885 0.016378067 -0.0012328675 0.0059663085

exp_avg f4 [128, 23]
00000000: f829 b5b3 1d57 5eb6 04dc b9b3 9633 0ab6
00000010: 6361 f2b5 c1aa c4b6 cc6f b326 528f 24b6
00000020: 37d2 b9b6 aa19 a6b6 0000 0000 244d 1fb6
00000030: bc97 59a9 ae9f 74b6 0000 0000 4543 58b6
00000040: e101 a5b4 dd50 2db6 0857 c7b8 d5e2 b836
00000050: f59e 98b4 3a96 83b8 79de ceb5 5a87 b3b2
00000060: 04bf d9b4 1d16 e931 3875 abb4 48a0 e531
00000070: 5a47 49b5 566e 62b0 63a5 09b5 7713 8e34
00000080: f26b 48b5 0000 0000 a396 ecb4 29dd 21b1
00000090: faca 2eb5 0000 0000 b678 fdb4 ee2a 93b2
000000a0: 955b 01b5 9995 f1b6 0138 a0b6 8ba6 44b3
000000b0: 8ad1 54b6 8be9 eb35 1d57 1b31 805f 39b0
000000c0: f1e6 8131 bc1f a632 6c3a 20b4 38a9 86b2
000000d0: b5a5 2cae 36e5 e833 3aa0 ebb4 d55e 4134
000000e0: 0000 0000 4e91 4b34 b8f8 52b1 cf65 7b34
000000f0: 0000 0000 bda9 e933 4a87 3934 8057 8734
00000100: e74e 2d36 94d7 4ab6 a9cb 4132 acdb 0036
00000110: 2a25 f734 c310 06b7 0b8b c0b6 988a 1db5
00000120: bba9 90b6 dd7e 37b6 8c87 33b6 861a 5fb4
00000130: 27ec 00b7 2419 8336 60e1 c8b5 0000 0000
00000140: 33fa 8bb6 33ab 8e36 90ab 1b35 0000 0000
00000150: 729d ceb5 591b 8736 307b f4b4 000b aab5
00000160: 6358 2db9 70bc 5bb3 c1cb dbb8 54f2 fa38
00000170: 66ec 5fb3 4e6c 5cb5 83d1 efb3 3a5c 64b4
00000180: 6efb eab4 fc74 d7b5 d048 d0a9 ded4 99b4
00000190: 1025 03b6 3d44 afb5 0000 0000 72eb 0db6
000001a0: 1784 cfaf 60e6 c1b5 0000 0000 d4b6 67b5
000001b0: b088 e9b6 6ea0 24b6 bfe6 94b8 7e79 8638
000001c0: 50f0 cab3 c270 6bb8 5033 0137 62a6 abb2
000001d0: 6f21 6935 a1d3 0732 cbad e434 f7b4 5f34
000001e0: c467 9435 8627 992f 9d33 0a35 2ad3 8f35
000001f0: a010 3034 0000 0000 78fd 1334 48bd 9132
00000200: 95b5 37b5 0000 0000 e0c2 2433 7287 22b5
00000210: 5c9c 7cb5 bc5b 3d36 45aa 06b7 b87c a1b2
00000220: 58a8 a7b5 f8b6 0c37 aaa5 39b7 f515 0537
00000230: b01a 40b6 c86c c436 8c34 8437 5397 3137
00000240: 2ed0 c1b4 60b4 0037 b91c 5338 d08e c2b5
00000250: 0000 0000 ed2e 47b6 7f2d 44b7 6c32 a1b7
00000260: 0000 0000 ba82 84b6 b466 33b8 1936 e9b7
00000270: b187 80b9 3e87 d839 75e1 62b5 c670 21b8
00000280: 2811 9aba ea33 49b5 5833 cfb5 08c8 53b0
00000290: 2b18 5bb5 4225 a4b5 d6ef e6b5 a644 ddb0
000002a0: 5588 bdb5 5bf0 cfb5 34aa 9ab5 0000 0000
000002b0: df96 71b6 56e7 ea34 bbee 3ab5 0000 0000
000002c0: faa9 fab4 0c29 09b7 b703 16b6 1b9d b2b7
000002d0: f820 4bb7 1e25 90b3 dc2a 33b8 e0ef fdb6
000002e0: 1f8e 26b5 869e 17b7 25f4 d4b4 2b9a a8b6
000002f0: a2ea bcb6 8e77 5ab7 a485 8030 003d 72b6
00000300: 48ea a4b7 f890 28b6 0000 0000 785b 95b5
00000310: f80c 2535 3c49 b236 0000 0000 9695 95b5
00000320: b8e2 e336 a974 0737 d81c d4b7 9111 90b8
00000330: 88a1 d232 4cdb 3bb7 d675 1939 842e 40b1
00000340: 5ac4 9eb4 3df0 3db1 efc6 2cb4 7620 97b3
00000350: 2375 c9b4 3433 20ab d527 25b4 d661 f7b4
00000360: b888 96b3 0000 0000 1630 c1b3 1cce 10ad
00000370: cc56 8034 0000 0000 707c a9b2 e85b 0e34
00000380: 6b2b 9f34 044c 03b6 0cfb 6836 1046 0e32
00000390: 608b 6fb5 a6d9 c3b4 9b98 bd30 1173 94b5
000003a0: d07e 4330 5531 4db5 86eb 6a32 6607 ddb5
000003b0: 80fa 1aa0 fced 6db5 3311 bd33 efb8 0cb6
000003c0: 0000 0000 6a8f 4a35 a326 0c2e 6eaf b5b5
000003d0: 0000 0000 57a6 c1b5 8a02 ea36 ec5c 8134
000003e0: aa6f 91b7 dc06 8137 d8ca cdb3 2f2e 1737
000003f0: 1a64 dfb6 b816 4ab7 85e5 3236 466a 31b6
-8.4361034e-08 -3.3131284e-06 -8.6547544e-08 -2.059363e-06 -1.8058748e-06 -5.8611336e-06 1.2450923e-15 -2.4521328e-06
-5.537902e-06 -4.950173e-06 0.0 -2.3737748e-06 -4.8315288e-14 -3.645178e-06 0.0 -3.2225664e-06
-3.0735012e-07 -2.5826077e-06 -9.50527e-05 5.510034e-06 -2.8427863e-07 -6.274549e-05 -1.5412944e-06 -2.0899893e-08
-4.0558382e-07 6.7837065e-09 -3.193652e-07 6.682999e-09 -7.4982165e-07 -8.237512e-10 -5.1277146e-07 2.6463724e-07
-7.4662887e-07 0.0 -4.4068028e-07 -2.3554299e-09 -6.511542e-07 0.0 -4.721275e-07 -1.7132574e-08
-4.8189514e-07 -7.199775e-06 -4.7748913e-06 -4.5786276e-08 -3.171243e-06 1.7576834e-06 2.2604987e-09 -6.743832e-10
3.780649e-09 1.9339375e-08 -1.4922415e-07 -1.5676605e-08 -3.925545e-11 1.0845035e-07 -4.388874e-07 1.8009025e-07
0.0 1.895871e-07 -3.0700402e-09 2.3413234e-07 0.0 1.0880783e-07 1.7278686e-07 2.5209374e-07
2.5824936e-06 -3.0225829e-06 1.12803855e-08 1.9201352e-06 4.6034376e-07 -7.990925e-06 -5.7382326e-06 -5.868874e-07
-4.3112937e-06 -2.734297e-06 -2.6751977e-06 -2.0778143e-07 -7.684378e-06 3.907031e-06 -1.4966754e-06 0.0
-4.17165e-06 4.25186e-06 5.7991656e-07 0.0 -1.5394019e-06 4.026497e-06 -4.5538172e-07 -1.2669188e-06
-0.00016531492 -5.1161294e-08 -0.00010480686 0.00011966066 -5.2136237e-08 -8.211399e-07 -1.1167415e-07 -2.1267707e-07
-4.3768836e-07 -1.6052795e-06 -9.2496865e-14 -2.8653352e-07 -1.9542094e-06 -1.3058376e-06 0.0 -2.1147684e-06
-3.7746936e-10 -1.4446669e-06 0.0 -8.6320256e-07 -6.9598536e-06 -2.4531287e-06 -7.10017e-05 6.4122476e-05
-9.4500706e-08 -5.613338e-05 7.700946e-06 -1.9982682e-08 8.6847916e-07 7.906153e-09 4.259476e-07 2.0834328e-07
1.1057059e-06 2.785862e-10 5.1484113e-07 1.0715787e-06 1.6397325e-07 0.0 1.3782653e-07 1.6966297e-08
-6.843705e-07 0.0 3.8361463e-08 -6.05468e-07 -9.410485e-07 2.821659e-06 -8.026666e-06 -1.8799582e-08
-1.2491464e-06 8.387251e-06 -1.1065431e-05 7.93253e-06 -2.8625764e-06 5.853919e-06 1.5760095e-05 1.0585255e-05
-3.6100522e-07 7.671391e-06 5.033307e-05 -1.449569e-06 0.0 -2.9680625e-06 -1.1693103e-05 -1.9216175e-05
0.0 -3.949125e-06 -4.2772575e-05 -2.7800956e-05 -0.0002451516 0.00041299494 -8.4519644e-07 -3.849042e-05
-0.001175438 -7.495388e-07 -1.5437645e-06 -7.7045614e-10 -8.1619027e-07 -1.2229796e-06 -1.7206137e-06 -1.6099377e-09
-1.4121275e-06 -1.5492654e-06 -1.152343e-06 0.0 -3.5999617e-06 4.3754216e-07 -6.96378e-07 0.0
-4.6689803e-07 -8.175393e-06 -2.2353904e-06 -2.1292411e-05 -1.2107419e-05 -6.712274e-08 -4.271684e-05 -7.5679127e-06
-6.204663e-07 -9.0372105e-06 -3.9665716e-07 -5.0247377e-06 -5.6301515e-06 -1.3021649e-05 9.351209e-10 -3.6096317e-06
-1.965942e-05 -2.5118334e-06 0.0 -1.1127986e-06 6.148616e-07 5.313339e-06 0.0 -1.11449e-06
6.7915207e-06 8.073789e-06 -2.52858e-05 -6.869727e-05 2.4520673e-08 -1.1197128e-05 0.00014635114 -2.7966118e-09
-2.9572658e-07 -2.763968e-09 -1.609112e-07 -7.03739e-08 -3.7524396e-07 -5.691448e-13 -1.5381313e-07 -4.607852e-07
-7.009788e-08 0.0 -8.9960096e-08 -8.231218e-12 2.390501e-07 0.0 -1.9730777e-08 1.3258216e-07
2.964765e-07 -1.9564768e-06 3.4716822e-06 8.281418e-09 -8.9237255e-07 -3.647994e-07 1.3794933e-09 -1.1060348e-06
7.11208e-10 -7.644024e-07 1.36741445e-08 -1.6467936e-06 -1.3127191e-19 -8.8635693e-07 8.804127e-08 -2.0969271e-06
0.0 7.545956e-07 3.186663e-11 -1.3536608e-06 0.0 -1.4428032e-06 6.974039e-06 2.4095732e-07
-1.7337345e-05 1.5381192e-05 -9.5829535e-08 9.011054e-06 -6.6575712e-06 -1.2045428e-05 2.6657665e-06 -2.6436915e-06

exp_avg_sq f4 [128, 23]
00000000: 8ff2 3e28 3bba af2b cbff 3e28 52fd 372b
00000010: dbf7 ae2b 75a3 982c 2279 e40c a420 0f2c
00000020: 44a0 632c 506d 302d 0000 0000 8d87 352c
00000030: cc51 0b12 f07a 3b2d 0000 0000 7021 972c
00000040: 2e48 9028 341e 092d 0beb 5131 e0e8 f12f
00000050: 2e52 3829 9a71 1731 dac5 0c2c ec69 1927
00000060: 6a88 352a 9190 0f27 2989 072a a2b0 9c28
00000070: a3b4 0b2b 1e30 0c20 34bf 7b2a fafe d529
00000080: 37e8 332b 0000 0000 e708 622a 6a68 c124
00000090: 6f18 142b 0000 0000 f206 8d2a b519 0126
000000a0: dcff c02a bf24 c82e 918d 282e 058c 2a27
000000b0: bd83 842e 6462 6d2e dc22 8224 ce51 6e28
000000c0: 41a3 de23 4c7d 0428 9cbd 3f28 5aa6 6e29
000000d0: d24e 4c1c 3e83 a628 09f4 e228 4711 022a
000000e0: 0000 0000 785a 0129 f7f4 f522 9582 142a
000000f0: 0000 0000 0c52 6429 5015 d828 a989 f129
00000100: 2723 352e 3543 792d ffb5 1126 e688 b82d
00000110: 78d6 182b 6199 1c2e 41c3 eb2e d3db 8f2b
00000120: 8488 762e ba60 a92e 05a9 672f 3d07 8228
00000130: 69af ba2e abb0 622e 510a 8c2f 0000 0000
00000140: f5d9 e42e e31d 592d 42c4 822f 0000 0000
00000150: 3345 062f d120 fc2d 26f6 4f2f 88d4 d533
00000160: 4009 d332 dd93 972b 937b 8033 c1bf 0e36
00000170: 48f7 0e28 74a1 092c b98f 1928 528c 6f2b
00000180: dc2a cd2a 3b01 1e2d 26da 6c17 fe1b 0e2c
00000190: c7c8 c32b 6eb4 ad2d 0000 0000 a673 c92c
000001a0: 5375 3d21 f1c4 d52d 0000 0000 afcb 172d
000001b0: 495a 712d 2d7d c32d f1fd 0f32 12f5 1a32
000001c0: d890 d229 4a6c 4a31 dc1e 1d2d 30ff 2526
000001d0: 9d23 012b 127f 8f24 1c2a 6d2a 4601 1929
000001e0: 9d0b 062c 6da1 981e 1f91 e92a 5d29 172a
000001f0: 5f6b 812c 0000 0000 785f 962b fa75 e525
00000200: 7a73 982c 0000 0000 6b6a de2b 4d70 7b2c
00000210: b223 902c b0a1 c930 4c49 7730 7350 9628
00000220: acd8 f82f c152 3c2f d8ec 052f c00d a52f
00000230: e33a df2b 4580 192f 125b 8b2f 344b 1730
00000240: b16b e028 402e 4a2f e565 5b2f 151b 2130
00000250: 0000 0000 5833 862f 497f 9a2e 0f2a 1b30
00000260: 0000 0000 87ba 9d2f ac79 2f2f ee89 0130
00000270: bcdd 9534 02cb f133 a09a 302c 9f47 2034
00000280: ddcf b536 68a2 4c2b bcf8 092d 9f2c be26
00000290: 4e93 702c 90ec a22b 1d2d 072e 30fb 4d23
000002a0: 7dd7 9e2c 5aaa 752b 507a 822e 0000 0000
000002b0: 5d46 5a2d af71 d92a 1895 9e2e 0000 0000
000002c0: f925 f42d ca67 d72d d480 862e 7012 df32
000002d0: aa1a 9532 af97 a12a 76b4 d431 63e6 4833
000002e0: 950c 002c 7232 ae2d ad8f a52b d70f 402d
000002f0: 83a8 d02d 8037 892e 0ef6 7d20 9bdc 012e
00000300: 91f1 592e a959 0f2f 0000 0000 c8b0 1b2e
00000310: 3ab7 5e29 8dcd 142f 0000 0000 9b10 712e
00000320: 3bd6 992d cf3a df2e b8c4 1a33 9089 7f32
00000330: 5b0e 142b ecc5 e332 0acb e431 184f f422
00000340: ebbd 8c2a 86e1 f322 a119 192a 0fc7 4127
00000350: 5f16 8a2b da93 7315 5a79 692a 90af 5929
00000360: ab30 f72b 0000 0000 a113 a52a 9d33 c91c
00000370: 5ccd 002c 0000 0000 4fc8 582b 8603 f529
00000380: b415 bd2b b023 0e30 41fa 792f 3ed4 0c28
00000390: 6b97 da2e 1f74 732a 0619 2321 3cf7 892c
000003a0: 1d31 bf20 4306 cd2b 29dd 0a26 d6a3 a12d
000003b0: 7c3d 7905 bc13 d22b 9ee7 2128 643f 1c2e
000003c0: 0000 0000 3ed4 ba2c 2908 0b1c 1d39 402e
000003d0: 0000 0000 3423 922d 66a4 8a2d ba2d 212e
000003e0: 5ba6 8f32 2e40 7632 bf26 412a dd1e 4c31
000003f0: 3141 302d 803b 622e 0a84 1c2f 1492 b02b
1.0599715e-14 1.2486187e-12 1.0602585e-14 6.5366213e-13 1.2432237e-12 4.338247e-12 3.5201866e-31 2.0339641e-12
3.2347605e-12 1.0028714e-11 0.0 2.5796893e-12 4.396149e-28 1.0657017e-11 0.0 4.2953904e-12
1.6018515e-14 7.794255e-12 3.054711e-09 4.4003112e-10 4.0927487e-14 2.2037967e-09 2.0005026e-12 2.1290436e-15
1.6123358e-13 1.9923606e-15 1.2037996e-13 1.7396081e-14 4.9633404e-13 1.1874382e-19 2.2359615e-13 9.5033316e-14
6.391584e-13 0.0 2.0075921e-13 8.387729e-17 5.261407e-13 0.0 2.505145e-13 4.4790705e-16
3.428359e-13 9.1014744e-11 3.8324514e-11 2.3668144e-15 6.0260665e-11 5.397495e-11 5.643757e-17 1.32293926e-14
2.4138429e-17 7.354641e-15 1.0643745e-14 5.2990903e-14 6.759981e-22 1.848662e-14 2.5196874e-14 1.1552314e-13
0.0 2.8722223e-14 6.666675e-18 1.3190345e-13 0.0 5.0697334e-14 2.399006e-14 1.072643e-13
4.1185857e-11 1.4168934e-11 5.055363e-16 2.0979173e-11 5.4298883e-13 3.560652e-11 1.0721247e-10 1.0221775e-12
5.6055174e-11 7.702412e-11 2.1069375e-10 1.4436038e-14 8.48946e-11 5.1543363e-11 2.5473182e-10 0.0
1.04069565e-10 1.2341658e-11 2.3786312e-10 0.0 1.2211814e-10 2.8663657e-11 1.891399e-10 9.9572446e-08
2.456784e-08 1.0770236e-12 5.9829425e-08 2.1271264e-06 7.936204e-15 1.9558495e-12 8.524371e-15 8.510459e-13
3.6445055e-13 8.981533e-12 7.6531055e-25 2.0194952e-12 1.391131e-12 1.974795e-11 0.0 5.725603e-12
6.419097e-19 2.4302756e-11 0.0 8.628583e-12 1.3719311e-11 2.2224523e-11 8.381435e-09 9.019702e-09
9.351e-14 2.9456424e-09 8.931269e-12 5.759172e-16 4.587943e-13 6.223163e-17 2.1064438e-13 3.397393e-14
1.9048992e-12 1.616039e-20 4.1489812e-13 1.3425845e-13 3.678321e-12 0.0 1.0684639e-12 3.9805112e-16
4.3329203e-12 0.0 1.5803586e-12 3.5731585e-12 4.096689e-12 1.4670629e-09 8.996224e-10 1.6688235e-14
4.5264892e-10 1.71279e-10 1.2180423e-10 3.0023095e-10 1.5861447e-12 1.396084e-10 2.5348662e-10 5.504035e-10
2.49157e-14 1.8388224e-10 1.9954134e-10 5.8609945e-10 0.0 2.441094e-10 7.0257196e-11 5.644844e-10
0.0 2.869067e-10 1.5959384e-10 4.7125936e-10 2.7914746e-07 1.1259364e-07 2.5096938e-12 1.4927217e-07
5.418419e-06 7.2700743e-13 7.8427785e-12 1.3195993e-15 3.4187822e-12 1.1576452e-12 3.0735515e-11 1.1166263e-17
4.514554e-12 8.7277895e-13 5.9334426e-11 0.0 1.2407489e-11 3.8625827e-13 7.2114925e-11 0.0
2.7756452e-11 2.4488762e-11 6.116499e-11 2.5969001e-08 1.7358008e-08 2.8704597e-13 6.190528e-09 4.6775664e-08
1.8196878e-12 1.9803912e-11 1.1763833e-12 1.0917454e-11 2.3721696e-11 6.2398975e-11 2.1511346e-19 2.952714e-11
4.955464e-11 1.3037628e-10 0.0 3.5399933e-11 4.9452826e-14 1.3533548e-10 0.0 5.4811804e-11
1.7489224e-11 1.01513124e-10 3.6034834e-08 1.4874232e-08 5.2600085e-13 2.6516283e-08 6.658756e-09 6.6220076e-18
2.5000778e-13 6.6104064e-18 1.3598022e-13 2.689204e-15 9.811699e-13 4.9190094e-26 2.073666e-13 4.8335955e-14
1.7563914e-12 0.0 2.9323508e-13 1.3314406e-21 1.8303891e-12 0.0 7.70166e-13 1.0880797e-13
1.3435282e-12 5.1710014e-10 2.2735326e-10 7.817584e-15 9.9403895e-11 2.1623023e-13 5.5259666e-19 3.9212227e-12
3.238916e-19 1.4567864e-12 4.8178096e-16 1.8376339e-11 1.17192166e-35 1.4926875e-12 8.987519e-15 3.5526596e-11
0.0 5.3100016e-12 4.600179e-22 4.3706472e-11 0.0 1.6613912e-11 1.5761791e-11 3.6647775e-11
1.672304e-08 1.4333677e-08 1.7155286e-13 2.970345e-09 1.0018917e-11 5.1439297e-11 1.4235027e-10 1.2546097e-12

exp_avg f4 [128]
00000000: 8e9f a5b6 ee85 53b5 be4f 6034 1009 47b5
00000010: 729a b5b5 7440 9cb4 afd7 55b7 dd12 5db5
00000020: 62d4 8a35 b031 f033 7023 10b6 0a31 35b7
00000030: a079 9fb5 b090 efb7 ec19 3c37 61d3 8d36
00000040: b99b 1038 9676 deb6 e0dc fe33 06fb f9b5
00000050: 7835 e537 2e18 2d37 9a02 0337 d01e 9c36
00000060: ffc1 cbb7 4ace 8536 ee52 f137 4ff5 79b7
00000070: 9525 db37 9c11 2237 ca8c 4738 9cb2 8f36
00000080: 322f 1436 4ee8 03b8 8dc3 d6b6 b05c 2e38
00000090: 171f 40b7 3394 ea34 6505 1e37 7255 0537
000000a0: 5302 cd37 5041 e4b6 4031 ae37 369c 3837
000000b0: 9bb6 3bb6 1203 9eb6 1064 2b36 460f 1738
000000c0: e4cd 1d37 fc77 0436 28d9 6fb7 5ca2 55b7
000000d0: 4d5d 8337 5a55 ff36 c0dd 7b33 900d b7b6
000000e0: 87c1 0bb7 cae4 ca37 a798 1cb5 a773 63b6
000000f0: ada1 0bb8 1f28 a537 7f07 abb6 6ada 37b6
00000100: ce65 0a37 8746 adb6 12a0 3237 e852 0036
00000110: 1a1d 3737 8cb3 8036 3e8f 9537 c0b6 ef35
00000120: ba71 8137 94fd 91b7 ff9a 22b7 56ab 9837
00000130: 74e3 9f36 6eac a0b6 5b59 d4b7 08ab 4636
00000140: 36d6 ebb7 bedd a435 05ef 2336 8039 50b3
00000150: a560 99b7 e486 60b7 d7c3 6ab7 3cde bc37
00000160: 78f2 1fb8 4408 9336 bcdc 12b7 505a 03b5
00000170: 940c 3c35 c049 4736 1a2e 62b7 d054 8e37
00000180: 690e 0036 9c8a f637 d779 6c37 787c 2ab6
00000190: 142d 83b6 e1e4 a138 a81a a3b7 1b7f 38b6
000001a0: b0f7 dc36 60e4 9d34 4353 bab6 2d03 cf37
000001b0: 7b0d d737 65d7 5fb7 b653 7b37 c474 ddb7
000001c0: 929e 1cb7 82da ca37 0262 4538 fb58 1037
000001d0: 8458 0fb8 66c2 72b7 892e b236 cc40 b2b6
000001e0: 04d6 c435 0268 0038 ac74 6537 c404 bab6
000001f0: cd61 8737 10b0 7536 6845 3936 5de3 d136
-4.935958e-06 -7.879852e-07 2.0890636e-07 -7.4146465e-07 -1.35305e-06 -2.910416e-07 -1.2746007e-05 -8.2356365e-07
1.0343613e-06 1.1184909e-07 -2.14783e-06 -1.07998585e-05 -1.1881821e-06 -2.8558396e-05 1.1211709e-05 4.226735e-06
3.4477303e-05 -6.629921e-06 1.18679736e-07 -1.8625003e-06 2.7323826e-05 1.0317233e-05 7.808814e-06 4.6527493e-06
-2.4289822e-05 3.987724e-06 2.8768056e-05 -1.4898672e-05 2.6124335e-05 9.6600525e-06 4.7576417e-05 4.282525e-06
2.208119e-06 -3.1449184e-05 -6.400462e-06 4.1571155e-05 -1.14513305e-05 4.3693726e-07 9.41879e-06 7.947312e-06
2.4438987e-05 -6.802533e-06 2.076535e-05 1.1003625e-05 -2.7971462e-06 -4.7091244e-06 2.553923e-06 3.601543e-05
9.405867e-06 1.9739373e-06 -1.4296071e-05 -1.2733592e-05 1.5659863e-05 7.6095284e-06 5.8642172e-08 -5.455404e-06
-8.330105e-06 2.4186815e-05 -5.8336667e-07 -3.3892954e-06 -3.3290755e-05 1.9688216e-05 -5.09707e-06 -2.7396259e-06
8.249144e-06 -5.1640122e-06 1.0646896e-05 1.9121744e-06 1.0914426e-05 3.8355993e-06 1.7828886e-05 1.7860075e-06
1.5430956e-05 -1.7403429e-05 -9.69204e-06 1.8199597e-05 4.7650483e-06 -4.788445e-06 -2.5313979e-05 2.9603852e-06
-2.8113933e-05 1.2283488e-06 2.442802e-06 -4.848107e-08 -1.8284025e-05 -1.3382847e-05 -1.3993084e-05 2.2514832e-05
-3.813437e-05 4.3819036e-06 -8.753672e-06 -4.8932725e-07 7.005376e-07 2.969624e-06 -1.3481384e-05 1.6967213e-05
1.9081874e-06 2.939003e-05 1.4095064e-05 -2.5404424e-06 -3.909352e-06 7.71971e-05 -1.9443527e-05 -2.7492122e-06
6.5853455e-06 2.9409694e-07 -5.552925e-06 2.4677802e-05 2.5636275e-05 -1.3341986e-05 1.4980256e-05 -2.6399626e-05
-9.335245e-06 2.4182027e-05 4.7059737e-05 8.603786e-06 -3.4176293e-05 -1.4469586e-05 5.310231e-06 -5.3123567e-06
1.4665425e-06 3.0614443e-05 1.3676628e-05 -5.5437868e-06 1.6138796e-05 3.6610327e-06 2.7607548e-06 6.255154e-06

exp_avg_sq f4 [128]
00000000: ada4 5c2d 3fc4 4a2b 33fa 2e2a 89dc b42f
00000010: 3aa5 fb2d 7ac9 b42c 0a12 5130 3c42 c22e
00000020: bed9 322f 69ca 282c 85cf 6a2e 1a37 0930
00000030: 27b4 9630 b0ae 6231 4e10 3232 4dd4 a12f
00000040: 49a6 7431 1468 3731 afd7 2f2e aa90 a82b
00000050: b0b1 9331 d4be e730 13db 802f 6b37 8c30
00000060: 2c88 4c31 71f2 962f 227b 5831 6cab 632f
00000070: 1fc0 d731 6021 0e30 1943 1732 0cf9 7c2f
00000080: b0d9 ed2e c8ec 2531 5e27 a230 d8c4 e231
00000090: 3e42 2430 b9bf 832a f725 c42f a108 fb2f
000000a0: c564 8f30 273c 9b30 a763 2431 e7d6 8b30
000000b0: 1b0d d22e ec11 872e 94e6 b22e f722 b531
000000c0: f44f ae2f 8c66 122f a219 bb30 7169 3430
000000d0: 20b2 8130 d983 0230 7d0f 042f 7320 af30
000000e0: 38fe 1831 6c80 0130 a9e9 b62a 9f37 ad2f
000000f0: 4281 ca31 15dd 3630 9a94 882f 1f31 892c
00000100: 1211 aa2e 6453 b42f f67a d92e b8ba 2e31
00000110: db7e b330 2b30 092f fd57 1931 7616 6030
00000120: 3129 9b2f b049 1231 8224 6c2f 7c02 8230
00000130: 90a1 cd2f dfff 2630 5f4f 8331 0991 ef2f
00000140: 4900 2531 f63b be2b e34f 3c2c d429 832e
00000150: fe67 8031 8e4d ec30 fdb8 7530 d732 0430
00000160: da60 5331 d0fe b82d 00db 3a2f ca1f 4230
00000170: 7eff 722f 7bbd c430 78d6 2a31 65ee ee30
00000180: a83e 6930 abe6 2930 4726 922e 8b2c fa2f
00000190: eb98 3930 5c1d 3532 97f0 5b30 97d4 332e
000001a0: 7a72 942e 246b f530 28f6 802f 88f9 9730
000001b0: 2008 6430 2ab9 0d30 a5a5 2b31 b9e2 1d30
000001c0: edf5 162f ff3c 3a31 88ff 5232 7498 e32f
000001d0: b5df 0332 5000 1d30 6352 ce2e ed48 d12e
000001e0: 5f17 432f 689c d531 e54c 0e31 36c4 1f31
000001f0: 891d 7630 6ef0 282d cc68 ea2f 95df 1c30
1.25421175e-11 7.203716e-13 1.554111e-13 3.289851e-10 2.8608772e-11 5.138276e-12 7.605939e-10 8.833864e-11
1.6266363e-10 2.3986596e-12 5.3389754e-11 4.9918614e-10 1.0965139e-09 3.2986627e-09 1.0364671e-08 2.9436578e-10
3.5601195e-09 2.6689166e-09 3.998196e-11 1.197727e-12 4.298464e-09 1.6861699e-09 2.3438726e-10 1.0202091e-09
2.9763312e-09 2.7457106e-10 3.150213e-09 2.0706431e-10 6.279165e-09 5.170673e-10 8.804613e-09 2.3007746e-10
1.0816181e-10 2.4145255e-09 1.179824e-09 6.5998442e-09 5.975699e-10 2.340331e-13 3.5679168e-10 4.5662765e-10
1.043326e-09 1.1294831e-09 2.3921787e-09 1.017466e-09 9.5520224e-11 6.142273e-11 8.135462e-11 5.2717684e-09
3.1707226e-10 1.3315055e-10 1.3613326e-09 6.563346e-10 9.436611e-10 4.748109e-10 1.2010833e-10 1.2742148e-09
2.2263418e-09 4.7112425e-10 3.249183e-13 3.1508038e-10 5.8936687e-09 6.652539e-10 2.4843844e-10 3.8992277e-12
7.733737e-11 3.2801062e-10 9.88986e-11 2.542647e-09 1.3060019e-09 1.247719e-10 2.2314446e-09 8.1522644e-10
2.8223604e-10 2.1287683e-09 2.1477045e-10 9.459451e-10 3.740408e-10 6.0754063e-10 3.8216252e-09 4.35769e-10
2.4010822e-09 1.3516954e-12 2.6760753e-12 5.9646205e-11 3.737113e-09 1.7193302e-09 8.9393365e-10 4.809357e-10
3.0759595e-09 2.1031538e-11 1.6994406e-10 7.0621964e-10 2.2100541e-10 1.431473e-09 2.4860167e-09 1.7384535e-09
8.4853946e-10 6.180964e-10 6.646111e-11 4.5506385e-10 6.751992e-10 1.0542262e-08 8.0013635e-10 4.0888706e-11
6.750596e-11 1.7856547e-09 2.345797e-10 1.1057617e-09 8.2957463e-10 5.1558635e-10 2.4977933e-09 5.743846e-10
1.3729791e-10 2.7101235e-09 1.228171e-08 4.1399384e-10 7.676069e-09 5.711671e-10 9.38243e-11 9.517174e-11
1.774345e-10 6.216897e-09 2.070743e-09 2.3249078e-09 8.953625e-10 9.6030805e-12 4.2638815e-10 5.70702e-10
