results/test/Car_agent/Car_agent-15747.onnx (onnx, 86995 bytes, 8 tensors)

network_body._body_endoder.seq_layers.0.weight f4 [128, 23]
00000000: a749 b2be c2a0 05be 401b 8abe c988 9e3e
00000010: 0a8c d73e c89b 133d e86d 62bd b1e2 a43e
00000020: 2610 df3d 3284 16be fe14 c5be 34fa 463e
00000030: c5ef d5be 921c ebbd eed0 4f3e 79d5 dc3c
00000040: 93fc 943d 483c 40be 00d0 6cbe 49bd e3bd
00000050: 1a1c a23e 63e7 acbe ad1b bf3d 6976 3e3c
00000060: b740 5a3e 3ffc c0bc 2d53 efbe 46dd ec3e
00000070: b8a7 93bd be26 283d 572f 18be 4a26 b7be
00000080: 34e1 6fbd c237 ac3c 2a79 26be f301 e13d
00000090: 2ed7 e33b 65f2 3a3e 33b8 dabe edc8 7d3a
000000a0: 41eb 89be f3a9 88be f05d 25be be64 c53e
000000b0: e957 89bd ed21 90bd 4840 0ebf d81d b2be
000000c0: a7df 433c c9fe 8cbd 8aff 08be 0232 973c
000000d0: 05a9 05be bee7 d33c 2a66 00be e24d b03e
000000e0: 081e e1be f907 c13e 9794 083d 579f 893e
000000f0: 12eb eb3d 7966 b0bc a25c 96bd f908 16bd
00000100: 1351 853d 9dc9 67bb 359a 383e ff99 a7be
00000110: 16ea 973d 3e9e 0cbe 5826 333e 82be cabd
00000120: 6496 0c3e c1e6 adbd 0f9d 913e a159 933d
00000130: 6fe5 31be 3d9d 1dbd 4efc e03d e4a8 c8bd
00000140: 0f14 a13d 5a01 40be 03e0 2e3e e747 4abc
00000150: 120f db3e 1b8a 22be 30e6 f03d 5441 12bf
00000160: e352 a33d dae0 903e 2a84 813e afe8 9abd
00000170: 3175 d4bd fb52 7c3e f1be 79be 1413 823e
00000180: 10cc ecbd 9e0f 00bd 2969 6f3e 18fa 213e
00000190: 4695 05bf daac 693e 51c6 af3e ceec f73d
000001a0: 4ecb 15be 0f3d c83d 4c41 75bd 0ccf 043f
000001b0: 8f98 533e 65e0 9b3d 79c8 ac3e aa68 b7bc
000001c0: 9d98 e53c 261a 353d 819c 493e b1b7 3e3d
000001d0: 6c5f d63e ccf4 1d3d 810a 7e3e 6339 573d
000001e0: 4a01 7b3e 1aa2 043f 6538 113f ad72 6cbc
000001f0: df2a c53e e814 033e cbad 62bd 2145 c83d
00000200: 0aa7 4b3d 6639 5a3d dbb7 91be 82f3 163f
00000210: b372 e43d 743b 39bd b6e0 babd 841b a23d
00000220: 9910 743e b5ec b7bd 21f3 28be b93c ec3e
00000230: 40ba 8d3c c493 28be 8e7a cfbe 5a7e 953e
00000240: d47f d63e 6a0f 843e 5f5b 3fbd cf0e 3c3e
00000250: 7e4f 903e 2617 063f 9d49 a03e 8951 d33c
00000260: 70e6 d63d fba2 e23e 1f8f 0b3e 7237 07be
00000270: 39c8 ffbc f5cd 85bd 2c48 d13d 37a1 873e
00000280: 0cc0 c2bd aeb8 fe3d a06f 04bd 8002 37be
00000290: 264f 693e 5b6b 443e 60f7 d3bd 5aac cb3c
000002a0: 7cb8 8d3e 8f0a 2abe cfed c33d 1779 dbbe
000002b0: 6438 023e 9e28 42bc 7f01 153e 3950 a43e
000002c0: fde8 f33e 6d2b 933e f5e1 2c3e 15fc 9b3e
000002d0: 33da 5c3e 5535 3ebe ad7d 3f3e b9c1 b1be
000002e0: 0792 373e 3d2c d8be 1343 a0be 1978 e7be
000002f0: 05f9 42be ad92 b0be 68ea 7fbe 000c 00bd
00000300: 5030 b73e b590 cdbe 4ccb b23d b1e0 35be
00000310: bb8d e23b 1691 b73e 4159 f7bd d218 94be
00000320: 18a4 9d3e 561c 9cbe 8818 9b3e 6bef e03d
00000330: 5c6e 83be a9ce 503e abb4 6e3e 4561 18be
00000340: 65dc 85be de67 9f3e c436 0ebe d070 603d
00000350: 891e 6e3e b676 83be b294 1c3c ae14 c23e
00000360: 9f26 80bb 049b b9bd b740 d53d e183 13be
00000370: 25e1 44be c2a5 de3c 2c02 963e 95ca 9cbd
00000380: aa2b 1e3e 726e 4ebe baff 8ebe 95ca 483e
00000390: ed3c debd 2c92 54be c53b e83d 6b04 14bf
000003a0: ecfc 293d eb6c 9fbe 0ce0 53be 006f 69be
000003b0: c284 c93d aa72 293d 5295 f1bd 05e4 6c3d
000003c0: 7d35 a73e c0f6 15be 5026 fc3d 1a3a 303f
000003d0: b5c0 22be 5d65 ddbd 9375 0bbe 2f1e c3bd
000003e0: dbdd 93be 1f81 a1bd 8fac ce3d 61b5 71be
000003f0: d948 1e3e 449d 26be c98e a43d a8bd 803e
-0.34821817 -0.13049605 -0.26973915 0.30963734 0.4209903 0.036037236 -0.055280596 0.32204202
0.10891752 -0.14698866 -0.38492578 0.19431382 -0.41784492 -0.11480059 0.20294544 0.02695726
0.07274737 -0.18772995 -0.2312622 -0.11120088 0.31662065 -0.33770284 0.093314506 0.011624911
0.21313749 -0.02355778 -0.46743146 0.46262568 -0.07209724 0.041052572 -0.14861809 -0.357714
-0.05856438 0.021022681 -0.16257158 0.109867 0.0069531417 0.18256529 -0.42718658 0.00096811244
-0.26937297 -0.2669216 -0.16149116 0.38553423 -0.06706221 -0.07037721 -0.55566835 -0.34788394
0.011955178 -0.06884534 -0.1337873 0.018456463 -0.13052757 0.02586734 -0.12538972 0.3443442
-0.43968225 0.37701395 0.03334483 0.2687938 0.115194455 -0.021533238 -0.07341887 -0.03662965
0.06509604 -0.0035367974 0.18027575 -0.32734677 0.07417695 -0.1373224 0.17495096 -0.09899618
0.13729244 -0.084912784 0.2844014 0.0719483 -0.17372678 -0.038480032 0.10985623 -0.09797838
0.07865154 -0.18750516 0.17077641 -0.012346244 0.42784935 -0.15872996 0.11762655 -0.5713093
0.07974794 0.28296548 0.25296146 -0.07563912 -0.10373915 0.2464103 -0.24389245 0.2540518
-0.11562359 -0.031264894 0.23379959 0.1581806 -0.521809 0.22819844 0.3433099 0.12105714
-0.14628336 0.09777271 -0.059876725 0.5187843 0.20663665 0.07611159 0.33746698 -0.022388775
0.028026873 0.04421439 0.19688608 0.0465619 0.41869676 0.038563535 0.24808694 0.052544963
0.2451221 0.5180985 0.56726676 -0.014431638 0.3850927 0.12800944 -0.055341523 0.0977881
0.049719848 0.053277396 -0.28460583 0.58965313 0.1115469 -0.045222715 -0.091248915 0.079154044
0.23834457 -0.08980695 -0.16498996 0.46140078 0.017300725 -0.16462618 -0.4052319 0.2919796
0.418944 0.2579301 -0.046717998 0.18365024 0.28185648 0.5237907 0.31306162 0.025795715
0.10493171 0.4426497 0.13628815 -0.13204744 -0.031223403 -0.06533424 0.10218844 0.26490185
-0.09509286 0.124375686 -0.032333016 -0.17872047 0.22784099 0.19181578 -0.103499174 0.024862457
0.27679813 -0.1660559 0.09566843 -0.42865822 0.12716824 -0.011850504 0.14551352 0.32092455
0.47638693 0.2874407 0.16883071 0.3046576 0.21567611 -0.18575032 0.18700285 -0.3471811
0.17926799 -0.4222125 -0.31301174 -0.45208815 -0.19040306 -0.34486905 -0.24991763 -0.031261444
0.35779047 -0.40149465 0.08730182 -0.17761494 0.0069138682 0.3585288 -0.12077571 -0.28925186
0.30789256 -0.3049037 0.30292153 0.10983165 -0.25670135 0.20391335 0.23311107 -0.14880855
-0.2614471 0.31133932 -0.13888079 0.054795086 0.23253836 -0.25676507 0.009556936 0.37906402
-0.003910854 -0.0906277 0.10412734 -0.14405777 -0.19226511 0.027178649 0.29298532 -0.07655827
0.15446344 -0.20159319 -0.2792948 0.19608529 -0.108514644 -0.20758885 0.11339525 -0.5781924
0.04150097 -0.31137785 -0.20690936 -0.2279625 0.09839775 0.041369118 -0.11796059 0.057834644
0.32657996 -0.14644909 0.12311995 0.68838656 -0.15893824 -0.10810349 -0.1361907 -0.095272414
-0.288802 -0.07885956 0.10091507 -0.23604347 0.15457477 -0.1627093 0.080350466 0.25144696

network_body._body_endoder.seq_layers.0.bias f4 [128]
00000000: af0f 03ba cee3 1139 2be5 073a d0aa 803a
00000010: ff7c a7b9 e7f2 e83a 9d05 ffba 1a3e abb9
00000020: d0f7 cf39 0a41 67b9 8347 3c3a 9eaf b8b9
00000030: 3a05 04ba fa4e 62ba e051 1539 2c0c f638
00000040: 3f59 bdb9 cbcd b8ba 9cd8 b5b9 4803 013b
00000050: 9ff3 a0b9 597e 9d39 c93c 67b8 eb5d 94ba
00000060: 6ea6 be3a b42c 17ba bb42 06ba 6b97 b537
00000070: 6ae2 9139 3b0d 12ba 9ef3 713a b712 783a
00000080: 9cc3 3d38 4119 ceb9 f0a4 2c3a 11c9 7d39
00000090: 27a6 ce3a fc31 09b9 c854 ef3a 4c7b d439
000000a0: 6d49 feb7 84e6 c739 b84e 8f3a 54ca ba3a
000000b0: b239 6639 f345 1d3a 7134 0aba 23b3 3db9
000000c0: c500 db38 a014 61ba 6300 a5b9 8235 9db8
000000d0: af27 1aba 3169 343a 070e ab3a b19a 3dba
000000e0: dd39 1fba b5cc c73a 13b7 1a3a a851 beba
000000f0: 5451 80ba ff14 3cba 81b4 90ba 83ca 9d39
00000100: e28e 7039 9ead 613a 6648 963a 0803 63b9
00000110: 01b0 1f3a 4a6c c538 22be 6439 c208 1d3a
00000120: 738d ccb9 2076 4cb9 c303 60b9 eb5e efba
00000130: 915a 54ba 6685 acba dec5 a237 7b9e 6fb9
00000140: 4c33 0239 cdd5 0cba 5fc7 adba a880 a43a
00000150: 4a2d 4138 8c8e ffb9 ba97 453a 4f00 9539
00000160: efca 513a 8a25 2439 05a9 a33a d175 c239
00000170: b4bd 9c3a d679 b639 503e efb9 a038 c0ba
00000180: 6203 5c37 c76a 1cb9 d313 9a39 b2eb 8939
00000190: 7479 7437 b05a d6ba 7148 e1b9 7bdc c3b9
000001a0: ac1d 4f39 83ee beb9 5a45 7939 889a 85b9
000001b0: 77a0 9c39 e5cb d7b7 df80 6939 2809 e9b8
000001c0: ddf8 b4b9 2a97 2fb9 c625 aeba fafd 26ba
000001d0: b312 a739 1714 c2ba 88b7 bcb9 09a4 7c3a
000001e0: 90ff 31ba 14f0 d8b9 7886 bf39 36f2 493a
000001f0: ef28 f739 864b 4039 6ffe 9eba fcd0 6e39
-0.00049995905 0.00013913141 0.000518399 0.0009816531 -0.00031945852 0.0017772586 -0.0019456629 -0.0003266193
0.0003966675 -0.00022054106 0.0007182287 -0.0003522606 -0.0005036179 -0.0008632984 0.00014240248 0.00011732461
-0.00036115383 -0.0014099417 -0.00034684397 0.0019685794 -0.0003069909 0.0003003951 -5.5131302e-05 -0.0011319494
0.001454545 -0.0005766854 -0.0005121638 2.164739e-05 0.00027825247 -0.00055714295 0.0009229722 0.0009463238
4.5243287e-05 -0.00039310197 0.0006585857 0.00024202863 0.001576607 -0.00013083959 0.001825952 0.00040527654
-3.0313351e-05 0.00038127985 0.0010933494 0.0014250972 0.00021956002 0.0005999498 -0.00052720966 -0.00018091178
0.00010442877 -0.0008586142 -0.0003147154 -7.49631e-05 -0.0005880547 0.000688213 0.0013050445 -0.00072328286
-0.0006073991 0.0015243503 0.0005901914 -0.0014520185 -0.0009789863 -0.00071747595 -0.0011040122 0.00030096257
0.00022941412 0.000860894 0.0011465668 -0.00021649536 0.0006091595 9.4138624e-05 0.00021814604 0.000599038
-0.000390153 -0.00019498961 -0.00021363706 -0.0018262541 -0.00081006536 -0.0013162314 1.9404044e-05 -0.00022851855
0.00012416876 -0.0005372435 -0.001325827 0.001255055 4.6056964e-05 -0.00048743596 0.00075375626 0.00028419725
0.0008002957 0.00015654243 0.0012486285 0.00037090344 0.0011958391 0.0003480452 -0.0004563206 -0.0014665313
1.31138095e-05 -0.00014917097 0.0002938794 0.00026306283 1.4571811e-05 -0.0016353931 -0.00042969317 -0.0003735757
0.00019752112 -0.0003641733 0.00023772326 -0.00025482872 0.00029874194 -2.5724943e-05 0.0002226862 -0.00011112011
-0.00034517693 -0.00016745614 -0.0013286404 -0.0006370243 0.00031866654 -0.0014807013 -0.00035994896 0.000963748
-0.0006790096 -0.00041377603 0.00036530546 0.0007703634 0.0004714201 0.00018338682 -0.001213027 0.00022775301

network_body._body_endoder.seq_layers.2.weight f4 [128, 128]
00000000: 3e38 8e3b 054d 30bd 65f4 93bd 17df e03c
00000010: 9e73 f1bd 3733 613d b6d8 a73c 04d0 edbc
00000020: 4b83 3cbd 0fdb 11bd 5b06 043c 6930 b43c
00000030: ffcd 2b3c 3771 5cbd 6515 c4bd 75f8 37bd
00000040: 2e0f 263d 180a ccbd 61b8 60bc 5645 e23a
00000050: 6e9e 253e 225c 753e 1a80 853c 5a18 c8bb
00000060: 1a3a fcbd b7e1 a93b a9d8 80bd 8e1c 9eb7
00000070: c4b1 6d3d 79d5 82bd e261 4a3b 3a8f 04bc
00000080: d5f0 9ebd 5bfe 7fbd d410 413e b693 a9bd
00000090: 7b25 3dbc 2272 b23d 8679 29bd 0eaf 68bd
000000a0: 5a1d 98bd edce ff3c 4351 cbbd 5f53 d1bd
000000b0: 5603 803a a52a 613d 7a91 df3d 7ebe 763c
000000c0: 59c2 7f3d 2802 fbbc 3320 963d afd0 1e3c
000000d0: cd38 313c 7c9c 563c dbf8 763d 70cb c53c
000000e0: ab44 bc3d dced 3a3e 832b c53c 6543 2d3d
000000f0: a548 7cbd d59c cabc 7c4a cd3c ce2b 943d
00000100: 8186 713d a0e3 403d bb8c 48be a54e 4e3d
00000110: 641c 79bc ae06 853c 93ca 633d 7ccc ea3d
00000120: ea86 533e c8d1 d93d b76a a13e a463 02be
00000130: 3565 cbbd 909b 1b3a 947e 7bbd a646 e7bc
00000140: 05c8 773d 0076 f83c 98be 6abd 14c9 5f3c
00000150: 7ee5 b2bd 0609 07be 5a10 8a3d 1686 673a
00000160: 8bad 96bd faa9 9f3d 3489 a7bd 47fe ec3d
00000170: c490 e03d 3dfa 433d ce71 81bd 5415 9b3d
00000180: 11a6 b0bd 391d dcbc 46a0 55bd b3fa adbd
00000190: 18fb dd3c 75da b53c b02f f7bd f5ae c13c
000001a0: 7ae4 c0bd 2322 b4bc b7bb 42be e497 9fbd
000001b0: 4b23 c9bd 2f70 e03d 160d 00be b93e e7bb
000001c0: f07c e03d def7 a8bd 8224 c1bd ec93 e23c
000001d0: 7d7e da3d ee48 88bc 4148 cd3d 2be8 13bd
000001e0: 0e01 76bb 134c 3fbd e056 6e3c 5858 da3d
000001f0: 4d29 1c3e 3e88 2abd ffe8 10be acdb 973d
00000200: ccae 973d 6238 90bd 099e 01be 94ff 7c3d
00000210: 09cf 80bd b3dc 9f3d 39cd ecbb 6c9c 76bc
00000220: bfb5 94bc dd98 8c3d 84f4 823c ca61 603d
00000230: 1e1e a6bc ec83 163d 827a 15bd 7eec 8aba
00000240: 951a f43d 5498 13bc d43c 16bd c24c d8bd
00000250: f94a 57be fb48 903d 25cd a03c 6f23 04be
00000260: 75be 563a 261a f6bd 3821 a7bc 5244 833d
00000270: ed8c 0a3c 3f25 ffbc 1505 04be 5f44 9f3b
00000280: c806 12be 7b4c efbc 8015 a03d 6730 253d
00000290: c489 213d 9b62 3c3d bf8f 6c3c 52b9 9abc
000002a0: 6c07 a53d f3a3 923d 5031 03be 6765 933d
000002b0: fcf2 f73a 74bb 04be 9303 86bd b484 18bc
000002c0: 34ad 2a3e 963a 233d 5836 3ebd f5c2 aabd
000002d0: e5eb d4bc 65a1 1cbd 820f 0e3e d8c0 05bc
000002e0: 47bf 0b3b 5e4f 983d 3f0b a1bd 6625 54bd
000002f0: f5ea 993c 5f82 483c 944f 123e 85bb 34bd
00000300: d9b1 1f3d 5a94 413d 614f fb3c 7257 4abd
00000310: aefd 8b3a 0009 d83d 221b cf3d 86d7 ce3d
00000320: 3ee8 a4bd 88f8 59bd 08bc d83d 7e27 c9bd
00000330: 1c48 2abe 0a2b eabd bfb0 61bd cb9d 9fbb
00000340: 4797 febd 0d13 c13c ff7b 563c 3d89 ff3d
00000350: 1146 11be 4265 7d3d 5f38 4abd 21dd 003d
00000360: 45c4 9fbd c5d9 72bd e7cb 983d 6874 76bd
00000370: 2b91 5fba 7828 513d 3a52 1cbc 6b28 983b
00000380: 20ca b6bd 1657 b23d 6b0b 8b3d 6c31 6dbd
00000390: 9f79 7bbd be2c 83bd 300c 1dbe 1cd7 e23c
000003a0: f3d9 a33a 0670 6a3c 14ff b9bd 9598 44bd
000003b0: 2afe 1c3d dcba 94bd 0b08 023d c122 04bd
000003c0: 5dc5 a3bd 7069 68bd 5895 1fbe 5b5b d4bd
000003d0: ea51 02be 35f3 35bd 9cf7 23be e2f1 d5bd
000003e0: ce5b 803d c371 303e a7d6 4d3d f4ce 073e
000003f0: adc2 07be 45a7 353e d816 8b3d 23bc c43c
0.0043402007 -0.0430422 -0.07224349 0.027450128 -0.1178963 0.054980483 0.020489078 -0.029029854
-0.04602365 -0.0356093 0.008058156 0.02199574 0.010486125 -0.053818908 -0.09574393 -0.04491468
0.04054182 -0.09962863 -0.013715834 0.0017263095 0.16173717 0.23960927 0.016296435 -0.0061064186
-0.123157695 0.005184378 -0.06291325 -1.8848365e-05 0.05803086 -0.06388373 0.0030881097 -0.0080907885
-0.07760779 -0.06249843 0.18854076 -0.08280127 -0.011544581 0.08713175 -0.04137566 -0.05680757
-0.07427473 0.0312266 -0.09927609 -0.1022098 0.0009766619 0.05497231 0.10916419 0.015060065
0.062441204 -0.030640677 0.0733036 0.009693309 0.010816765 0.013098832 0.06029592 0.024144858
0.09192785 0.18254799 0.0240686 0.0423006 -0.061592717 -0.024732986 0.025059931 0.072349176
0.058966164 0.04709208 -0.19584934 0.05036797 -0.015204523 0.016238537 0.05561311 0.114647835
0.20656934 0.10635716 0.3152673 -0.12733322 -0.09931413 0.00059359614 -0.06140001 -0.02823193
0.060493488 0.030329704 -0.05731067 0.013658781 -0.087351784 -0.13187036 0.067414 0.0008831931
-0.073573194 0.07796092 -0.08180466 0.11571937 0.10965112 0.047846068 -0.06320535 0.075724274
-0.08625425 -0.026869403 -0.0521548 -0.08495083 0.02709727 0.022198895 -0.120696425 0.023642996
-0.094185784 -0.021988934 -0.1901692 -0.07792643 -0.09821185 0.10958897 -0.12504992 -0.0070570377
0.1096133 -0.08250402 -0.094307914 0.027658425 0.10668657 -0.016636338 0.10023547 -0.036110085
-0.003753725 -0.04670341 0.01454708 0.106613815 0.1525013 -0.041633837 -0.14151381 0.07414946
0.07406387 -0.07042004 -0.12657942 0.061767176 -0.06289489 0.07805767 -0.007226613 -0.015051942
-0.01815307 0.06865094 0.015985735 0.05478076 -0.020278033 0.036746904 -0.036493786 -0.0010599045
0.119191326 -0.009008486 -0.036679104 -0.105615154 -0.21024694 0.0704517 0.01962907 -0.12904142
0.00081918325 -0.12016706 -0.020401582 0.064095154 0.008456451 -0.03114569 -0.12892564 0.0048604454
-0.142604 -0.029211273 0.07816601 0.040329363 0.039438024 0.045992475 0.014438569 -0.018887196
0.08058056 0.07160177 -0.1281178 0.07197075 0.001891702 -0.12962133 -0.065436505 -0.009308983
0.16667634 0.039850794 -0.046438545 -0.08337966 -0.02599139 -0.038239855 0.13873103 -0.008163653
0.0021323727 0.07437013 -0.07863473 -0.05179348 0.018788794 0.012238114 0.14288169 -0.044124145
0.038987968 0.04726062 0.0306775 -0.0493998 0.0010680461 0.105485916 0.10112597 0.100997016
-0.08052109 -0.053215533 0.10582739 -0.09821986 -0.1662907 -0.1143399 -0.0551002 -0.0048711053
-0.124311976 0.023568654 0.013091086 0.12477348 -0.14186884 0.061864145 -0.049370166 0.031460885
-0.07801107 -0.059289712 0.07460766 -0.060169607 -0.00085284066 0.051063985 -0.009541089 0.00464349
-0.08925271 0.087080166 0.06789287 -0.05790846 -0.061395284 -0.06405018 -0.1533668 0.027690463
0.0012500867 0.014308935 -0.090818554 -0.047997076 0.038328327 -0.07262203 0.03174595 -0.032259706
-0.079966284 -0.056741178 -0.15584314 -0.10368987 -0.1272656 -0.044421393 -0.16012424 -0.10446526
0.0626751 0.17230897 0.050253537 0.1326254 -0.13257857 0.1773959 0.067914665 0.024015492

network_body._body_endoder.seq_layers.2.bias f4 [128]
00000000: 87f1 b6ba fc14 97b9 4a35 b839 fbe5 e8b8
00000010: 68c7 e73a 0ce9 b738 7a65 c839 fda5 a33a
00000020: 36b8 6e38 b73c 04ba 2e92 ab39 7cc1 8039
00000030: 436b 883a 64c9 78ba b19b 1db9 1699 27b9
00000040: 6e49 eeb9 a912 35b9 2bd5 2eb9 214a ab39
00000050: 32f6 b6b9 9a1a 55ba 6e4a 6ab9 3549 cd39
00000060: 4ef0 7d3a a34a 64ba e284 4a39 93c5 18b9
00000070: bbb3 50b9 8b2c 20ba 24e1 d038 2b6c bb3a
00000080: ca7f 83ba 0b0b 823a 7183 c2ba 4236 d4b9
00000090: 7126 3eba bac2 9839 b13f daba b623 47bb
000000a0: 7b74 a6b9 f589 93ba 8705 1cba fca4 563a
000000b0: feca 39ba f7f7 24ba 796c 22ba c175 31b9
000000c0: 5dd9 33ba e4c9 9439 3495 1aba f93d c139
000000d0: e4fd 77ba 7dd0 32ba 1ec8 df3a f902 dbba
000000e0: 1a1d eab9 2539 acba 58d1 4bba e618 7f3a
000000f0: bfa4 65b8 0ba3 aa3a fe01 9cba ebf2 153a
00000100: dd0a e23a f67c 8cba ba08 ae39 6c82 b8b9
00000110: 3be3 94ba 28f2 81b9 78ec 943a cae4 a839
00000120: 0262 e6b8 afca 5c39 e81b 69ba 24fd 4fb7
00000130: 0979 b738 bfb1 b0b9 62d1 b9b9 4654 4639
00000140: ca44 9c3a 0264 67b7 bb36 93b7 ea69 4db9
00000150: f8fc 2cb8 561e 80ba 241b d339 5b7b a939
00000160: e4ae 9e37 7090 8539 a522 cab9 320e c8b9
00000170: 6d93 503a 9f38 9fb9 72c2 beb9 12f3 fbb9
00000180: 2ad8 27bb 0a52 6038 4725 153a abf4 3c39
00000190: 7edd 8739 4a43 03ba e195 71ba 3d2a 3f39
000001a0: 5abc 9db9 bc6d 983a 2f9d 393a 7c62 6f39
000001b0: 6ea9 91ba 9c44 5b3a b484 e039 c3fc c2ba
000001c0: 3b36 5939 602e 3eba 0249 8239 2023 2eb9
000001d0: 7b5c 4b3a ec96 b6ba 85be 1f3a a029 7c3b
000001e0: 0c66 99ba 6742 aa3a 1101 b2ba cb3e 463a
000001f0: 75b8 9e39 c49c ba39 eb1e 4dba a095 b8ba
-0.0013957479 -0.000288166 0.00035134918 -0.00011105459 0.0017683329 8.769528e-05 0.0003822258 0.0012485381
5.691518e-05 -0.00050444476 0.00032724574 0.0002455822 0.0010407943 -0.0009490459 -0.00015030686 -0.0001598339
-0.00045449607 -0.00017268457 -0.00016673344 0.00032670892 -0.00034897175 -0.0008129269 -0.00022343706 0.0003915519
0.0009686992 -0.00087086315 0.00019313724 -0.00014569452 -0.0001990338 -0.0006110153 9.9601486e-05 0.0014299204
-0.0010032591 0.0009921504 -0.0014840198 -0.00040476216 -0.0007253653 0.00029136782 -0.0016651062 -0.0030386276
-0.00031748772 -0.0011256324 -0.00059517514 0.0008188037 -0.0007087438 -0.0006293053 -0.0006195973 -0.00016923902
-0.0006860698 0.0002837918 -0.0005896867 0.00036858002 -0.0009460135 -0.00068212283 0.0017073189 -0.001670926
-0.0004465364 -0.0013139589 -0.000777503 0.0009731188 -5.4751286e-05 0.0013018561 -0.0011902449 0.00057200965
0.0017245669 -0.0010718394 0.00033194368 -0.00035192387 -0.0011359224 -0.00024785218 0.0011361977 0.00032213918
-0.0001098551 0.0002105634 -0.0008892403 -1.23971e-05 8.7486645e-05 -0.00033701767 -0.00035441952 0.00018914146
0.0011922356 -1.3791958e-05 -1.7549251e-05 -0.0001958978 -4.124359e-05 -0.0009774666 0.00040265277 0.000323261
1.8916508e-05 0.0002547535 -0.00038554255 -0.0003815755 0.00079565385 -0.0003036903 -0.00036384497 -0.00048055552
-0.0025611022 5.3482167e-05 0.00056894537 0.00018020223 0.0002591423 -0.000500728 -0.0009215754 0.00018230914
-0.00030085706 0.0011629383 0.0007080612 0.00022829504 -0.0011113116 0.00083644106 0.0004282348 -0.0014876354
0.00020714935 -0.0007254835 0.00024849927 -0.00016607018 0.0007757616 -0.0013930476 0.0006093758 0.003847696
-0.0011703386 0.001298976 -0.001358064 0.00075624575 0.0003027354 0.00035593484 -0.00078247365 -0.0014082678

action_model._continuous_distribution.log_sigma f4 [1, 2]
00000000: 8492 f33a e120 0e3b
0.0018583094 0.0021687078

action_model._continuous_distribution.mu.weight f4 [2, 128]
00000000: 25af ab3c 8a58 85bc 82f1 b23c e80b bfbc
00000010: 7b5b 8c3a 5cc6 983c ade1 ccbc 4d37 a4bb
00000020: 4675 053d f5ab 94bb 2fec a43b a09c bdbb
00000030: bba8 11bd 4d48 a23c 7faf c73c e30e a73c
00000040: 2c12 a1bb 3638 d73c 4bf2 c73c 29b2 223c
00000050: a7e4 b7b9 5e85 c0bc 3139 873c ce45 7d3c
00000060: f282 873c d9d9 213c d3cd 733c 213f d73c
00000070: bd41 853c ab73 96bb 9a41 03bc 4494 04bd
00000080: 9f7c 093b 6488 5dbb 98f1 c8bc 9e35 7d3c
00000090: f181 083c 2f8c 153d 0a04 2fbc 8c5d 56bc
000000a0: 2e17 723b ee72 683c 7e19 7b3c b6f7 2bbc
000000b0: c205 d33c 6a2d c3ba adc6 13bc 5f5d 4c3c
000000c0: 44cd ecbc c374 813b 8060 cfbb 1c4c b9bb
000000d0: 6e97 91bc c4ac 16bc ec28 8e3c 30a5 54bd
000000e0: b1a8 aabc 07e1 d83c 8934 8d3b 459f b3bc
000000f0: 599b a5bc 0065 8b3c 2a19 cb3b 457e 173b
00000100: c433 3ebc 4931 6b3c 8463 883c 4f35 ae39
00000110: 10f3 3d3b 3ea0 ce3c 2849 32bc 7afc 003d
00000120: 842c 213d f216 24b9 f4b7 4fbc 5f31 bbbc
00000130: cc06 a3bc 66b2 5eba eb4e b23b 993d d0bb
00000140: bb03 3bba 75a1 78bc ccdc d6bb 62aa 9b3c
00000150: 1267 ad3c 5994 b4bc 7ef8 cf3b df4d 0cbb
00000160: 434a 65bc 3517 a9bc 673c c0bb feda c3bc
00000170: 3ab2 943c cb4c 923b e074 b53b 7327 3bbc
00000180: 7f17 95bc 3cfc babc 7b46 b53c e7be e53b
00000190: 2fb5 d33a 0e9c 64bc 9768 5d3c 30d7 4f3c
000001a0: cbd9 2a3c 3db5 30ba 409e a2ba 0c6e 35bd
000001b0: daba a33b dd8e a33c 8ae3 0a3d 71ef f9ba
000001c0: c1e8 88ba e819 48bc 383e d93a 4e9d d1bc
000001d0: 6261 dbbb 69f2 8dbc 1892 9fbc dd04 c0bb
000001e0: c1db 9cbc 1c9e 443a c78e 403c efa0 c3bc
000001f0: 7b98 383c 7830 f4bb ef3b c83c cda9 56bc
00000200: 1b13 59ba 0227 babc 450d 263d 600b 36bc
00000210: 4361 78bc 370f a1bb 0924 d83c 7336 91bc
00000220: a486 a3bc 79b1 1dbc bc95 0bbd cd44 f33c
00000230: 9b58 363b 393f 3a3b 581e 39bc 2c46 2bbc
00000240: 35aa 7cbc cac9 e5bc 6400 21bc 5855 0e3d
00000250: 9c1d 2a3c 2085 18bd f03d 7abc f338 a03c
00000260: c23a a03c c548 5d3a 1968 b5bc 1641 17bc
00000270: 1c35 68bc 6f0a 74bb 82bb 5b3c b5af b5bc
00000280: 1c51 3cba cc3f 45bc 72ce db3c 3860 0ebd
00000290: 6543 22bd 13c9 ecba 4de8 8d3b 0e6f c03c
000002a0: a316 f1bc 17b9 bd3b 815b d3bc 149d 0fbd
000002b0: ec05 dc3c 4fa9 b1bb 3a3f 20bc 3dc5 033a
000002c0: 40a1 b7bc 28fb 903c 8947 ccbb b1c6 9e3c
000002d0: 0278 8e3b 5699 363d 5b94 4abc 2473 163b
000002e0: 38c2 a1bc 6d7c ac3b e414 0f3b 8e62 513c
000002f0: c1b8 003c 7c85 c2bb 2759 d43b 5201 d4bb
00000300: 44c0 8bbc 3ae5 003c 07d0 1e3c e264 f6bc
00000310: 8e3f 9c3c 8aed 3cbd 87b1 6abc 7f15 e9bc
00000320: 7dcd debc 2aa3 703c 8f0e 96bb 1d29 8ebc
00000330: 9e83 b33b e6c2 18bd 6c44 9ebc 088a b2bc
00000340: a411 34bc e99d a33b b2fa 1c3c 04f5 ccbc
00000350: cb1e 2c3b 2b05 c0bb 034c 13bc 8f73 313c
00000360: 7901 c7bc 5bed d4bc 8e51 c6ba 55e9 443c
00000370: 3303 33bc b985 1bbd ed7e 5ebc 4d2c 08bc
00000380: 578c 99bc 638e 113c 4853 62bc 6a9a 2cbc
00000390: 6c4f 023d c161 61bc 92e7 cb3a 46a2 07bc
000003a0: 24cd 9cbc 0ca1 d1bc 1ae0 10bc 31ef 97bc
000003b0: 357f c63b 2ce6 943b 5c2d 3cbc 167b e23c
000003c0: fe54 a63c 9958 dcbc f40e d63c 758e f2bb
000003d0: a8ce e73b 7493 933c 5561 203b 04b9 34bc
000003e0: 77c5 9abc b327 fdbc 3bf3 853c 8b10 74ba
000003f0: bd6b 46bc 97d7 7ebb 53bf 413c a3ad 7d39
0.020957539 -0.01627757 0.021843676 -0.023321107 0.0010708416 0.018649273 -0.025009954 -0.005011475
0.032582544 -0.0045371004 0.005033038 -0.0057864934 -0.035561305 0.019809866 0.024375675 0.02039284
-0.0049154963 0.02627192 0.024407526 0.009930172 -0.0003507484 -0.023501094 0.016506763 0.015458537
0.016541932 0.009878599 0.014880615 0.02627522 0.016266698 -0.0045914254 -0.008011246 -0.03236796
0.002097882 -0.003380322 -0.024529263 0.015454678 0.008331762 0.036510643 -0.010682115 -0.013083827
0.0036940086 0.014187558 0.015325902 -0.010496071 0.025759581 -0.0014890854 -0.009019536 0.012473433
-0.028906472 0.0039506867 -0.0063286424 -0.005654825 -0.017772403 -0.009196464 0.017353497 -0.051915348
-0.020832391 0.026474489 0.004309241 -0.021926532 -0.020215677 0.017015934 0.006198068 0.0023116034
-0.011609022 0.014355012 0.016649015 0.00033227584 0.0028983988 0.025222894 -0.0108817 0.03149078
0.039349094 -0.00015648807 -0.012678135 -0.02285069 -0.019900702 -0.00084952114 0.0054415367 -0.0063549993
-0.000713404 -0.015175213 -0.0065570828 0.019002143 0.021167312 -0.022043394 0.0063467612 -0.002140872
-0.013994756 -0.020640949 -0.0058665755 -0.023908135 0.018151391 0.004464721 0.005537614 -0.01142298
-0.01819968 -0.022825353 0.022128334 0.0070112827 0.0016152019 -0.013953222 0.013513706 0.012685582
0.010427902 -0.0006740874 -0.0012406781 -0.044294402 0.0049966397 0.019965583 0.033908404 -0.0019068551
-0.0010445343 -0.012213208 0.0016574329 -0.025587704 -0.0066949585 -0.017327504 -0.019478843 -0.0058599547
-0.019147756 0.0007500367 0.011752791 -0.02388045 0.011266823 -0.007452067 0.024442641 -0.013102007
-0.000828074 -0.022723678 0.04054 -0.01111111 -0.015159908 -0.004915144 0.02638437 -0.017726159
-0.019961663 -0.009624832 -0.034078345 0.029695893 0.002782381 0.0028419031 -0.011298738 -0.010453742
-0.01542144 -0.028050322 -0.009826753 0.03474936 0.010383036 -0.037236333 -0.015273556 0.019558406
0.019559268 0.00084413245 -0.022144364 -0.009231826 -0.0141728185 -0.0037237664 0.013411405 -0.02217851
-0.0007183717 -0.012039136 0.02683184 -0.03475973 -0.039615054 -0.0018065296 0.004330671 0.023490455
-0.02942974 0.0057898867 -0.025800468 -0.03506191 0.026858293 -0.0054217945 -0.009780699 0.0005026644
-0.022415757 0.017697886 -0.0062341136 0.019381853 0.004347802 0.044579826 -0.012364472 0.0022956813
-0.019745931 0.005263856 0.002183252 0.012779845 0.007856549 -0.0059363227 0.0064803544 -0.006469884
-0.017059453 0.007867152 0.009693152 -0.030077402 0.019073274 -0.046124972 -0.014324552 -0.028452633
-0.027197594 0.014687339 -0.0045793722 -0.017353589 0.0054783365 -0.037295245 -0.019319735 -0.021794334
-0.010990534 0.0049931896 0.009581255 -0.025019176 0.0026263471 -0.005859991 -0.008990291 0.010830774
-0.024292694 -0.025992086 -0.0015130506 0.012018521 -0.010926056 -0.037969325 -0.013580066 -0.008311343
-0.018743677 0.008884045 -0.013813801 -0.010534862 0.031814024 -0.0137562165 0.0015556684 -0.008278435
-0.019140787 -0.025589488 -0.0088424925 -0.018546673 0.0060576447 0.00454404 -0.011485424 0.027646583
0.0203042 -0.026897715 0.026130177 -0.007402236 0.007074196 0.018014647 0.0024472077 -0.011030439
-0.018892987 -0.03090272 0.016351333 -0.00093103264 -0.012110648 -0.0038885826 0.0118254 0.00024192645

action_model._continuous_distribution.mu.bias f4 [2]
00000000: 6046 67b8 7557 9939
-5.5140234e-05 0.00029247595

action_model._discrete_distribution.branches.0.weight f4 [1, 128]
00000000: 97c1 3e3c d2e0 533b 351e 1f3c 7838 8abb
00000010: c399 373b c8d5 25bc 6255 1bbc da89 29ba
00000020: 70df 983b ac79 833b 2896 84bc 6394 4c3c
00000030: 2682 24ba 57a9 53bb f7ec 13bc 15e5 5abb
00000040: 1f4e 6fbc fedf 1fbb 9ee4 073c 5a4f ac3a
00000050: 5e9f 92ba d5f8 853b 305b 05bb 1309 5f3a
00000060: 2031 51bc 4d06 0fbc 2f7d 8f3b 880f b1bb
00000070: 3375 5cbb c0a6 8dbc b6af 89bc f23a 233c
00000080: e73a 0f3c ed1c 15bc 160e a53c cfdc 063b
00000090: da30 713a adad 073c f3ad 5fbb 6565 77bc
000000a0: c507 b03c fd78 c73b 077b 09bc 65c0 f93b
000000b0: 9ba3 0bbc 07cc 403a c25e a6bb 8bd5 543b
000000c0: 7b31 46bb 07b4 01bc a2bb 8f3c cf92 abbb
000000d0: 2dfd 533b 93e1 fc3a 03a2 66bb 1f83 e2bb
000000e0: 3d91 643b ff64 93bb 383d 5bbc d8a3 263a
000000f0: 6522 f6bb 4f4c e0ba 97f2 e23b dc64 ba3b
00000100: 3d4c 74bb 0d96 09bc 8338 50bc 67ae 523c
00000110: 4dc6 353c 37c8 26bc 4bdc 123c 49a0 32bc
00000120: c30b a13b 5a23 31bc dd08 f63b f626 ab3c
00000130: 2d86 21b9 fb88 51bb fbaa c4ba 73fc 4d3c
00000140: 4002 2abc 4555 25bc 246c 2dbc 17dd 1ebc
00000150: d6aa 9c3b 24c9 84bb fd7f 13bb af81 8cbc
00000160: 52e3 5cbb ab7a aabb 8103 9839 c79d 893b
00000170: 7776 903b 2bfd b2bb a716 c43c 04b6 a3bb
00000180: 5a47 65bb 4839 0fba 2753 92bb fbc0 99bb
00000190: f4b9 04bc 84aa 47bc 3591 71bc 81f3 483b
000001a0: ef8a 9e3c ffd4 f13a d3b0 c93b 829f 45bc
000001b0: f8de 2a3c 0f86 4e3a 5a3d 563c c756 11bc
000001c0: 808b 663c 16f4 0bbc 316b 913c 54bb 01bc
000001d0: fc70 3d3b 5aad 36bc 8629 233c f7f2 02bc
000001e0: 32e9 0a3b 889f 573b 87ba 323b 43dc d43b
000001f0: 7735 293c 73f6 64bc 724f f7ba 6d6b b33b
0.011642835 0.0032330048 0.009711792 -0.0042181574 0.0028015233 -0.01012177 -0.009480806 -0.000646738
0.0046653077 0.004012307 -0.016184881 0.01248655 -0.0006275497 -0.003229698 -0.009028665 -0.0033400704
-0.014606028 -0.0024394984 0.008294253 0.0013146207 -0.0011186411 0.004088501 -0.0020348541 0.0008508127
-0.01276806 -0.00872953 0.0043789367 -0.005403463 -0.0033639192 -0.017291427 -0.016807418 0.009962784
0.008742071 -0.009101135 0.020148318 0.002057839 0.00092007 0.008281154 -0.0034130781 -0.015099858
0.02148808 0.006087421 -0.008391148 0.007621812 -0.008522893 0.0007354621 -0.005077214 0.0032475914
-0.0030241895 -0.007916457 0.017545525 -0.005236007 0.003234695 0.00192933 -0.0035191781 -0.0069126035
0.0034876608 -0.0044981237 -0.013381295 0.0006356812 -0.0075114244 -0.0017112585 0.0069258916 0.005688293
-0.0037276887 -0.008397591 -0.012708786 0.012858964 0.011094642 -0.010179571 0.008963655 -0.010902473
0.004914732 -0.010811651 0.007508381 0.020892601 -0.00015404141 -0.0031972516 -0.001500457 0.012572396
-0.010376513 -0.010091131 -0.010584865 -0.009696267 0.0047811074 -0.004052298 -0.0022506707 -0.017151682
-0.003370483 -0.0052026114 0.0002899431 0.0041997167 0.0044086534 -0.005462309 0.023936583 -0.004996063
-0.0034985156 -0.00054635527 -0.004465479 -0.0046921945 -0.008100975 -0.01218665 -0.014744093 0.0030662718
0.019353358 0.0018450319 0.0061551123 -0.012061955 0.010429136 0.00078782527 0.013076151 -0.008870787
0.014071345 -0.008542081 0.017751308 -0.007918198 0.0028906455 -0.011149729 0.00995863 -0.007992498
0.0021196124 0.0032901485 0.0027271823 0.006495984 0.010327688 -0.013974774 -0.0018868281 0.0054754526
