results/test/Car_agent/Car_agent-5528.onnx (onnx, 84494 bytes, 7 tensors)

network_body._body_endoder.seq_layers.0.weight f4 [128, 19]
00000000: 931a 8f3d 192a 483d 54d9 bc3d f4a1 1e3d
00000010: d5bc 5e3e 3e95 d53d 98b7 b13d 9c4c a9be
00000020: 6094 6b3e 7ff4 463e b252 1f3c f0a5 0b3f
00000030: 6726 843d 514f 82be ee63 8d3e bfc5 143d
00000040: 6ec8 55be d351 55be 890f 893d 5f68 47be
00000050: 11b7 6dbe 7117 623e af48 b3bd 8eb4 533c
00000060: d8cd f0bd f408 3b3e 41fe 9bbe 28ba 3cbd
00000070: 2e6e f33d 90b4 94be d5d1 b03e 72cd a53e
00000080: c11f 22bd c3d2 233a 1f49 bdbe c87d 163e
00000090: 1eb1 053d 5177 92bc aafa 083e 4858 9f3c
000000a0: 643c 43bd 6f32 9fbe dbae f03e f777 73bd
000000b0: e4b6 633e 0f77 53be b6f5 88be 569c 0b3d
000000c0: eb24 7b3e 7434 01bf 8a81 ae3e 4a58 3a3d
000000d0: 8ba4 f73d 449e c3bd f5ba 6f3e 2a1e 4dbe
000000e0: 9b2b d8be 362e 9fbd 5fe8 013f 6212 8bbd
000000f0: 9d5f 213e 49bc debd edbc 9c3e ddc3 69be
00000100: f019 debe b2dd 063f f1cd d33d c94c c6be
00000110: 5d18 c43e 22a8 05be 12d0 ce3e c262 ebbe
00000120: 0d2c b03d 3525 0cbe 3e18 963e ad07 91be
00000130: a077 a13d 9ad6 bf3c 38eb 4ebe 8cd1 7b3d
00000140: ea45 c9be bccd 04be ed49 723e eaf8 63be
00000150: d6a8 40bf f0a7 6fbe 5697 3abe 59dd fd3d
00000160: 126e 3e3e 6921 863d 77ee 4abe 288f 07be
00000170: 18be 6e3e 26a7 14bd 3a0a 0e3d 68b5 b23e
00000180: b63d 8abd 8a83 bebe e487 d93d 5598 3c3e
00000190: cd57 483e 952b a6be 44f1 6f3d 996d a83e
000001a0: fd27 15bd 48f6 c4bc 8442 953e fcec 9ebe
000001b0: b289 30be 01cd 673e 8f45 73be 8e94 c2be
000001c0: cfe6 633e dac9 34be 9d6b b23d 8bf0 893e
000001d0: d3f8 1f3d 28f4 c4be 243b e2bd a691 4cbe
000001e0: 72fc 5b3e 7a3a 9b3d 8fe0 ad3e 4bf7 cb3d
000001f0: 9a97 223e e4d0 ee3d a2c2 093f 9b22 113e
00000200: adec 0f3e 1198 913e 3240 173d 9d03 053e
00000210: 8fac 143e 7826 463d b242 843e 43b1 ad3e
00000220: 553a b13e 35f1 1f3e 411c 1c3e 3ae0 0fbe
00000230: 32a6 393e 682c 983d 6876 833e 0a1c 22be
00000240: 8b8c 7cbe 5d2a 70bd 463d e7bd 2e04 773d
00000250: 0c64 703d 417e a8bd cb11 053e 016b 7fbe
00000260: e4f6 a0bd aa0d 1b3d a67e bdbd 0c0d dbbe
00000270: 5d2e 463d a4b9 8ebd ccc7 16be 50b0 01bf
00000280: f50d 883e 3d92 d9bd a135 1d3e 14ec b2be
00000290: 70ec 27bd 8741 08be bb8f 1dbd 90a3 623e
000002a0: 26ac cc3d 54db c2bd 332e 2fbd ebed d03d
000002b0: 662d 8ebe 1115 74b9 0235 b23e f13a 8cbe
000002c0: 20c2 a3bc c136 86be d41f 633e e550 b0be
000002d0: 0755 3d3e 9ea2 4c3e c6de 5c3d 820e 13bc
000002e0: 6376 8c3e b31b 1dbe d3a3 363e b73e d03e
000002f0: 09f1 52be c8a7 b8bc a422 97be b14e d8be
00000300: 5c93 e13d f9c7 eebd b3f5 373e cd4a f13e
00000310: 39ba 42bd 5422 0dbd d13c a2bd ff53 943d
00000320: 3212 85bd 61af bf3b 5d22 a1be b96f 263e
00000330: dd46 77be f0d7 023e bea7 62be 087c 5fbe
00000340: 8aa3 0b3d ab67 193c 571e 893e 6ec2 363d
00000350: bd7f cfbd fdd6 e4bd 6970 86bd 0543 0c3e
00000360: 0bad 353e b01a 5bbe 7f62 efbe f10d 343e
00000370: a936 733e ee9a 5a3e 4e14 55be 3a62 a53d
00000380: 88e5 babe ce40 46bd 7594 2fbc 1462 83bd
00000390: bf7d 6fbe 3385 333e 24cb c2be 7c20 a4bd
000003a0: fcb4 743e 89a5 273e 202f 333e 4486 eabd
000003b0: 45ac bdbd e2a5 99bb 96a3 2ebe 252e 9c3d
000003c0: 8735 803e 5ca5 d53d a235 8ebe 0b5f 0ebe
000003d0: dca1 c63d 80cd b4bd 5c5f d2bc 9413 383e
000003e0: b7b1 34bd 7cfd bdbe 16eb 123e e387 153e
000003f0: 83ba 923e 26cb 003f fce2 703e e7b6 efbd
0.069874905 0.048868272 0.092211396 0.03872867 0.21751721 0.10428856 0.08677596 -0.3306626
0.2300582 0.19429205 0.009724306 0.54550076 0.06452637 -0.2545114 0.27615303 0.036321398
-0.20877239 -0.20831995 0.06692416 -0.19473408 -0.23214366 0.22079255 -0.08754098 0.012921466
-0.117580116 0.18265134 -0.30467418 -0.04607597 0.118862495 -0.29044008 0.3453509 0.32383305
-0.039581064 0.00062493625 -0.3696985 0.14696419 0.032639615 -0.01787916 0.13376871 0.019451275
-0.047665015 -0.31093165 0.47008404 -0.05944058 0.22237736 -0.20650886 -0.26749963 0.03408464
0.24525802 -0.5047066 0.34083205 0.045494355 0.12091931 -0.09551671 0.23411162 -0.20031038
-0.42220768 -0.07772486 0.50745195 -0.067906156 0.1575913 -0.10875756 0.3061289 -0.22828622
-0.43379164 0.5268203 0.103420146 -0.38730457 0.38299838 -0.13052419 0.4039312 -0.45973784
0.08602152 -0.13686068 0.2931537 -0.2832617 0.07884145 0.02341776 -0.20206916 0.061479136
-0.39311153 -0.12969106 0.23661013 -0.22262922 -0.75257623 -0.23403907 -0.18221793 0.12395734
0.18596676 0.06549341 -0.1981753 -0.13238204 0.23314703 -0.036292218 0.03467772 0.34904027
-0.06750052 -0.3720973 0.10621622 0.18417485 0.19564743 -0.32455125 0.0585797 0.32896116
-0.03641509 -0.024043217 0.2915231 -0.3104018 -0.17240027 0.22636797 -0.23757003 -0.38003963
0.22256015 -0.17655125 0.08711932 0.26941332 0.039055657 -0.38467526 -0.110464364 -0.19977435
0.21483019 0.07579513 0.33960387 0.09959277 0.15878144 0.116609365 0.5381261 0.14173357
0.14055128 0.2843633 0.036926456 0.1298966 0.14518951 0.04837653 0.25832134 0.33924302
0.34614816 0.15619357 0.15245153 -0.1405038 0.18129805 0.07430345 0.25676274 -0.15831009
-0.24662988 -0.05863415 -0.11290984 0.06030672 0.058689162 -0.08227206 0.12995069 -0.24943163
-0.07859591 0.037854828 -0.09252672 -0.4278339 0.04838406 -0.06969002 -0.14724654 -0.50659657
0.26573148 -0.10623596 0.15352489 -0.34945738 -0.04099697 -0.13306247 -0.03846715 0.22132707
0.09993772 -0.0951449 -0.04276867 0.10201629 -0.2776901 -0.00023277501 0.34806067 -0.2738872
-0.019990027 -0.2621365 0.2218011 -0.34436718 0.18489467 0.19983909 0.05392339 -0.008975627
0.27434072 -0.15342598 0.17835931 0.40672848 -0.2059976 -0.022540942 -0.29518616 -0.42247537
0.11014435 -0.116592355 0.1796482 0.4712738 -0.047540877 -0.034456566 -0.07921756 0.072425835
-0.06497611 0.005849764 -0.3147153 0.16253556 -0.24148126 0.12777686 -0.22134301 -0.21824658
0.03409151 0.009363095 0.2678096 0.044619016 -0.10131786 -0.11173818 -0.06564409 0.13697441
0.17741792 -0.21396899 -0.46754834 0.17583443 0.2375132 0.21348163 -0.20808527 0.08075376
-0.36503243 -0.048401646 -0.010716547 -0.06415191 -0.23387812 0.1753128 -0.3804561 -0.080140084
0.23897165 0.1637174 0.17498446 -0.114513904 -0.092613734 -0.004688964 -0.1705459 0.07625989
0.25040838 0.104319304 -0.27775294 -0.13903444 0.09698841 -0.088282585 -0.025680237 0.17976218
-0.044114795 -0.37107456 0.1434749 0.14602618 0.28657922 0.5030998 0.23524088 -0.11704808

network_body._body_endoder.seq_layers.0.bias f4 [128]
00000000: 0000 0000 0000 0000 0000 0000 0000 0000
00000010: 0000 0000 0000 0000 0000 0000 0000 0000
00000020: 0000 0000 0000 0000 0000 0000 0000 0000
00000030: 0000 0000 0000 0000 0000 0000 0000 0000
00000040: 0000 0000 0000 0000 0000 0000 0000 0000
00000050: 0000 0000 0000 0000 0000 0000 0000 0000
00000060: 0000 0000 0000 0000 0000 0000 0000 0000
00000070: 0000 0000 0000 0000 0000 0000 0000 0000
00000080: 0000 0000 0000 0000 0000 0000 0000 0000
00000090: 0000 0000 0000 0000 0000 0000 0000 0000
000000a0: 0000 0000 0000 0000 0000 0000 0000 0000
000000b0: 0000 0000 0000 0000 0000 0000 0000 0000
000000c0: 0000 0000 0000 0000 0000 0000 0000 0000
000000d0: 0000 0000 0000 0000 0000 0000 0000 0000
000000e0: 0000 0000 0000 0000 0000 0000 0000 0000
000000f0: 0000 0000 0000 0000 0000 0000 0000 0000
00000100: 0000 0000 0000 0000 0000 0000 0000 0000
00000110: 0000 0000 0000 0000 0000 0000 0000 0000
00000120: 0000 0000 0000 0000 0000 0000 0000 0000
00000130: 0000 0000 0000 0000 0000 0000 0000 0000
00000140: 0000 0000 0000 0000 0000 0000 0000 0000
00000150: 0000 0000 0000 0000 0000 0000 0000 0000
00000160: 0000 0000 0000 0000 0000 0000 0000 0000
00000170: 0000 0000 0000 0000 0000 0000 0000 0000
00000180: 0000 0000 0000 0000 0000 0000 0000 0000
00000190: 0000 0000 0000 0000 0000 0000 0000 0000
000001a0: 0000 0000 0000 0000 0000 0000 0000 0000
000001b0: 0000 0000 0000 0000 0000 0000 0000 0000
000001c0: 0000 0000 0000 0000 0000 0000 0000 0000
000001d0: 0000 0000 0000 0000 0000 0000 0000 0000
000001e0: 0000 0000 0000 0000 0000 0000 0000 0000
000001f0: 0000 0000 0000 0000 0000 0000 0000 0000
0.0 0.0 0.0 0.0 0.0 0.0 0.0 0.0
0.0 0.0 0.0 0.0 0.0 0.0 0.0 0.0
0.0 0.0 0.0 0.0 0.0 0.0 0.0 0.0
0.0 0.0 0.0 0.0 0.0 0.0 0.0 0.0
0.0 0.0 0.0 0.0 0.0 0.0 0.0 0.0
0.0 0.0 0.0 0.0 0.0 0.0 0.0 0.0
0.0 0.0 0.0 0.0 0.0 0.0 0.0 0.0
0.0 0.0 0.0 0.0 0.0 0.0 0.0 0.0
0.0 0.0 0.0 0.0 0.0 0.0 0.0 0.0
0.0 0.0 0.0 0.0 0.0 0.0 0.0 0.0
0.0 0.0 0.0 0.0 0.0 0.0 0.0 0.0
0.0 0.0 0.0 0.0 0.0 0.0 0.0 0.0
0.0 0.0 0.0 0.0 0.0 0.0 0.0 0.0
0.0 0.0 0.0 0.0 0.0 0.0 0.0 0.0
0.0 0.0 0.0 0.0 0.0 0.0 0.0 0.0
0.0 0.0 0.0 0.0 0.0 0.0 0.0 0.0

network_body._body_endoder.seq_layers.2.weight f4 [128, 128]
00000000: 18ac c3bd 07ca 633d 211c 14ba 6530 38be
00000010: a0a1 8fbd f1a4 80bd 8083 52bd ffce 273d
00000020: 35dc 853b cbf9 1f3d 44b8 96bd bf30 e63d
00000030: 2c92 a2bd 1057 a63d 43cb ffbc ea13 8f3d
00000040: 5a05 413d 2f5f 053c 75a5 08bc 0098 b73d
00000050: a74b 55bd 0dc9 49bd cf05 5abd 601c 10be
00000060: 2a96 ff3c 0080 d7bd 4368 bc3d 387b 003e
00000070: acc9 02bd a379 b4bd ef1c 5b3e 7211 f8bc
00000080: 65c9 913d 54e1 f33c 718e 94bd 6a7d bbbd
00000090: 956f 7ebe 594b 8fbc 163f a43c b5e6 073d
000000a0: 172a e83d a9b6 673d f933 463e 418a 51be
000000b0: 7a65 38bd 05c5 1c3e 6cfe 2d3c 232b 3cbe
000000c0: 96e7 e73d 8a7f a0be a503 b5bd aa5f ccbd
000000d0: 44fa 133d 839a fcbc 3298 68bd d2f3 0abe
000000e0: 84f1 953d f9d6 03bd 8f09 003e ac0e 73bc
000000f0: 7a5b b9bd e61d 8d3d 7efd 87bd e601 7f3b
00000100: e00d 11bb 3ad0 dbba 5e8f 26bd ba63 27bd
00000110: ab56 093e 8b3b ed3d 1f91 42bd 9a32 ad3d
00000120: 3455 6b3d c83a dcbc fd5a 493e 288b 87bc
00000130: 1bc1 6a3e f1fa bd3b 156f 653c 5fc8 1d3d
00000140: 02cf 3f3d 03ff eebd 7d09 8bbc 2e33 eabd
00000150: 003a d4bd 1ad3 643e 164b 5abd 66bd 173d
00000160: 4a65 23bd a9ef 203e 5185 a0bd a393 803d
00000170: a9c1 2b3d 8e1c 28bc 0859 9ebd 42ba 1abd
00000180: cdf1 1ebc b118 5bbd e9f5 44be b8ba 8dbd
00000190: c70d 5dbd a7eb 05bd a2ca e6bc a2ca e9bc
000001a0: da73 8b3d f4db 85bd 5c61 cabc adc0 4fbd
000001b0: ffec 76be 8e62 fa3d cc5a bc3d dbc4 5dbc
000001c0: 9776 c6bd 17cc b5bd 4ab1 13bc 20cc a0bc
000001d0: 69b3 c4bd 19ba 243e ff7f 843d c24f 8bbd
000001e0: 51d5 85bd 41c2 a33d 59ff 343d 8072 95bc
000001f0: bfb1 1cbe edfb a83d c145 a4bd 96d8 35bd
00000200: b628 2b3d 58ff 8dbd ad2e 0fbb ec06 0b3e
00000210: b7ed e2bd ba2e 28bd 13a3 413e 0ab8 fabc
00000220: 372d c53d 79be 053c efd7 97bc 1118 9ebb
00000230: 15df a1bb 87d6 c3bd 27dd 93bd 286d 6bbc
00000240: fe30 6e3e 42fb 3f3c 9de0 a53d 7572 4bbd
00000250: da0f 003e 17e5 19bc be01 62bd ebd0 81bc
00000260: 16d9 a43c 4347 ea3c 2ea1 ca3c 89f9 d53c
00000270: a1cb 18bd 4bca b2bc ad20 58bc ecdc acbc
00000280: 594e babd 6c44 1c3e 24cd 93ba 74bc d5bc
00000290: a130 56bd 5ea0 33bd df29 00be 190d b83b
000002a0: 4a27 1f3e f0c5 21be dea4 353c b0d8 8bb9
000002b0: 52a6 c03d 65f3 3cbd 7007 393e 39f2 ee3d
000002c0: 5cd8 38be 67fe 083e 5bcc 3bbe 164d 0cbe
000002d0: cf70 5abd 9f9f bdbd c962 833e 7ad5 9bbc
000002e0: c0c4 6b3e b938 c6ba 3d5e d13c 6f0a c9bd
000002f0: 2602 9a3c 182b 423c ce4a 31be f10b 533d
00000300: 40a5 7b3d f343 17be 96c6 8abc f0fe 153b
00000310: 0d8e 09bd 0fde 44bc c08b 953d 4c06 ef3d
00000320: 4cf5 593c 11f9 9a3d 9458 343b 128b e7bd
00000330: cd80 673b f478 b2bd 927d 8e3d ad9f 1bbd
00000340: b25f 83bd b8bd 1dbd 54ea a13d bf50 96bc
00000350: 4886 9fbb 9691 3bbe 96a7 15bd 0f16 a0bd
00000360: de07 5e3c 81f4 25be c178 1abd b500 f33a
00000370: 3678 cfbc d959 0ebe a700 76bd ebfb a9bd
00000380: 4eb8 a43c 9e36 9bbd fb85 653c 1bf5 183e
00000390: ba1f 9b3c 2042 71bd a1dc 943d b893 bd3d
000003a0: 6899 283d 701e 8d3c 81a1 393d 3e0d f7bd
000003b0: f55b 663b bac0 4d3d 7ae3 29bd a562 7ebd
000003c0: 9c64 8a3c 130b 253e bfa4 873d 9caf 013e
000003d0: 93d5 fcbc bf0f adbc 538a 223c 7bd4 8c3d
000003e0: 9300 00be 0868 5c3d 6b82 193c dc82 1dbd
000003f0: 1e6e 30bd 063c 1dbe bae8 3cbd efdb e03d
-0.09554309 0.05561259 -0.00056499435 -0.17987211 -0.070132494 -0.0628146 -0.05139494 0.04096889
0.0040850886 0.03905658 -0.07359365 0.11239766 -0.07938036 0.081220746 -0.031224852 0.0698622
0.047124244 0.008140369 -0.008340229 0.089645386 -0.0520741 -0.049264003 -0.053228196 -0.14073324
0.031199533 -0.10522461 0.09199574 0.12547004 -0.03193061 -0.08812263 0.21397756 -0.030281756
0.07118491 0.02977053 -0.07253731 -0.0915478 -0.24847253 -0.017491983 0.020049613 0.033179004
0.11336153 0.056570683 0.19355763 -0.20462896 -0.04501865 0.15309532 0.010619741 -0.1837583
0.113234684 -0.31347305 -0.08838586 -0.09979184 0.036127344 -0.030835396 -0.05678577 -0.13569573
0.07321456 -0.032187436 0.12503646 -0.014835041 -0.09050651 0.06890468 -0.06640147 0.0038911044
-0.0022133514 -0.001677043 -0.04066407 -0.04086659 0.13411967 0.115836225 -0.04750168 0.08456917
0.057454303 -0.026883498 0.19663616 -0.016545847 0.22925226 0.005797737 0.014003535 0.038521167
0.046828277 -0.116697334 -0.016972298 -0.11435543 -0.10362625 0.22346154 -0.053294264 0.03704586
-0.03989152 0.15716423 -0.07837928 0.062781595 0.041932736 -0.010260714 -0.07731825 -0.037775286
-0.0097012045 -0.053490344 -0.19234432 -0.069203794 -0.053968217 -0.03269544 -0.028172795 -0.028539006
0.06809206 -0.06536093 -0.024704628 -0.05072086 -0.24113844 0.12225829 0.09197006 -0.0135357035
-0.09690588 -0.08876818 -0.009014437 -0.019628584 -0.09604532 0.16086616 0.06469726 -0.06802322
-0.065348275 0.07996035 0.04418883 -0.018243074 -0.1530218 0.08251176 -0.08021117 -0.044396006
0.04178687 -0.069334686 -0.002184789 0.13576859 -0.11080497 -0.041060187 0.18909864 -0.030605335
0.09627765 0.008163088 -0.018535582 -0.0048246463 -0.0049399235 -0.09562402 -0.07219916 -0.014369287
0.23260877 0.011717619 0.08099482 -0.0496697 0.12506047 -0.009392998 -0.055177443 -0.01584669
0.020123046 0.028598433 0.02473506 0.026119964 -0.03730357 -0.021824976 -0.013191384 -0.021101438
-0.09096975 0.15260476 -0.0011276347 -0.026090838 -0.05229247 -0.04385411 -0.12515973 0.0056167957
0.15542331 -0.15798163 0.011086671 -0.0002667359 0.09406723 -0.046130557 0.18069243 0.11667294
-0.18051285 0.13378297 -0.18339674 -0.13701281 -0.05333024 -0.09258961 0.25661305 -0.019022692
0.23024273 -0.0015123106 0.025557632 -0.09816443 0.018799853 0.011851095 -0.17313692 0.05152506
0.06143689 -0.14772014 -0.016940396 0.002288755 -0.033582736 -0.0120158335 0.07302046 0.11671123
0.013303112 0.07567037 0.0027518617 -0.113058224 0.0035324574 -0.08714476 0.069575444 -0.037994076
-0.06414737 -0.038511008 0.07906023 -0.01834905 -0.0048683025 -0.18317255 -0.036536776 -0.07816707
0.01355168 -0.16206552 -0.037712816 0.001853964 -0.025325876 -0.13901462 -0.060059216 -0.08300003
0.020107415 -0.07578777 0.014008994 0.1493725 0.018936027 -0.058900952 0.07268644 0.09256691
0.041161925 0.017226428 0.045320038 -0.120630726 0.0035150026 0.050232626 -0.041476704 -0.062105794
0.016893677 0.16117506 0.0662322 0.12664646 -0.030863559 -0.021125672 0.009920674 0.06876465
-0.12500219 0.05381015 0.009369473 -0.038454875 -0.043073766 -0.15354928 -0.046120383 0.10979449

action_model._continuous_distribution.log_sigma f4 [1, 2]
00000000: 0000 0000 0000 0000
0.0 0.0

action_model._continuous_distribution.mu.weight f4 [2, 128]
00000000: 2a25 ab3b cdc2 efbc 8d74 7e3c b172 813c
00000010: 776c 2dbd 27c1 99bc 13b8 7dbc 8dbe 693c
00000020: 186c d1bb 64f7 85bc 114d 163c b9cd b83b
00000030: f70a 5bbc b70b 393b cd91 2b3c da35 9f3c
00000040: 0274 d6bc 9743 c3bc 57cc f7b9 14d4 81bc
00000050: 626c 84bc 2891 fe3a e752 913c 2bf3 af3b
00000060: 051f 1b3d 1b8b f03b d194 92bc b998 20bd
00000070: 1897 973b 5566 89bb 33f3 9ebc a818 513d
00000080: fbcd 2e3c f3e2 8a3c 7324 2a3c fa1c 17bb
00000090: 1dd1 e93c d0d9 b4bc 077f 50bc 3b0a c33b
000000a0: 75e3 72bc 96d6 b4bb a305 cabc 5b5d 513c
000000b0: 3d83 a6bc 9a18 ee3c c5c7 9ebc 30f6 17bc
000000c0: dbd3 16bc f009 da3c 7566 713b 5be7 7ebc
000000d0: 6650 82bc efd8 343c e7cd 9bbc d029 71bb
000000e0: 5f6a 943c 9ae2 323d 2e78 823c b9e8 133d
000000f0: ffbd 643c 45b1 373c 7b7f b53c 6d00 3439
00000100: 371a 33bc e56a db3c 8ffc acbb 9b51 adbb
00000110: 9535 99bc c65c cb3b 2457 283c 4506 8cbb
00000120: 4b43 4cbd 87be 22bb b701 98bc 4f2e f93b
00000130: 6b28 443c 10a4 febb fb26 073c b07b cfbc
00000140: 2d0f e43c 1ef4 86bb 144c a0bc ecf6 393c
00000150: ef26 b13c b7a6 f7ba 63d6 aebc 533d e93c
00000160: 9755 89ba 1d44 adbc d2c5 333a 6e82 89bc
00000170: 492e 353c cffb 9d3c 53bf 79bb 0caf 9c3c
00000180: 9e14 1f3c a97f 01bc edf8 f0b8 effc 55b8
00000190: 00ae f8bb 77e3 da3b acde 263b d6ad a43c
000001a0: 82ed b33c 269a 1ebd 50ce c43c add0 b73c
000001b0: 7309 103d cde9 4a3b 3f63 ffbc b0c0 e53c
000001c0: 642c 04bc 5ae3 273c 3355 d03c 2baf b43c
000001d0: 3693 06bd a9e6 1f3c b04b 86bb ef9c 0b3d
000001e0: 0a63 76bb 9ff0 a2bc 95ca b9bc 2af5 b1bb
000001f0: a211 98bb e301 5d3c 29ec 3cbc 5fff b4bb
00000200: 6470 3fbb 3a27 8dbc db3d 6a3c 154e cd3b
00000210: 1221 803c 80f9 5bbc 6eaf 08bc 7bc3 b73c
00000220: e6e6 a1bc 152a 013d daf2 79bc 252b 893c
00000230: fbb9 24bb 2fd4 a1bb f40c c13a e602 b1ba
00000240: 53e3 87bc 3d58 ceba 5099 f3bc 78d2 5e3c
00000250: 70e5 cd3c ea7b d0bc 0b39 2abc 0ae3 0abd
00000260: 922a 503c 5c4e ad3c 07a6 24bc 9975 883c
00000270: d369 1fbd 1556 abbc 93b7 e7bb 8376 f83a
00000280: afd4 c3bc 2a1c 143b dcad c6bb 8b32 f93c
00000290: 9bb0 83bb ca73 4c3b 10f1 aabc 5523 e8bb
000002a0: 6fd5 11bc a232 f9bb fdde efb9 f266 dc3b
000002b0: d85c 6bbb 6863 5d3b 5e5f 823c 1e10 8a3c
000002c0: 0737 f13a 1d63 a33b 0a30 46bb 07f7 12bd
000002d0: e92d 83bc 41a4 8a3c 8b13 78bc 5adb 2c3c
000002e0: 1dd3 523a 67a7 173d 8817 4fbb ff22 723b
000002f0: 193d 02ba 1580 eebb c3a5 edbb 5797 f93c
00000300: 3b0e b33b 72ab 943c 1eda 8c3c a70f a53c
00000310: 0565 843c 9886 7bbc 9e8f 363c e80f d23c
00000320: 9f02 23bb 2164 823c 8849 b7bb b393 29bc
00000330: 16ab 84ba 870a df3a 3e3d b9bb dbb5 b13b
00000340: d2ff 1e3d c05e 773c 5bc3 28bc 13d0 e6bc
00000350: 6830 f3bc 6dda 443c bb05 6cbc 6cf1 0a3d
00000360: 1f32 4c3c f20d d13c 25fd cdbc 6fde 563c
00000370: c528 cd3c 28ea 053b 535d 403c d3f2 8fbc
00000380: 5792 6a3c 731e 55bc 6397 453c 0b46 0fbc
00000390: c126 213d eab9 763a d24a e13c b3d3 54bb
000003a0: db25 b3ba fe6e 9ebc 779f 923b cdbf d83c
000003b0: 07f0 ad3c 8f21 5038 ffe1 1cbb 2002 c0bc
000003c0: 509e 6e39 4b26 313c 32e6 073b 3bf6 08bd
000003d0: 625a dcbb 2a5c 6dbc a540 7b3c e1b6 383a
000003e0: 6f6e e7ba a7a9 24bc ca72 3cbb b9f0 a33c
000003f0: 9807 553b c722 ee3c 07f7 93bc ca2e 52bc
0.005222936 -0.029267693 0.015530718 0.01580176 -0.04233977 -0.01876886 -0.015485781 0.014266622
-0.0063910596 -0.016353317 0.0091736475 0.0056397584 -0.013369313 0.0028235742 0.010471773 0.019434858
-0.026178364 -0.02383594 -0.00047263756 -0.015848197 -0.016164962 0.0019421922 0.017739726 0.005369564
0.03787138 0.0073408014 -0.017893227 -0.039208148 0.004626166 -0.004193107 -0.019403076 0.051048905
0.010669227 0.016953921 0.010384667 -0.0023058043 0.028542096 -0.022076517 -0.012725598 0.0059521473
-0.014824738 -0.0055187447 -0.02466089 0.012778605 -0.020326251 0.029064465 -0.019382367 -0.009275004
-0.009205784 0.026616067 0.003683475 -0.015558089 -0.015907478 0.011038049 -0.01901908 -0.0036798604
0.018117128 0.043673135 0.015926447 0.036110613 0.013961314 0.011211698 0.022155514 0.00017166296
-0.010931543 0.02678437 -0.005279131 -0.005289269 -0.018702308 0.006206128 0.010274682 -0.0042732083
-0.049868863 -0.0024832801 -0.018555505 0.0076043974 0.011972527 -0.0077710226 0.00824904 -0.025327533
0.027839268 -0.0041184565 -0.019567527 0.011350375 0.02162501 -0.0018894289 -0.021342462 0.028471624
-0.0010477778 -0.021150643 0.00068577856 -0.016785827 0.0110583985 0.01928511 -0.0038108423 0.019126438
0.009709505 -0.007903972 -0.00011490458 -5.101872e-05 -0.007589102 0.006679948 0.0025462313 0.020102423
0.021963838 -0.038721226 0.024024159 0.022438372 0.03516526 0.003096211 -0.031175254 0.028045982
-0.008067224 0.010247076 0.025431251 0.022056183 -0.032855235 0.0097595835 -0.004098378 0.03408521
-0.0037595653 -0.019890128 -0.022679606 -0.005430837 -0.004640774 0.013489219 -0.011530914 -0.0055236067
-0.0029211277 -0.017230619 0.014296974 0.0062654116 0.01564077 -0.013426185 -0.008342607 0.02243208
-0.019763421 0.031534273 -0.015255654 0.016744206 -0.0025135267 -0.0049386243 0.0014728592 -0.0013504892
-0.016587889 -0.001574285 -0.029736191 0.013599984 0.025133818 -0.025449712 -0.010389577 -0.033907928
0.012705462 0.021155529 -0.01004935 0.016657637 -0.03891928 -0.02091507 -0.0070714443 0.0018956218
-0.023905126 0.0022599795 -0.006063206 0.030419609 -0.0040188557 0.0031196945 -0.0208669 -0.00708429
-0.008900984 -0.007604913 -0.00045751772 0.006726139 -0.0035913493 0.0033781175 0.015914615 0.016853388
0.001840324 0.0049861805 -0.0030241036 -0.035880115 -0.016013103 0.016924025 -0.015141378 0.010550344
0.00080423226 0.03702488 -0.003159972 0.0036947129 -0.00049682107 -0.007278452 -0.0072524264 0.030467672
0.005464343 0.018148158 0.01719385 0.020149065 0.016161451 -0.015351914 0.011142639 0.02564235
-0.0024873388 0.015916886 -0.0055934824 -0.010350156 -0.0010121788 0.0017016687 -0.0056530526 0.00542329
0.038818188 0.015098274 -0.010300483 -0.02817539 -0.029686168 0.012014967 -0.014405663 0.033921644
0.012463122 0.025519345 -0.025145123 0.013114556 0.025043854 0.0020433757 0.011741 -0.017571842
0.014317117 -0.013007748 0.012060019 -0.008744727 0.0393436 0.00094118586 0.027501497 -0.0032474815
-0.0013667898 -0.019340035 0.004474576 0.026458645 0.021232618 4.962232e-05 -0.0023938415 -0.023438513
0.00022756425 0.010812352 0.0020736572 -0.03343795 -0.0067246417 -0.014487306 0.015335237 0.0007046294
-0.0017656813 -0.010050214 -0.0028754943 0.020012246 0.0032505747 0.029069318 -0.018062128 -0.012828538

action_model._continuous_distribution.mu.bias f4 [2]
00000000: 0000 0000 0000 0000
0.0 0.0

action_model._discrete_distribution.branches.0.weight f4 [1, 128]
00000000: 5780 a3bc ced4 a63c e070 9bbb bcae 2abc
00000010: 87f0 b2bc b93f c0ba 5097 1ebc 23b5 17bb
00000020: e3b2 b03c dbcc feba 66ae c73b efcc e9bb
00000030: 595d c03a c9cb 28bb 0dd0 87bb 0834 a23a
00000040: 4b4c 8e3b b468 353c 7883 e2bb b2e9 57bc
00000050: 1c54 0a3b 9785 36bb a3f1 97bb 4fb2 873b
00000060: 03f5 043c 01c1 053b b3ac f8bb 06bb 863b
00000070: 909a cf3b 7f59 babb de12 a73b e2a7 4eba
00000080: c52e 233b cb32 213c 67d8 6dbc f913 80bb
00000090: dd1b e43c ffe9 e73b 725d 993b 731a ba3a
000000a0: 1dd7 79bc 0467 afbb 0bbf 1abc 6772 ce3a
000000b0: 81b1 8b3c eda9 dcba 9dbd f63a bbce c1ba
000000c0: e246 4cbc fa90 7abb c552 813b 9b92 5ebc
000000d0: 8330 11bc 7298 2bbc f253 4f3c e6b7 86bb
000000e0: 0a8e d4bb b580 3fbc 258a ff3a e7d4 923b
000000f0: ea10 f7b8 a544 1dbb c887 873b f5dc dcba
00000100: 586b e1bb 1127 0b3a 40ab e33b 63a9 1bba
00000110: 62c4 b3bb c548 57bb 5750 f5ba 1569 88bc
00000120: 3f08 75bc 27cc 21bc 43d5 edbb 89d7 113a
00000130: 4f98 12bb b189 1a3c 5bb5 083b 8818 cd3a
00000140: db26 003a a249 5a39 0d88 103c 60e6 10bc
00000150: 3511 8f3c 0ecb abba 8b41 cc39 df71 0a3c
00000160: 40fd d13b a882 df3a cfeb 9f3b 162a 053c
00000170: 5646 08bc 8a2a 813c 9cf2 ca3b 5fe8 8bbc
00000180: afda 36bb f492 18bb d799 dc3b e4c3 b53c
00000190: 5508 553c 63c6 b4bc 6f65 b3bb 8ebc bc3b
000001a0: e335 bd3b 1654 44bc ffa6 283c 576e 533a
000001b0: 23b1 213b 1557 87b9 d1a2 4a3b 2289 5fbb
000001c0: f3f6 2c3b 988f 58bc 0b0c 9dba aef0 acbc
000001d0: bb97 a93c 5adc 073c 6d91 a6bb 4f44 c43b
000001e0: 1fdb 80bc 60ca 78bc 379f 853b 77d5 02bc
000001f0: aa17 5ebc 641a 08bb 9dc6 6db8 879e 6139
-0.019958658 0.020365145 -0.0047436804 -0.0104176365 -0.021843208 -0.0014667428 -0.00967963 -0.0023148737
0.021569675 -0.0019439714 0.006093788 -0.0071350257 0.0014676257 -0.002575623 -0.0041446746 0.0012375126
0.004342591 0.011072326 -0.006912645 -0.013178276 0.0021107262 -0.0027850622 -0.0046369596 0.004141129
0.008115056 0.0020409229 -0.0075889467 0.0041116504 0.006335564 -0.0056869383 0.0050986847 -0.0007883293
0.0024899703 0.00983877 -0.014516926 -0.003908631 0.027845317 0.007077455 0.004680329 0.0014198556
-0.015249041 -0.0053528566 -0.009444962 0.0015750647 0.017052414 -0.001683531 0.001882482 -0.0014786342
-0.012468072 -0.0038233385 0.0039466345 -0.013584758 -0.008861664 -0.0104733575 0.0126542915 -0.004111278
-0.006486659 -0.011688401 0.0019496126 0.0044809463 -0.00011781028 -0.0023997214 0.0041360594 -0.0016850518
-0.0068792515 0.00053082505 0.006947905 -0.00059380213 -0.005486057 -0.003284977 -0.001871596 -0.01665167
-0.014955579 -0.009875334 -0.007258089 0.0005563428 -0.0022368615 0.009432242 0.002086005 0.001564757
0.00048886024 0.0002081753 0.0088214995 -0.008843988 0.01746426 -0.001310678 0.00038958745 0.008450001
0.0064083636 0.0017052488 0.0048804055 0.00812771 -0.008317551 0.015767355 0.006193472 -0.017078577
-0.0027901342 -0.002328095 0.0067322063 0.022188134 0.013002475 -0.022067254 -0.0054747383 0.005759782
0.005774246 -0.011982938 0.010293721 0.0008065453 0.0024672232 -0.00025814088 0.00309198 -0.0034108837
0.002639231 -0.013217829 -0.0011981738 -0.021110859 0.020702234 0.008292282 -0.005083254 0.0059895883
-0.015729485 -0.015184969 0.004077818 -0.007985464 -0.013555447 -0.0020767683 -5.6690176e-05 0.00021516728
